-------------------- Automatic stage clustering --------------------
submesh_choices: ((1, 1), (2, 1))
- Profiling for submesh 1 (2, 1):
- Generate all stage infos (Jaxpr -> HLO)
selected_indices:  [[0, 1], [2, 3]]
selected_indices:  [[0, 1], [2, 3]]
- Compile all stages
[2m[36m(CompileWorker pid=1531229)[0m hlo module before auto shard pass:  HloModule stage_0_1, input_output_alias={ {0}: (0, {}, may-alias), {1}: (1, {}, may-alias), {2}: (2, {}, may-alias), {3}: (3, {}, may-alias), {4}: (4, {}, may-alias), {5}: (5, {}, may-alias), {6}: (6, {}, may-alias), {7}: (7, {}, may-alias), {8}: (8, {}, may-alias), {9}: (9, {}, may-alias), {10}: (10, {}, may-alias), {11}: (11, {}, may-alias), {12}: (12, {}, may-alias), {13}: (13, {}, may-alias), {14}: (14, {}, may-alias), {15}: (15, {}, may-alias), {16}: (16, {}, may-alias), {17}: (17, {}, may-alias), {18}: (18, {}, may-alias), {19}: (19, {}, may-alias), {20}: (20, {}, may-alias), {21}: (21, {}, may-alias), {22}: (22, {}, may-alias), {23}: (23, {}, may-alias), {24}: (24, {}, may-alias), {25}: (25, {}, may-alias), {26}: (26, {}, may-alias), {27}: (27, {}, may-alias), {28}: (28, {}, may-alias), {29}: (29, {}, may-alias), {30}: (30, {}, may-alias), {31}: (31, {}, may-alias), {32}: (32, {}, may-alias), {33}: (33, {}, may-alias) }, entry_computation_layout={(f32[2048,8192]{1,0},f32[8192]{0},f32[8192,2048]{1,0},f32[2048]{0},f32[2048,8192]{1,0},f32[8192]{0},f32[8192,2048]{1,0},f32[2048]{0},f32[2048]{0},f32[8192,2048]{1,0},f32[8192]{0},f32[2048,8192]{1,0},f32[2048]{0},f32[8192,2048]{1,0},f32[8192]{0},f32[2048,8192]{1,0},f32[8192]{0},f32[2048,8192]{1,0},f32[2048]{0},f32[8192,2048]{1,0},f32[8192]{0},f32[2048,8192]{1,0},f32[2048]{0},f32[8192,2048]{1,0},s32[],s32[],f32[8192]{0},f32[2048,8192]{1,0},f32[2048]{0},f32[8192,2048]{1,0},f32[8192]{0},f32[2048,8192]{1,0},f32[2048]{0},f32[8192,2048]{1,0},f32[128,2048]{1,0},f32[128,2048]{1,0})->(f32[2048,8192]{1,0}, f32[8192]{0}, f32[8192,2048]{1,0}, f32[2048]{0}, f32[2048,8192]{1,0}, /*index=5*/f32[8192]{0}, f32[8192,2048]{1,0}, f32[2048]{0}, f32[2048]{0}, f32[8192,2048]{1,0}, /*index=10*/f32[8192]{0}, f32[2048,8192]{1,0}, f32[2048]{0}, f32[8192,2048]{1,0}, f32[8192]{0}, /*index=15*/f32[2048,8192]{1,0}, f32[8192]{0}, f32[2048,8192]{1,0}, f32[2048]{0}, f32[8192,2048]{1,0}, /*index=20*/f32[8192]{0}, f32[2048,8192]{1,0}, f32[2048]{0}, f32[8192,2048]{1,0}, s32[], /*index=25*/s32[], f32[8192]{0}, f32[2048,8192]{1,0}, f32[2048]{0}, f32[8192,2048]{1,0}, /*index=30*/f32[8192]{0}, f32[2048,8192]{1,0}, f32[2048]{0}, f32[8192,2048]{1,0}, f32[128,2048]{1,0}, /*index=35*/pred[128,2048]{1,0}, f32[128,8192]{1,0}, pred[128,8192]{1,0}, f32[128,2048]{1,0}, pred[128,2048]{1,0}, /*index=40*/f32[128,8192]{1,0}, pred[128,8192]{1,0})}
[2m[36m(CompileWorker pid=1531229)[0m 
[2m[36m(CompileWorker pid=1531229)[0m %xla_fallback_pipeline_marker.37 (Arg_0.38: f32[2048,8192], Arg_1.39: f32[8192], Arg_2.40: f32[8192,2048], Arg_3.41: f32[2048], Arg_4.42: f32[128,2048], Arg_5.43: f32[2048,8192], Arg_6.44: f32[8192], Arg_7.45: f32[8192,2048], Arg_8.46: f32[2048], Arg_9.47: f32[128,2048]) -> (f32[2048,8192], f32[8192], f32[8192,2048], f32[2048], f32[128,2048], /*index=5*/f32[2048,8192], f32[8192], f32[8192,2048], f32[2048], f32[128,2048]) {
[2m[36m(CompileWorker pid=1531229)[0m   %Arg_0.38 = f32[2048,8192]{1,0} parameter(0)
[2m[36m(CompileWorker pid=1531229)[0m   %Arg_1.39 = f32[8192]{0} parameter(1)
[2m[36m(CompileWorker pid=1531229)[0m   %Arg_2.40 = f32[8192,2048]{1,0} parameter(2)
[2m[36m(CompileWorker pid=1531229)[0m   %Arg_3.41 = f32[2048]{0} parameter(3)
[2m[36m(CompileWorker pid=1531229)[0m   %Arg_4.42 = f32[128,2048]{1,0} parameter(4)
[2m[36m(CompileWorker pid=1531229)[0m   %Arg_5.43 = f32[2048,8192]{1,0} parameter(5)
[2m[36m(CompileWorker pid=1531229)[0m   %Arg_6.44 = f32[8192]{0} parameter(6)
[2m[36m(CompileWorker pid=1531229)[0m   %Arg_7.45 = f32[8192,2048]{1,0} parameter(7)
[2m[36m(CompileWorker pid=1531229)[0m   %Arg_8.46 = f32[2048]{0} parameter(8)
[2m[36m(CompileWorker pid=1531229)[0m   %Arg_9.47 = f32[128,2048]{1,0} parameter(9)
[2m[36m(CompileWorker pid=1531229)[0m   %tuple.48 = (f32[2048,8192]{1,0}, f32[8192]{0}, f32[8192,2048]{1,0}, f32[2048]{0}, f32[128,2048]{1,0}, /*index=5*/f32[2048,8192]{1,0}, f32[8192]{0}, f32[8192,2048]{1,0}, f32[2048]{0}, f32[128,2048]{1,0}) tuple(f32[2048,8192]{1,0} %Arg_0.38, f32[8192]{0} %Arg_1.39, f32[8192,2048]{1,0} %Arg_2.40, f32[2048]{0} %Arg_3.41, f32[128,2048]{1,0} %Arg_4.42, /*index=5*/f32[2048,8192]{1,0} %Arg_5.43, f32[8192]{0} %Arg_6.44, f32[8192,2048]{1,0} %Arg_7.45, f32[2048]{0} %Arg_8.46, f32[128,2048]{1,0} %Arg_9.47), metadata={op_name="tuple.11"}
[2m[36m(CompileWorker pid=1531229)[0m   ROOT %custom-call.49 = (f32[2048,8192]{1,0}, f32[8192]{0}, f32[8192,2048]{1,0}, f32[2048]{0}, f32[128,2048]{1,0}, /*index=5*/f32[2048,8192]{1,0}, f32[8192]{0}, f32[8192,2048]{1,0}, f32[2048]{0}, f32[128,2048]{1,0}) custom-call((f32[2048,8192]{1,0}, f32[8192]{0}, f32[8192,2048]{1,0}, f32[2048]{0}, f32[128,2048]{1,0}, /*index=5*/f32[2048,8192]{1,0}, f32[8192]{0}, f32[8192,2048]{1,0}, f32[2048]{0}, f32[128,2048]{1,0}) %tuple.48), custom_call_target="pipeline_marker", custom_call_has_side_effect=true, metadata={op_name="stage_0_1_acc_grad_0$start"}, backend_config="\000\000\000\004\000\000\000\000\000\200\000\000\000\000\000\000\000\000\000\004\000\000\000\000\000 \000\000\000\000\000\000\000\000\020\000\000\000\000\000\000\000\000\004\000\000\000\000\000\200\000\000\000\000\000\000\000\000\000\004\000\000\000\000\000 \000\000\000\000\000\000\000\000\020\000\000\000\000\000"
[2m[36m(CompileWorker pid=1531229)[0m }
[2m[36m(CompileWorker pid=1531229)[0m 
[2m[36m(CompileWorker pid=1531229)[0m %pipeline_marker.50 (Arg_0.51: f32[2048,8192], Arg_1.52: f32[8192], Arg_2.53: f32[8192,2048], Arg_3.54: f32[2048], Arg_4.55: f32[128,2048], Arg_5.56: f32[2048,8192], Arg_6.57: f32[8192], Arg_7.58: f32[8192,2048], Arg_8.59: f32[2048], Arg_9.60: f32[128,2048]) -> (f32[2048,8192], f32[8192], f32[8192,2048], f32[2048], f32[128,2048], /*index=5*/f32[2048,8192], f32[8192], f32[8192,2048], f32[2048], f32[128,2048]) {
[2m[36m(CompileWorker pid=1531229)[0m   %Arg_0.51 = f32[2048,8192]{1,0} parameter(0)
[2m[36m(CompileWorker pid=1531229)[0m   %Arg_1.52 = f32[8192]{0} parameter(1)
[2m[36m(CompileWorker pid=1531229)[0m   %Arg_2.53 = f32[8192,2048]{1,0} parameter(2)
[2m[36m(CompileWorker pid=1531229)[0m   %Arg_3.54 = f32[2048]{0} parameter(3)
[2m[36m(CompileWorker pid=1531229)[0m   %Arg_4.55 = f32[128,2048]{1,0} parameter(4)
[2m[36m(CompileWorker pid=1531229)[0m   %Arg_5.56 = f32[2048,8192]{1,0} parameter(5)
[2m[36m(CompileWorker pid=1531229)[0m   %Arg_6.57 = f32[8192]{0} parameter(6)
[2m[36m(CompileWorker pid=1531229)[0m   %Arg_7.58 = f32[8192,2048]{1,0} parameter(7)
[2m[36m(CompileWorker pid=1531229)[0m   %Arg_8.59 = f32[2048]{0} parameter(8)
[2m[36m(CompileWorker pid=1531229)[0m   %Arg_9.60 = f32[128,2048]{1,0} parameter(9)
[2m[36m(CompileWorker pid=1531229)[0m   %call.61 = (f32[2048,8192]{1,0}, f32[8192]{0}, f32[8192,2048]{1,0}, f32[2048]{0}, f32[128,2048]{1,0}, /*index=5*/f32[2048,8192]{1,0}, f32[8192]{0}, f32[8192,2048]{1,0}, f32[2048]{0}, f32[128,2048]{1,0}) call(f32[2048,8192]{1,0} %Arg_0.51, f32[8192]{0} %Arg_1.52, f32[8192,2048]{1,0} %Arg_2.53, f32[2048]{0} %Arg_3.54, f32[128,2048]{1,0} %Arg_4.55, /*index=5*/f32[2048,8192]{1,0} %Arg_5.56, f32[8192]{0} %Arg_6.57, f32[8192,2048]{1,0} %Arg_7.58, f32[2048]{0} %Arg_8.59, f32[128,2048]{1,0} %Arg_9.60), to_apply=%xla_fallback_pipeline_marker.37
[2m[36m(CompileWorker pid=1531229)[0m   %get-tuple-element.62 = f32[2048,8192]{1,0} get-tuple-element((f32[2048,8192]{1,0}, f32[8192]{0}, f32[8192,2048]{1,0}, f32[2048]{0}, f32[128,2048]{1,0}, /*index=5*/f32[2048,8192]{1,0}, f32[8192]{0}, f32[8192,2048]{1,0}, f32[2048]{0}, f32[128,2048]{1,0}) %call.61), index=0, metadata={op_name="parallelize(stage_0_1)/jit(main)/pipeline_marker[name=stage_0_1_acc_grad_0 mark_type=start]"}
[2m[36m(CompileWorker pid=1531229)[0m   %get-tuple-element.63 = f32[8192]{0} get-tuple-element((f32[2048,8192]{1,0}, f32[8192]{0}, f32[8192,2048]{1,0}, f32[2048]{0}, f32[128,2048]{1,0}, /*index=5*/f32[2048,8192]{1,0}, f32[8192]{0}, f32[8192,2048]{1,0}, f32[2048]{0}, f32[128,2048]{1,0}) %call.61), index=1, metadata={op_name="parallelize(stage_0_1)/jit(main)/pipeline_marker[name=stage_0_1_acc_grad_0 mark_type=start]"}
[2m[36m(CompileWorker pid=1531229)[0m   %get-tuple-element.64 = f32[8192,2048]{1,0} get-tuple-element((f32[2048,8192]{1,0}, f32[8192]{0}, f32[8192,2048]{1,0}, f32[2048]{0}, f32[128,2048]{1,0}, /*index=5*/f32[2048,8192]{1,0}, f32[8192]{0}, f32[8192,2048]{1,0}, f32[2048]{0}, f32[128,2048]{1,0}) %call.61), index=2, metadata={op_name="parallelize(stage_0_1)/jit(main)/pipeline_marker[name=stage_0_1_acc_grad_0 mark_type=start]"}
[2m[36m(CompileWorker pid=1531229)[0m   %get-tuple-element.65 = f32[2048]{0} get-tuple-element((f32[2048,8192]{1,0}, f32[8192]{0}, f32[8192,2048]{1,0}, f32[2048]{0}, f32[128,2048]{1,0}, /*index=5*/f32[2048,8192]{1,0}, f32[8192]{0}, f32[8192,2048]{1,0}, f32[2048]{0}, f32[128,2048]{1,0}) %call.61), index=3, metadata={op_name="parallelize(stage_0_1)/jit(main)/pipeline_marker[name=stage_0_1_acc_grad_0 mark_type=start]"}
[2m[36m(CompileWorker pid=1531229)[0m   %get-tuple-element.66 = f32[128,2048]{1,0} get-tuple-element((f32[2048,8192]{1,0}, f32[8192]{0}, f32[8192,2048]{1,0}, f32[2048]{0}, f32[128,2048]{1,0}, /*index=5*/f32[2048,8192]{1,0}, f32[8192]{0}, f32[8192,2048]{1,0}, f32[2048]{0}, f32[128,2048]{1,0}) %call.61), index=4, metadata={op_name="parallelize(stage_0_1)/jit(main)/pipeline_marker[name=stage_0_1_acc_grad_0 mark_type=start]"}
[2m[36m(CompileWorker pid=1531229)[0m   %get-tuple-element.67 = f32[2048,8192]{1,0} get-tuple-element((f32[2048,8192]{1,0}, f32[8192]{0}, f32[8192,2048]{1,0}, f32[2048]{0}, f32[128,2048]{1,0}, /*index=5*/f32[2048,8192]{1,0}, f32[8192]{0}, f32[8192,2048]{1,0}, f32[2048]{0}, f32[128,2048]{1,0}) %call.61), index=5, metadata={op_name="parallelize(stage_0_1)/jit(main)/pipeline_marker[name=stage_0_1_acc_grad_0 mark_type=start]"}
[2m[36m(CompileWorker pid=1531229)[0m   %get-tuple-element.68 = f32[8192]{0} get-tuple-element((f32[2048,8192]{1,0}, f32[8192]{0}, f32[8192,2048]{1,0}, f32[2048]{0}, f32[128,2048]{1,0}, /*index=5*/f32[2048,8192]{1,0}, f32[8192]{0}, f32[8192,2048]{1,0}, f32[2048]{0}, f32[128,2048]{1,0}) %call.61), index=6, metadata={op_name="parallelize(stage_0_1)/jit(main)/pipeline_marker[name=stage_0_1_acc_grad_0 mark_type=start]"}
[2m[36m(CompileWorker pid=1531229)[0m   %get-tuple-element.69 = f32[8192,2048]{1,0} get-tuple-element((f32[2048,8192]{1,0}, f32[8192]{0}, f32[8192,2048]{1,0}, f32[2048]{0}, f32[128,2048]{1,0}, /*index=5*/f32[2048,8192]{1,0}, f32[8192]{0}, f32[8192,2048]{1,0}, f32[2048]{0}, f32[128,2048]{1,0}) %call.61), index=7, metadata={op_name="parallelize(stage_0_1)/jit(main)/pipeline_marker[name=stage_0_1_acc_grad_0 mark_type=start]"}
[2m[36m(CompileWorker pid=1531229)[0m   %get-tuple-element.70 = f32[2048]{0} get-tuple-element((f32[2048,8192]{1,0}, f32[8192]{0}, f32[8192,2048]{1,0}, f32[2048]{0}, f32[128,2048]{1,0}, /*index=5*/f32[2048,8192]{1,0}, f32[8192]{0}, f32[8192,2048]{1,0}, f32[2048]{0}, f32[128,2048]{1,0}) %call.61), index=8, metadata={op_name="parallelize(stage_0_1)/jit(main)/pipeline_marker[name=stage_0_1_acc_grad_0 mark_type=start]"}
[2m[36m(CompileWorker pid=1531229)[0m   %get-tuple-element.71 = f32[128,2048]{1,0} get-tuple-element((f32[2048,8192]{1,0}, f32[8192]{0}, f32[8192,2048]{1,0}, f32[2048]{0}, f32[128,2048]{1,0}, /*index=5*/f32[2048,8192]{1,0}, f32[8192]{0}, f32[8192,2048]{1,0}, f32[2048]{0}, f32[128,2048]{1,0}) %call.61), index=9, metadata={op_name="parallelize(stage_0_1)/jit(main)/pipeline_marker[name=stage_0_1_acc_grad_0 mark_type=start]"}
[2m[36m(CompileWorker pid=1531229)[0m   ROOT %tuple.72 = (f32[2048,8192]{1,0}, f32[8192]{0}, f32[8192,2048]{1,0}, f32[2048]{0}, f32[128,2048]{1,0}, /*index=5*/f32[2048,8192]{1,0}, f32[8192]{0}, f32[8192,2048]{1,0}, f32[2048]{0}, f32[128,2048]{1,0}) tuple(f32[2048,8192]{1,0} %get-tuple-element.62, f32[8192]{0} %get-tuple-element.63, f32[8192,2048]{1,0} %get-tuple-element.64, f32[2048]{0} %get-tuple-element.65, f32[128,2048]{1,0} %get-tuple-element.66, /*index=5*/f32[2048,8192]{1,0} %get-tuple-element.67, f32[8192]{0} %get-tuple-element.68, f32[8192,2048]{1,0} %get-tuple-element.69, f32[2048]{0} %get-tuple-element.70, f32[128,2048]{1,0} %get-tuple-element.71)
[2m[36m(CompileWorker pid=1531229)[0m }
[2m[36m(CompileWorker pid=1531229)[0m 
[2m[36m(CompileWorker pid=1531229)[0m %stage_0_1_acc_grad_00.84 (Arg_0.85: f32[2048,8192], Arg_1.86: f32[8192], Arg_2.87: f32[8192,2048], Arg_3.88: f32[2048], Arg_4.89: f32[128,2048]) -> (f32[128,2048], pred[128,2048], f32[128,8192], pred[128,8192]) {
[2m[36m(CompileWorker pid=1531229)[0m   %Arg_4.89 = f32[128,2048]{1,0} parameter(4)
[2m[36m(CompileWorker pid=1531229)[0m   %Arg_0.85 = f32[2048,8192]{1,0} parameter(0)
[2m[36m(CompileWorker pid=1531229)[0m   %dot.94 = f32[128,8192]{1,0} dot(f32[128,2048]{1,0} %Arg_4.89, f32[2048,8192]{1,0} %Arg_0.85), lhs_contracting_dims={1}, rhs_contracting_dims={0}, metadata={op_name="parallelize(stage_0_1)/jit(main)/jit(stage_0_1_acc_grad_0)/jit(stage_0_1_acc_grad_00)/jvp(MLPModel)/Dense_0/dot_general[dimension_numbers=(((1,), (0,)), ((), ())) precision=None preferred_element_type=None]" source_file="/home/jingqi/anaconda3/envs/ddl/lib/python3.9/site-packages/flax/linen/linear.py" source_line=196}
[2m[36m(CompileWorker pid=1531229)[0m   %Arg_1.86 = f32[8192]{0} parameter(1)
[2m[36m(CompileWorker pid=1531229)[0m   %reshape.95 = f32[1,8192]{1,0} reshape(f32[8192]{0} %Arg_1.86), metadata={op_name="parallelize(stage_0_1)/jit(main)/jit(stage_0_1_acc_grad_0)/jit(stage_0_1_acc_grad_00)/jvp(MLPModel)/Dense_0/reshape[new_sizes=(1, 8192) dimensions=None]" source_file="/home/jingqi/anaconda3/envs/ddl/lib/python3.9/site-packages/flax/linen/linear.py" source_line=200}
[2m[36m(CompileWorker pid=1531229)[0m   %broadcast.96 = f32[1,8192]{1,0} broadcast(f32[1,8192]{1,0} %reshape.95), dimensions={0,1}, metadata={op_name="parallelize(stage_0_1)/jit(main)/jit(stage_0_1_acc_grad_0)/jit(stage_0_1_acc_grad_00)/jvp(MLPModel)/Dense_0/add" source_file="/home/jingqi/anaconda3/envs/ddl/lib/python3.9/site-packages/flax/linen/linear.py" source_line=200}
[2m[36m(CompileWorker pid=1531229)[0m   %reshape.97 = f32[8192]{0} reshape(f32[1,8192]{1,0} %broadcast.96), metadata={op_name="parallelize(stage_0_1)/jit(main)/jit(stage_0_1_acc_grad_0)/jit(stage_0_1_acc_grad_00)/jvp(MLPModel)/Dense_0/add" source_file="/home/jingqi/anaconda3/envs/ddl/lib/python3.9/site-packages/flax/linen/linear.py" source_line=200}
[2m[36m(CompileWorker pid=1531229)[0m   %broadcast.98 = f32[128,8192]{1,0} broadcast(f32[8192]{0} %reshape.97), dimensions={1}, metadata={op_name="parallelize(stage_0_1)/jit(main)/jit(stage_0_1_acc_grad_0)/jit(stage_0_1_acc_grad_00)/jvp(MLPModel)/Dense_0/add" source_file="/home/jingqi/anaconda3/envs/ddl/lib/python3.9/site-packages/flax/linen/linear.py" source_line=200}
[2m[36m(CompileWorker pid=1531229)[0m   %add.99 = f32[128,8192]{1,0} add(f32[128,8192]{1,0} %dot.94, f32[128,8192]{1,0} %broadcast.98), metadata={op_name="parallelize(stage_0_1)/jit(main)/jit(stage_0_1_acc_grad_0)/jit(stage_0_1_acc_grad_00)/jvp(MLPModel)/Dense_0/add" source_file="/home/jingqi/anaconda3/envs/ddl/lib/python3.9/site-packages/flax/linen/linear.py" source_line=200}
[2m[36m(CompileWorker pid=1531229)[0m   %constant.92 = f32[] constant(0)
[2m[36m(CompileWorker pid=1531229)[0m   %broadcast.93 = f32[128,8192]{1,0} broadcast(f32[] %constant.92), dimensions={}, metadata={op_name="parallelize(stage_0_1)/jit(main)/jit(stage_0_1_acc_grad_0)/jit(stage_0_1_acc_grad_00)/jvp(MLPModel)/max" source_file="/home/jingqi/alpa/tests/tutorial/pipeline_shard.py" source_line=69}
[2m[36m(CompileWorker pid=1531229)[0m   %maximum.100 = f32[128,8192]{1,0} maximum(f32[128,8192]{1,0} %add.99, f32[128,8192]{1,0} %broadcast.93), metadata={op_name="parallelize(stage_0_1)/jit(main)/jit(stage_0_1_acc_grad_0)/jit(stage_0_1_acc_grad_00)/jvp(MLPModel)/max" source_file="/home/jingqi/alpa/tests/tutorial/pipeline_shard.py" source_line=69}
[2m[36m(CompileWorker pid=1531229)[0m   %Arg_2.87 = f32[8192,2048]{1,0} parameter(2)
[2m[36m(CompileWorker pid=1531229)[0m   %dot.102 = f32[128,2048]{1,0} dot(f32[128,8192]{1,0} %maximum.100, f32[8192,2048]{1,0} %Arg_2.87), lhs_contracting_dims={1}, rhs_contracting_dims={0}, metadata={op_name="parallelize(stage_0_1)/jit(main)/jit(stage_0_1_acc_grad_0)/jit(stage_0_1_acc_grad_00)/jvp(MLPModel)/Dense_1/dot_general[dimension_numbers=(((1,), (0,)), ((), ())) precision=None preferred_element_type=None]" source_file="/home/jingqi/anaconda3/envs/ddl/lib/python3.9/site-packages/flax/linen/linear.py" source_line=196}
[2m[36m(CompileWorker pid=1531229)[0m   %Arg_3.88 = f32[2048]{0} parameter(3)
[2m[36m(CompileWorker pid=1531229)[0m   %reshape.103 = f32[1,2048]{1,0} reshape(f32[2048]{0} %Arg_3.88), metadata={op_name="parallelize(stage_0_1)/jit(main)/jit(stage_0_1_acc_grad_0)/jit(stage_0_1_acc_grad_00)/jvp(MLPModel)/Dense_1/reshape[new_sizes=(1, 2048) dimensions=None]" source_file="/home/jingqi/anaconda3/envs/ddl/lib/python3.9/site-packages/flax/linen/linear.py" source_line=200}
[2m[36m(CompileWorker pid=1531229)[0m   %broadcast.104 = f32[1,2048]{1,0} broadcast(f32[1,2048]{1,0} %reshape.103), dimensions={0,1}, metadata={op_name="parallelize(stage_0_1)/jit(main)/jit(stage_0_1_acc_grad_0)/jit(stage_0_1_acc_grad_00)/jvp(MLPModel)/Dense_1/add" source_file="/home/jingqi/anaconda3/envs/ddl/lib/python3.9/site-packages/flax/linen/linear.py" source_line=200}
[2m[36m(CompileWorker pid=1531229)[0m   %reshape.105 = f32[2048]{0} reshape(f32[1,2048]{1,0} %broadcast.104), metadata={op_name="parallelize(stage_0_1)/jit(main)/jit(stage_0_1_acc_grad_0)/jit(stage_0_1_acc_grad_00)/jvp(MLPModel)/Dense_1/add" source_file="/home/jingqi/anaconda3/envs/ddl/lib/python3.9/site-packages/flax/linen/linear.py" source_line=200}
[2m[36m(CompileWorker pid=1531229)[0m   %broadcast.106 = f32[128,2048]{1,0} broadcast(f32[2048]{0} %reshape.105), dimensions={1}, metadata={op_name="parallelize(stage_0_1)/jit(main)/jit(stage_0_1_acc_grad_0)/jit(stage_0_1_acc_grad_00)/jvp(MLPModel)/Dense_1/add" source_file="/home/jingqi/anaconda3/envs/ddl/lib/python3.9/site-packages/flax/linen/linear.py" source_line=200}
[2m[36m(CompileWorker pid=1531229)[0m   %add.107 = f32[128,2048]{1,0} add(f32[128,2048]{1,0} %dot.102, f32[128,2048]{1,0} %broadcast.106), metadata={op_name="parallelize(stage_0_1)/jit(main)/jit(stage_0_1_acc_grad_0)/jit(stage_0_1_acc_grad_00)/jvp(MLPModel)/Dense_1/add" source_file="/home/jingqi/anaconda3/envs/ddl/lib/python3.9/site-packages/flax/linen/linear.py" source_line=200}
[2m[36m(CompileWorker pid=1531229)[0m   %constant.90 = f32[] constant(0)
[2m[36m(CompileWorker pid=1531229)[0m   %broadcast.91 = f32[128,2048]{1,0} broadcast(f32[] %constant.90), dimensions={}, metadata={op_name="parallelize(stage_0_1)/jit(main)/jit(stage_0_1_acc_grad_0)/jit(stage_0_1_acc_grad_00)/jvp(MLPModel)/max" source_file="/home/jingqi/alpa/tests/tutorial/pipeline_shard.py" source_line=71}
[2m[36m(CompileWorker pid=1531229)[0m   %maximum.108 = f32[128,2048]{1,0} maximum(f32[128,2048]{1,0} %add.107, f32[128,2048]{1,0} %broadcast.91), metadata={op_name="parallelize(stage_0_1)/jit(main)/jit(stage_0_1_acc_grad_0)/jit(stage_0_1_acc_grad_00)/jvp(MLPModel)/max" source_file="/home/jingqi/alpa/tests/tutorial/pipeline_shard.py" source_line=71}
[2m[36m(CompileWorker pid=1531229)[0m   %compare.109 = pred[128,2048]{1,0} compare(f32[128,2048]{1,0} %add.107, f32[128,2048]{1,0} %broadcast.91), direction=GT, metadata={op_name="parallelize(stage_0_1)/jit(main)/jit(stage_0_1_acc_grad_0)/jit(stage_0_1_acc_grad_00)/jvp(MLPModel)/gt" source_file="/home/jingqi/alpa/tests/tutorial/pipeline_shard.py" source_line=71}
[2m[36m(CompileWorker pid=1531229)[0m   %compare.101 = pred[128,8192]{1,0} compare(f32[128,8192]{1,0} %add.99, f32[128,8192]{1,0} %broadcast.93), direction=GT, metadata={op_name="parallelize(stage_0_1)/jit(main)/jit(stage_0_1_acc_grad_0)/jit(stage_0_1_acc_grad_00)/jvp(MLPModel)/gt" source_file="/home/jingqi/alpa/tests/tutorial/pipeline_shard.py" source_line=69}
[2m[36m(CompileWorker pid=1531229)[0m   ROOT %tuple.110 = (f32[128,2048]{1,0}, pred[128,2048]{1,0}, f32[128,8192]{1,0}, pred[128,8192]{1,0}) tuple(f32[128,2048]{1,0} %maximum.108, pred[128,2048]{1,0} %compare.109, f32[128,8192]{1,0} %maximum.100, pred[128,8192]{1,0} %compare.101)
[2m[36m(CompileWorker pid=1531229)[0m }
[2m[36m(CompileWorker pid=1531229)[0m 
[2m[36m(CompileWorker pid=1531229)[0m %stage_0_1_acc_grad_01.111 (Arg_0.112: f32[128,2048], Arg_1.113: f32[2048,8192], Arg_2.114: f32[8192], Arg_3.115: f32[8192,2048], Arg_4.116: f32[2048], Arg_5.117: f32[128,2048]) -> (f32[128,2048], pred[128,2048], f32[128,8192], pred[128,8192]) {
[2m[36m(CompileWorker pid=1531229)[0m   %Arg_0.112 = f32[128,2048]{1,0} parameter(0)
[2m[36m(CompileWorker pid=1531229)[0m   %Arg_1.113 = f32[2048,8192]{1,0} parameter(1)
[2m[36m(CompileWorker pid=1531229)[0m   %dot.124 = f32[128,8192]{1,0} dot(f32[128,2048]{1,0} %Arg_0.112, f32[2048,8192]{1,0} %Arg_1.113), lhs_contracting_dims={1}, rhs_contracting_dims={0}, metadata={op_name="parallelize(stage_0_1)/jit(main)/jit(stage_0_1_acc_grad_0)/jit(stage_0_1_acc_grad_01)/jvp(MLPModel)/Dense_2/dot_general[dimension_numbers=(((1,), (0,)), ((), ())) precision=None preferred_element_type=None]" source_file="/home/jingqi/anaconda3/envs/ddl/lib/python3.9/site-packages/flax/linen/linear.py" source_line=196}
[2m[36m(CompileWorker pid=1531229)[0m   %Arg_2.114 = f32[8192]{0} parameter(2)
[2m[36m(CompileWorker pid=1531229)[0m   %reshape.125 = f32[1,8192]{1,0} reshape(f32[8192]{0} %Arg_2.114), metadata={op_name="parallelize(stage_0_1)/jit(main)/jit(stage_0_1_acc_grad_0)/jit(stage_0_1_acc_grad_01)/jvp(MLPModel)/Dense_2/reshape[new_sizes=(1, 8192) dimensions=None]" source_file="/home/jingqi/anaconda3/envs/ddl/lib/python3.9/site-packages/flax/linen/linear.py" source_line=200}
[2m[36m(CompileWorker pid=1531229)[0m   %broadcast.126 = f32[1,8192]{1,0} broadcast(f32[1,8192]{1,0} %reshape.125), dimensions={0,1}, metadata={op_name="parallelize(stage_0_1)/jit(main)/jit(stage_0_1_acc_grad_0)/jit(stage_0_1_acc_grad_01)/jvp(MLPModel)/Dense_2/add" source_file="/home/jingqi/anaconda3/envs/ddl/lib/python3.9/site-packages/flax/linen/linear.py" source_line=200}
[2m[36m(CompileWorker pid=1531229)[0m   %reshape.127 = f32[8192]{0} reshape(f32[1,8192]{1,0} %broadcast.126), metadata={op_name="parallelize(stage_0_1)/jit(main)/jit(stage_0_1_acc_grad_0)/jit(stage_0_1_acc_grad_01)/jvp(MLPModel)/Dense_2/add" source_file="/home/jingqi/anaconda3/envs/ddl/lib/python3.9/site-packages/flax/linen/linear.py" source_line=200}
[2m[36m(CompileWorker pid=1531229)[0m   %broadcast.128 = f32[128,8192]{1,0} broadcast(f32[8192]{0} %reshape.127), dimensions={1}, metadata={op_name="parallelize(stage_0_1)/jit(main)/jit(stage_0_1_acc_grad_0)/jit(stage_0_1_acc_grad_01)/jvp(MLPModel)/Dense_2/add" source_file="/home/jingqi/anaconda3/envs/ddl/lib/python3.9/site-packages/flax/linen/linear.py" source_line=200}
[2m[36m(CompileWorker pid=1531229)[0m   %add.129 = f32[128,8192]{1,0} add(f32[128,8192]{1,0} %dot.124, f32[128,8192]{1,0} %broadcast.128), metadata={op_name="parallelize(stage_0_1)/jit(main)/jit(stage_0_1_acc_grad_0)/jit(stage_0_1_acc_grad_01)/jvp(MLPModel)/Dense_2/add" source_file="/home/jingqi/anaconda3/envs/ddl/lib/python3.9/site-packages/flax/linen/linear.py" source_line=200}
[2m[36m(CompileWorker pid=1531229)[0m   %constant.122 = f32[] constant(0)
[2m[36m(CompileWorker pid=1531229)[0m   %broadcast.123 = f32[128,8192]{1,0} broadcast(f32[] %constant.122), dimensions={}, metadata={op_name="parallelize(stage_0_1)/jit(main)/jit(stage_0_1_acc_grad_0)/jit(stage_0_1_acc_grad_01)/jvp(MLPModel)/max" source_file="/home/jingqi/alpa/tests/tutorial/pipeline_shard.py" source_line=73}
[2m[36m(CompileWorker pid=1531229)[0m   %maximum.130 = f32[128,8192]{1,0} maximum(f32[128,8192]{1,0} %add.129, f32[128,8192]{1,0} %broadcast.123), metadata={op_name="parallelize(stage_0_1)/jit(main)/jit(stage_0_1_acc_grad_0)/jit(stage_0_1_acc_grad_01)/jvp(MLPModel)/max" source_file="/home/jingqi/alpa/tests/tutorial/pipeline_shard.py" source_line=73}
[2m[36m(CompileWorker pid=1531229)[0m   %Arg_3.115 = f32[8192,2048]{1,0} parameter(3)
[2m[36m(CompileWorker pid=1531229)[0m   %dot.132 = f32[128,2048]{1,0} dot(f32[128,8192]{1,0} %maximum.130, f32[8192,2048]{1,0} %Arg_3.115), lhs_contracting_dims={1}, rhs_contracting_dims={0}, metadata={op_name="parallelize(stage_0_1)/jit(main)/jit(stage_0_1_acc_grad_0)/jit(stage_0_1_acc_grad_01)/jvp(MLPModel)/Dense_3/dot_general[dimension_numbers=(((1,), (0,)), ((), ())) precision=None preferred_element_type=None]" source_file="/home/jingqi/anaconda3/envs/ddl/lib/python3.9/site-packages/flax/linen/linear.py" source_line=196}
[2m[36m(CompileWorker pid=1531229)[0m   %Arg_4.116 = f32[2048]{0} parameter(4)
[2m[36m(CompileWorker pid=1531229)[0m   %reshape.133 = f32[1,2048]{1,0} reshape(f32[2048]{0} %Arg_4.116), metadata={op_name="parallelize(stage_0_1)/jit(main)/jit(stage_0_1_acc_grad_0)/jit(stage_0_1_acc_grad_01)/jvp(MLPModel)/Dense_3/reshape[new_sizes=(1, 2048) dimensions=None]" source_file="/home/jingqi/anaconda3/envs/ddl/lib/python3.9/site-packages/flax/linen/linear.py" source_line=200}
[2m[36m(CompileWorker pid=1531229)[0m   %broadcast.134 = f32[1,2048]{1,0} broadcast(f32[1,2048]{1,0} %reshape.133), dimensions={0,1}, metadata={op_name="parallelize(stage_0_1)/jit(main)/jit(stage_0_1_acc_grad_0)/jit(stage_0_1_acc_grad_01)/jvp(MLPModel)/Dense_3/add" source_file="/home/jingqi/anaconda3/envs/ddl/lib/python3.9/site-packages/flax/linen/linear.py" source_line=200}
[2m[36m(CompileWorker pid=1531229)[0m   %reshape.135 = f32[2048]{0} reshape(f32[1,2048]{1,0} %broadcast.134), metadata={op_name="parallelize(stage_0_1)/jit(main)/jit(stage_0_1_acc_grad_0)/jit(stage_0_1_acc_grad_01)/jvp(MLPModel)/Dense_3/add" source_file="/home/jingqi/anaconda3/envs/ddl/lib/python3.9/site-packages/flax/linen/linear.py" source_line=200}
[2m[36m(CompileWorker pid=1531229)[0m   %broadcast.136 = f32[128,2048]{1,0} broadcast(f32[2048]{0} %reshape.135), dimensions={1}, metadata={op_name="parallelize(stage_0_1)/jit(main)/jit(stage_0_1_acc_grad_0)/jit(stage_0_1_acc_grad_01)/jvp(MLPModel)/Dense_3/add" source_file="/home/jingqi/anaconda3/envs/ddl/lib/python3.9/site-packages/flax/linen/linear.py" source_line=200}
[2m[36m(CompileWorker pid=1531229)[0m   %add.137 = f32[128,2048]{1,0} add(f32[128,2048]{1,0} %dot.132, f32[128,2048]{1,0} %broadcast.136), metadata={op_name="parallelize(stage_0_1)/jit(main)/jit(stage_0_1_acc_grad_0)/jit(stage_0_1_acc_grad_01)/jvp(MLPModel)/Dense_3/add" source_file="/home/jingqi/anaconda3/envs/ddl/lib/python3.9/site-packages/flax/linen/linear.py" source_line=200}
[2m[36m(CompileWorker pid=1531229)[0m   %constant.120 = f32[] constant(0)
[2m[36m(CompileWorker pid=1531229)[0m   %broadcast.121 = f32[128,2048]{1,0} broadcast(f32[] %constant.120), dimensions={}, metadata={op_name="parallelize(stage_0_1)/jit(main)/jit(stage_0_1_acc_grad_0)/jit(stage_0_1_acc_grad_01)/jvp(MLPModel)/max" source_file="/home/jingqi/alpa/tests/tutorial/pipeline_shard.py" source_line=75}
[2m[36m(CompileWorker pid=1531229)[0m   %maximum.138 = f32[128,2048]{1,0} maximum(f32[128,2048]{1,0} %add.137, f32[128,2048]{1,0} %broadcast.121), metadata={op_name="parallelize(stage_0_1)/jit(main)/jit(stage_0_1_acc_grad_0)/jit(stage_0_1_acc_grad_01)/jvp(MLPModel)/max" source_file="/home/jingqi/alpa/tests/tutorial/pipeline_shard.py" source_line=75}
[2m[36m(CompileWorker pid=1531229)[0m   %Arg_5.117 = f32[128,2048]{1,0} parameter(5)
[2m[36m(CompileWorker pid=1531229)[0m   %subtract.140 = f32[128,2048]{1,0} subtract(f32[128,2048]{1,0} %maximum.138, f32[128,2048]{1,0} %Arg_5.117), metadata={op_name="parallelize(stage_0_1)/jit(main)/jit(stage_0_1_acc_grad_0)/jit(stage_0_1_acc_grad_01)/sub" source_file="/home/jingqi/alpa/tests/tutorial/pipeline_shard.py" source_line=228}
[2m[36m(CompileWorker pid=1531229)[0m   %constant.118 = f32[] constant(2)
[2m[36m(CompileWorker pid=1531229)[0m   %broadcast.119 = f32[128,2048]{1,0} broadcast(f32[] %constant.118), dimensions={}, metadata={op_name="parallelize(stage_0_1)/jit(main)/jit(stage_0_1_acc_grad_0)/jit(stage_0_1_acc_grad_01)/mul" source_file="/home/jingqi/alpa/tests/tutorial/pipeline_shard.py" source_line=228}
[2m[36m(CompileWorker pid=1531229)[0m   %multiply.141 = f32[128,2048]{1,0} multiply(f32[128,2048]{1,0} %subtract.140, f32[128,2048]{1,0} %broadcast.119), metadata={op_name="parallelize(stage_0_1)/jit(main)/jit(stage_0_1_acc_grad_0)/jit(stage_0_1_acc_grad_01)/mul" source_file="/home/jingqi/alpa/tests/tutorial/pipeline_shard.py" source_line=228}
[2m[36m(CompileWorker pid=1531229)[0m   %compare.139 = pred[128,2048]{1,0} compare(f32[128,2048]{1,0} %add.137, f32[128,2048]{1,0} %broadcast.121), direction=GT, metadata={op_name="parallelize(stage_0_1)/jit(main)/jit(stage_0_1_acc_grad_0)/jit(stage_0_1_acc_grad_01)/jvp(MLPModel)/gt" source_file="/home/jingqi/alpa/tests/tutorial/pipeline_shard.py" source_line=75}
[2m[36m(CompileWorker pid=1531229)[0m   %compare.131 = pred[128,8192]{1,0} compare(f32[128,8192]{1,0} %add.129, f32[128,8192]{1,0} %broadcast.123), direction=GT, metadata={op_name="parallelize(stage_0_1)/jit(main)/jit(stage_0_1_acc_grad_0)/jit(stage_0_1_acc_grad_01)/jvp(MLPModel)/gt" source_file="/home/jingqi/alpa/tests/tutorial/pipeline_shard.py" source_line=73}
[2m[36m(CompileWorker pid=1531229)[0m   ROOT %tuple.142 = (f32[128,2048]{1,0}, pred[128,2048]{1,0}, f32[128,8192]{1,0}, pred[128,8192]{1,0}) tuple(f32[128,2048]{1,0} %multiply.141, pred[128,2048]{1,0} %compare.139, f32[128,8192]{1,0} %maximum.130, pred[128,8192]{1,0} %compare.131)
[2m[36m(CompileWorker pid=1531229)[0m }
[2m[36m(CompileWorker pid=1531229)[0m 
[2m[36m(CompileWorker pid=1531229)[0m %stage_0_1_acc_grad_0.143 (Arg_0.144: f32[2048,8192], Arg_1.145: f32[8192], Arg_2.146: f32[8192,2048], Arg_3.147: f32[2048], Arg_4.148: f32[128,2048], Arg_5.149: f32[2048,8192], Arg_6.150: f32[8192], Arg_7.151: f32[8192,2048], Arg_8.152: f32[2048], Arg_9.153: f32[128,2048]) -> (f32[128,2048], pred[128,2048], f32[128,8192], pred[128,8192], f32[128,2048], /*index=5*/pred[128,2048], f32[128,8192], pred[128,8192]) {
[2m[36m(CompileWorker pid=1531229)[0m   %Arg_0.144 = f32[2048,8192]{1,0} parameter(0)
[2m[36m(CompileWorker pid=1531229)[0m   %Arg_1.145 = f32[8192]{0} parameter(1)
[2m[36m(CompileWorker pid=1531229)[0m   %Arg_2.146 = f32[8192,2048]{1,0} parameter(2)
[2m[36m(CompileWorker pid=1531229)[0m   %Arg_3.147 = f32[2048]{0} parameter(3)
[2m[36m(CompileWorker pid=1531229)[0m   %Arg_4.148 = f32[128,2048]{1,0} parameter(4)
[2m[36m(CompileWorker pid=1531229)[0m   %call.154 = (f32[128,2048]{1,0}, pred[128,2048]{1,0}, f32[128,8192]{1,0}, pred[128,8192]{1,0}) call(f32[2048,8192]{1,0} %Arg_0.144, f32[8192]{0} %Arg_1.145, f32[8192,2048]{1,0} %Arg_2.146, f32[2048]{0} %Arg_3.147, f32[128,2048]{1,0} %Arg_4.148), to_apply=%stage_0_1_acc_grad_00.84
[2m[36m(CompileWorker pid=1531229)[0m   %get-tuple-element.155 = f32[128,2048]{1,0} get-tuple-element((f32[128,2048]{1,0}, pred[128,2048]{1,0}, f32[128,8192]{1,0}, pred[128,8192]{1,0}) %call.154), index=0
[2m[36m(CompileWorker pid=1531229)[0m   %get-tuple-element.156 = pred[128,2048]{1,0} get-tuple-element((f32[128,2048]{1,0}, pred[128,2048]{1,0}, f32[128,8192]{1,0}, pred[128,8192]{1,0}) %call.154), index=1
[2m[36m(CompileWorker pid=1531229)[0m   %get-tuple-element.157 = f32[128,8192]{1,0} get-tuple-element((f32[128,2048]{1,0}, pred[128,2048]{1,0}, f32[128,8192]{1,0}, pred[128,8192]{1,0}) %call.154), index=2
[2m[36m(CompileWorker pid=1531229)[0m   %get-tuple-element.158 = pred[128,8192]{1,0} get-tuple-element((f32[128,2048]{1,0}, pred[128,2048]{1,0}, f32[128,8192]{1,0}, pred[128,8192]{1,0}) %call.154), index=3
[2m[36m(CompileWorker pid=1531229)[0m   %Arg_5.149 = f32[2048,8192]{1,0} parameter(5)
[2m[36m(CompileWorker pid=1531229)[0m   %Arg_6.150 = f32[8192]{0} parameter(6)
[2m[36m(CompileWorker pid=1531229)[0m   %Arg_7.151 = f32[8192,2048]{1,0} parameter(7)
[2m[36m(CompileWorker pid=1531229)[0m   %Arg_8.152 = f32[2048]{0} parameter(8)
[2m[36m(CompileWorker pid=1531229)[0m   %Arg_9.153 = f32[128,2048]{1,0} parameter(9)
[2m[36m(CompileWorker pid=1531229)[0m   %call.159 = (f32[128,2048]{1,0}, pred[128,2048]{1,0}, f32[128,8192]{1,0}, pred[128,8192]{1,0}) call(f32[128,2048]{1,0} %get-tuple-element.155, f32[2048,8192]{1,0} %Arg_5.149, f32[8192]{0} %Arg_6.150, f32[8192,2048]{1,0} %Arg_7.151, f32[2048]{0} %Arg_8.152, /*index=5*/f32[128,2048]{1,0} %Arg_9.153), to_apply=%stage_0_1_acc_grad_01.111
[2m[36m(CompileWorker pid=1531229)[0m   %get-tuple-element.160 = f32[128,2048]{1,0} get-tuple-element((f32[128,2048]{1,0}, pred[128,2048]{1,0}, f32[128,8192]{1,0}, pred[128,8192]{1,0}) %call.159), index=0
[2m[36m(CompileWorker pid=1531229)[0m   %get-tuple-element.161 = pred[128,2048]{1,0} get-tuple-element((f32[128,2048]{1,0}, pred[128,2048]{1,0}, f32[128,8192]{1,0}, pred[128,8192]{1,0}) %call.159), index=1
[2m[36m(CompileWorker pid=1531229)[0m   %get-tuple-element.162 = f32[128,8192]{1,0} get-tuple-element((f32[128,2048]{1,0}, pred[128,2048]{1,0}, f32[128,8192]{1,0}, pred[128,8192]{1,0}) %call.159), index=2
[2m[36m(CompileWorker pid=1531229)[0m   %get-tuple-element.163 = pred[128,8192]{1,0} get-tuple-element((f32[128,2048]{1,0}, pred[128,2048]{1,0}, f32[128,8192]{1,0}, pred[128,8192]{1,0}) %call.159), index=3
[2m[36m(CompileWorker pid=1531229)[0m   ROOT %tuple.164 = (f32[128,2048]{1,0}, pred[128,2048]{1,0}, f32[128,8192]{1,0}, pred[128,8192]{1,0}, f32[128,2048]{1,0}, /*index=5*/pred[128,2048]{1,0}, f32[128,8192]{1,0}, pred[128,8192]{1,0}) tuple(f32[128,2048]{1,0} %get-tuple-element.155, pred[128,2048]{1,0} %get-tuple-element.156, f32[128,8192]{1,0} %get-tuple-element.157, pred[128,8192]{1,0} %get-tuple-element.158, f32[128,2048]{1,0} %get-tuple-element.160, /*index=5*/pred[128,2048]{1,0} %get-tuple-element.161, f32[128,8192]{1,0} %get-tuple-element.162, pred[128,8192]{1,0} %get-tuple-element.163)
[2m[36m(CompileWorker pid=1531229)[0m }
[2m[36m(CompileWorker pid=1531229)[0m 
[2m[36m(CompileWorker pid=1531229)[0m %xla_fallback_pipeline_marker_0.174 (Arg_0.175: f32[128,2048], Arg_1.176: pred[128,2048], Arg_2.177: f32[128,8192], Arg_3.178: pred[128,8192], Arg_4.179: f32[128,2048], Arg_5.180: pred[128,2048], Arg_6.181: f32[128,8192], Arg_7.182: pred[128,8192]) -> (f32[128,2048], pred[128,2048], f32[128,8192], pred[128,8192], f32[128,2048], /*index=5*/pred[128,2048], f32[128,8192], pred[128,8192]) {
[2m[36m(CompileWorker pid=1531229)[0m   %Arg_0.175 = f32[128,2048]{1,0} parameter(0)
[2m[36m(CompileWorker pid=1531229)[0m   %Arg_1.176 = pred[128,2048]{1,0} parameter(1)
[2m[36m(CompileWorker pid=1531229)[0m   %Arg_2.177 = f32[128,8192]{1,0} parameter(2)
[2m[36m(CompileWorker pid=1531229)[0m   %Arg_3.178 = pred[128,8192]{1,0} parameter(3)
[2m[36m(CompileWorker pid=1531229)[0m   %Arg_4.179 = f32[128,2048]{1,0} parameter(4)
[2m[36m(CompileWorker pid=1531229)[0m   %Arg_5.180 = pred[128,2048]{1,0} parameter(5)
[2m[36m(CompileWorker pid=1531229)[0m   %Arg_6.181 = f32[128,8192]{1,0} parameter(6)
[2m[36m(CompileWorker pid=1531229)[0m   %Arg_7.182 = pred[128,8192]{1,0} parameter(7)
[2m[36m(CompileWorker pid=1531229)[0m   %tuple.183 = (f32[128,2048]{1,0}, pred[128,2048]{1,0}, f32[128,8192]{1,0}, pred[128,8192]{1,0}, f32[128,2048]{1,0}, /*index=5*/pred[128,2048]{1,0}, f32[128,8192]{1,0}, pred[128,8192]{1,0}) tuple(f32[128,2048]{1,0} %Arg_0.175, pred[128,2048]{1,0} %Arg_1.176, f32[128,8192]{1,0} %Arg_2.177, pred[128,8192]{1,0} %Arg_3.178, f32[128,2048]{1,0} %Arg_4.179, /*index=5*/pred[128,2048]{1,0} %Arg_5.180, f32[128,8192]{1,0} %Arg_6.181, pred[128,8192]{1,0} %Arg_7.182), metadata={op_name="tuple.9"}
[2m[36m(CompileWorker pid=1531229)[0m   ROOT %custom-call.184 = (f32[128,2048]{1,0}, pred[128,2048]{1,0}, f32[128,8192]{1,0}, pred[128,8192]{1,0}, f32[128,2048]{1,0}, /*index=5*/pred[128,2048]{1,0}, f32[128,8192]{1,0}, pred[128,8192]{1,0}) custom-call((f32[128,2048]{1,0}, pred[128,2048]{1,0}, f32[128,8192]{1,0}, pred[128,8192]{1,0}, f32[128,2048]{1,0}, /*index=5*/pred[128,2048]{1,0}, f32[128,8192]{1,0}, pred[128,8192]{1,0}) %tuple.183), custom_call_target="pipeline_marker", custom_call_has_side_effect=true, metadata={op_name="stage_0_1_acc_grad_0$end"}, backend_config="\000\000\020\000\000\000\000\000\000\000\004\000\000\000\000\000\000\000@\000\000\000\000\000\000\000\020\000\000\000\000\000\000\000\020\000\000\000\000\000\000\000\004\000\000\000\000\000\000\000@\000\000\000\000\000\000\000\020\000\000\000\000\000"
[2m[36m(CompileWorker pid=1531229)[0m }
[2m[36m(CompileWorker pid=1531229)[0m 
[2m[36m(CompileWorker pid=1531229)[0m %pipeline_marker_0.185 (Arg_0.186: f32[128,2048], Arg_1.187: pred[128,2048], Arg_2.188: f32[128,8192], Arg_3.189: pred[128,8192], Arg_4.190: f32[128,2048], Arg_5.191: pred[128,2048], Arg_6.192: f32[128,8192], Arg_7.193: pred[128,8192]) -> (f32[128,2048], pred[128,2048], f32[128,8192], pred[128,8192], f32[128,2048], /*index=5*/pred[128,2048], f32[128,8192], pred[128,8192]) {
[2m[36m(CompileWorker pid=1531229)[0m   %Arg_0.186 = f32[128,2048]{1,0} parameter(0)
[2m[36m(CompileWorker pid=1531229)[0m   %Arg_1.187 = pred[128,2048]{1,0} parameter(1)
[2m[36m(CompileWorker pid=1531229)[0m   %Arg_2.188 = f32[128,8192]{1,0} parameter(2)
[2m[36m(CompileWorker pid=1531229)[0m   %Arg_3.189 = pred[128,8192]{1,0} parameter(3)
[2m[36m(CompileWorker pid=1531229)[0m   %Arg_4.190 = f32[128,2048]{1,0} parameter(4)
[2m[36m(CompileWorker pid=1531229)[0m   %Arg_5.191 = pred[128,2048]{1,0} parameter(5)
[2m[36m(CompileWorker pid=1531229)[0m   %Arg_6.192 = f32[128,8192]{1,0} parameter(6)
[2m[36m(CompileWorker pid=1531229)[0m   %Arg_7.193 = pred[128,8192]{1,0} parameter(7)
[2m[36m(CompileWorker pid=1531229)[0m   %call.194 = (f32[128,2048]{1,0}, pred[128,2048]{1,0}, f32[128,8192]{1,0}, pred[128,8192]{1,0}, f32[128,2048]{1,0}, /*index=5*/pred[128,2048]{1,0}, f32[128,8192]{1,0}, pred[128,8192]{1,0}) call(f32[128,2048]{1,0} %Arg_0.186, pred[128,2048]{1,0} %Arg_1.187, f32[128,8192]{1,0} %Arg_2.188, pred[128,8192]{1,0} %Arg_3.189, f32[128,2048]{1,0} %Arg_4.190, /*index=5*/pred[128,2048]{1,0} %Arg_5.191, f32[128,8192]{1,0} %Arg_6.192, pred[128,8192]{1,0} %Arg_7.193), to_apply=%xla_fallback_pipeline_marker_0.174
[2m[36m(CompileWorker pid=1531229)[0m   %get-tuple-element.195 = f32[128,2048]{1,0} get-tuple-element((f32[128,2048]{1,0}, pred[128,2048]{1,0}, f32[128,8192]{1,0}, pred[128,8192]{1,0}, f32[128,2048]{1,0}, /*index=5*/pred[128,2048]{1,0}, f32[128,8192]{1,0}, pred[128,8192]{1,0}) %call.194), index=0, metadata={op_name="parallelize(stage_0_1)/jit(main)/pipeline_marker[name=stage_0_1_acc_grad_0 mark_type=end]"}
[2m[36m(CompileWorker pid=1531229)[0m   %get-tuple-element.196 = pred[128,2048]{1,0} get-tuple-element((f32[128,2048]{1,0}, pred[128,2048]{1,0}, f32[128,8192]{1,0}, pred[128,8192]{1,0}, f32[128,2048]{1,0}, /*index=5*/pred[128,2048]{1,0}, f32[128,8192]{1,0}, pred[128,8192]{1,0}) %call.194), index=1, metadata={op_name="parallelize(stage_0_1)/jit(main)/pipeline_marker[name=stage_0_1_acc_grad_0 mark_type=end]"}
[2m[36m(CompileWorker pid=1531229)[0m   %get-tuple-element.197 = f32[128,8192]{1,0} get-tuple-element((f32[128,2048]{1,0}, pred[128,2048]{1,0}, f32[128,8192]{1,0}, pred[128,8192]{1,0}, f32[128,2048]{1,0}, /*index=5*/pred[128,2048]{1,0}, f32[128,8192]{1,0}, pred[128,8192]{1,0}) %call.194), index=2, metadata={op_name="parallelize(stage_0_1)/jit(main)/pipeline_marker[name=stage_0_1_acc_grad_0 mark_type=end]"}
[2m[36m(CompileWorker pid=1531229)[0m   %get-tuple-element.198 = pred[128,8192]{1,0} get-tuple-element((f32[128,2048]{1,0}, pred[128,2048]{1,0}, f32[128,8192]{1,0}, pred[128,8192]{1,0}, f32[128,2048]{1,0}, /*index=5*/pred[128,2048]{1,0}, f32[128,8192]{1,0}, pred[128,8192]{1,0}) %call.194), index=3, metadata={op_name="parallelize(stage_0_1)/jit(main)/pipeline_marker[name=stage_0_1_acc_grad_0 mark_type=end]"}
[2m[36m(CompileWorker pid=1531229)[0m   %get-tuple-element.199 = f32[128,2048]{1,0} get-tuple-element((f32[128,2048]{1,0}, pred[128,2048]{1,0}, f32[128,8192]{1,0}, pred[128,8192]{1,0}, f32[128,2048]{1,0}, /*index=5*/pred[128,2048]{1,0}, f32[128,8192]{1,0}, pred[128,8192]{1,0}) %call.194), index=4, metadata={op_name="parallelize(stage_0_1)/jit(main)/pipeline_marker[name=stage_0_1_acc_grad_0 mark_type=end]"}
[2m[36m(CompileWorker pid=1531229)[0m   %get-tuple-element.200 = pred[128,2048]{1,0} get-tuple-element((f32[128,2048]{1,0}, pred[128,2048]{1,0}, f32[128,8192]{1,0}, pred[128,8192]{1,0}, f32[128,2048]{1,0}, /*index=5*/pred[128,2048]{1,0}, f32[128,8192]{1,0}, pred[128,8192]{1,0}) %call.194), index=5, metadata={op_name="parallelize(stage_0_1)/jit(main)/pipeline_marker[name=stage_0_1_acc_grad_0 mark_type=end]"}
[2m[36m(CompileWorker pid=1531229)[0m   %get-tuple-element.201 = f32[128,8192]{1,0} get-tuple-element((f32[128,2048]{1,0}, pred[128,2048]{1,0}, f32[128,8192]{1,0}, pred[128,8192]{1,0}, f32[128,2048]{1,0}, /*index=5*/pred[128,2048]{1,0}, f32[128,8192]{1,0}, pred[128,8192]{1,0}) %call.194), index=6, metadata={op_name="parallelize(stage_0_1)/jit(main)/pipeline_marker[name=stage_0_1_acc_grad_0 mark_type=end]"}
[2m[36m(CompileWorker pid=1531229)[0m   %get-tuple-element.202 = pred[128,8192]{1,0} get-tuple-element((f32[128,2048]{1,0}, pred[128,2048]{1,0}, f32[128,8192]{1,0}, pred[128,8192]{1,0}, f32[128,2048]{1,0}, /*index=5*/pred[128,2048]{1,0}, f32[128,8192]{1,0}, pred[128,8192]{1,0}) %call.194), index=7, metadata={op_name="parallelize(stage_0_1)/jit(main)/pipeline_marker[name=stage_0_1_acc_grad_0 mark_type=end]"}
[2m[36m(CompileWorker pid=1531229)[0m   ROOT %tuple.203 = (f32[128,2048]{1,0}, pred[128,2048]{1,0}, f32[128,8192]{1,0}, pred[128,8192]{1,0}, f32[128,2048]{1,0}, /*index=5*/pred[128,2048]{1,0}, f32[128,8192]{1,0}, pred[128,8192]{1,0}) tuple(f32[128,2048]{1,0} %get-tuple-element.195, pred[128,2048]{1,0} %get-tuple-element.196, f32[128,8192]{1,0} %get-tuple-element.197, pred[128,8192]{1,0} %get-tuple-element.198, f32[128,2048]{1,0} %get-tuple-element.199, /*index=5*/pred[128,2048]{1,0} %get-tuple-element.200, f32[128,8192]{1,0} %get-tuple-element.201, pred[128,8192]{1,0} %get-tuple-element.202)
[2m[36m(CompileWorker pid=1531229)[0m }
[2m[36m(CompileWorker pid=1531229)[0m 
[2m[36m(CompileWorker pid=1531229)[0m %xla_fallback_pipeline_marker_1.213 (Arg_0.214: f32[2048], Arg_1.215: f32[8192,2048], Arg_2.216: f32[8192], Arg_3.217: f32[2048,8192], Arg_4.218: f32[2048], Arg_5.219: f32[8192,2048], Arg_6.220: f32[8192], Arg_7.221: f32[2048,8192], Arg_8.222: f32[128,2048], Arg_9.223: pred[128,2048], Arg_10.224: f32[128,8192], Arg_11.225: pred[128,8192], Arg_12.226: f32[8192,2048], Arg_13.227: f32[128,2048], Arg_14.228: f32[2048,8192], Arg_15.229: pred[128,2048], Arg_16.230: f32[128,8192], Arg_17.231: pred[128,8192], Arg_18.232: f32[128,2048], Arg_19.233: f32[8192,2048]) -> (f32[2048], f32[8192,2048], f32[8192], f32[2048,8192], f32[2048], /*index=5*/f32[8192,2048], f32[8192], f32[2048,8192], f32[128,2048], pred[128,2048], /*index=10*/f32[128,8192], pred[128,8192], f32[8192,2048], f32[128,2048], f32[2048,8192], /*index=15*/pred[128,2048], f32[128,8192], pred[128,8192], f32[128,2048], f32[8192,2048]) {
[2m[36m(CompileWorker pid=1531229)[0m   %Arg_0.214 = f32[2048]{0} parameter(0)
[2m[36m(CompileWorker pid=1531229)[0m   %Arg_1.215 = f32[8192,2048]{1,0} parameter(1)
[2m[36m(CompileWorker pid=1531229)[0m   %Arg_2.216 = f32[8192]{0} parameter(2)
[2m[36m(CompileWorker pid=1531229)[0m   %Arg_3.217 = f32[2048,8192]{1,0} parameter(3)
[2m[36m(CompileWorker pid=1531229)[0m   %Arg_4.218 = f32[2048]{0} parameter(4)
[2m[36m(CompileWorker pid=1531229)[0m   %Arg_5.219 = f32[8192,2048]{1,0} parameter(5)
[2m[36m(CompileWorker pid=1531229)[0m   %Arg_6.220 = f32[8192]{0} parameter(6)
[2m[36m(CompileWorker pid=1531229)[0m   %Arg_7.221 = f32[2048,8192]{1,0} parameter(7)
[2m[36m(CompileWorker pid=1531229)[0m   %Arg_8.222 = f32[128,2048]{1,0} parameter(8)
[2m[36m(CompileWorker pid=1531229)[0m   %Arg_9.223 = pred[128,2048]{1,0} parameter(9)
[2m[36m(CompileWorker pid=1531229)[0m   %Arg_10.224 = f32[128,8192]{1,0} parameter(10)
[2m[36m(CompileWorker pid=1531229)[0m   %Arg_11.225 = pred[128,8192]{1,0} parameter(11)
[2m[36m(CompileWorker pid=1531229)[0m   %Arg_12.226 = f32[8192,2048]{1,0} parameter(12)
[2m[36m(CompileWorker pid=1531229)[0m   %Arg_13.227 = f32[128,2048]{1,0} parameter(13)
[2m[36m(CompileWorker pid=1531229)[0m   %Arg_14.228 = f32[2048,8192]{1,0} parameter(14)
[2m[36m(CompileWorker pid=1531229)[0m   %Arg_15.229 = pred[128,2048]{1,0} parameter(15)
[2m[36m(CompileWorker pid=1531229)[0m   %Arg_16.230 = f32[128,8192]{1,0} parameter(16)
[2m[36m(CompileWorker pid=1531229)[0m   %Arg_17.231 = pred[128,8192]{1,0} parameter(17)
[2m[36m(CompileWorker pid=1531229)[0m   %Arg_18.232 = f32[128,2048]{1,0} parameter(18)
[2m[36m(CompileWorker pid=1531229)[0m   %Arg_19.233 = f32[8192,2048]{1,0} parameter(19)
[2m[36m(CompileWorker pid=1531229)[0m   %tuple.234 = (f32[2048]{0}, f32[8192,2048]{1,0}, f32[8192]{0}, f32[2048,8192]{1,0}, f32[2048]{0}, /*index=5*/f32[8192,2048]{1,0}, f32[8192]{0}, f32[2048,8192]{1,0}, f32[128,2048]{1,0}, pred[128,2048]{1,0}, /*index=10*/f32[128,8192]{1,0}, pred[128,8192]{1,0}, f32[8192,2048]{1,0}, f32[128,2048]{1,0}, f32[2048,8192]{1,0}, /*index=15*/pred[128,2048]{1,0}, f32[128,8192]{1,0}, pred[128,8192]{1,0}, f32[128,2048]{1,0}, f32[8192,2048]{1,0}) tuple(f32[2048]{0} %Arg_0.214, f32[8192,2048]{1,0} %Arg_1.215, f32[8192]{0} %Arg_2.216, f32[2048,8192]{1,0} %Arg_3.217, f32[2048]{0} %Arg_4.218, /*index=5*/f32[8192,2048]{1,0} %Arg_5.219, f32[8192]{0} %Arg_6.220, f32[2048,8192]{1,0} %Arg_7.221, f32[128,2048]{1,0} %Arg_8.222, pred[128,2048]{1,0} %Arg_9.223, /*index=10*/f32[128,8192]{1,0} %Arg_10.224, pred[128,8192]{1,0} %Arg_11.225, f32[8192,2048]{1,0} %Arg_12.226, f32[128,2048]{1,0} %Arg_13.227, f32[2048,8192]{1,0} %Arg_14.228, /*index=15*/pred[128,2048]{1,0} %Arg_15.229, f32[128,8192]{1,0} %Arg_16.230, pred[128,8192]{1,0} %Arg_17.231, f32[128,2048]{1,0} %Arg_18.232, f32[8192,2048]{1,0} %Arg_19.233), metadata={op_name="tuple.21"}
[2m[36m(CompileWorker pid=1531229)[0m   ROOT %custom-call.235 = (f32[2048]{0}, f32[8192,2048]{1,0}, f32[8192]{0}, f32[2048,8192]{1,0}, f32[2048]{0}, /*index=5*/f32[8192,2048]{1,0}, f32[8192]{0}, f32[2048,8192]{1,0}, f32[128,2048]{1,0}, pred[128,2048]{1,0}, /*index=10*/f32[128,8192]{1,0}, pred[128,8192]{1,0}, f32[8192,2048]{1,0}, f32[128,2048]{1,0}, f32[2048,8192]{1,0}, /*index=15*/pred[128,2048]{1,0}, f32[128,8192]{1,0}, pred[128,8192]{1,0}, f32[128,2048]{1,0}, f32[8192,2048]{1,0}) custom-call((f32[2048]{0}, f32[8192,2048]{1,0}, f32[8192]{0}, f32[2048,8192]{1,0}, f32[2048]{0}, /*index=5*/f32[8192,2048]{1,0}, f32[8192]{0}, f32[2048,8192]{1,0}, f32[128,2048]{1,0}, pred[128,2048]{1,0}, /*index=10*/f32[128,8192]{1,0}, pred[128,8192]{1,0}, f32[8192,2048]{1,0}, f32[128,2048]{1,0}, f32[2048,8192]{1,0}, /*index=15*/pred[128,2048]{1,0}, f32[128,8192]{1,0}, pred[128,8192]{1,0}, f32[128,2048]{1,0}, f32[8192,2048]{1,0}) %tuple.234), custom_call_target="pipeline_marker", custom_call_has_side_effect=true, metadata={op_name="stage_0_1_acc_grad_1$start"}, backend_config="\000 \000\000\000\000\000\000\000\000\000\004\000\000\000\000\000\200\000\000\000\000\000\000\000\000\000\004\000\000\000\000\000 \000\000\000\000\000\000\000\000\000\004\000\000\000\000\000\200\000\000\000\000\000\000\000\000\000\004\000\000\000\000\000\000\020\000\000\000\000\000\000\000\004\000\000\000\000\000\000\000@\000\000\000\000\000\000\000\020\000\000\000\000\000\000\000\000\004\000\000\000\000\000\000\020\000\000\000\000\000\000\000\000\004\000\000\000\000\000\000\004\000\000\000\000\000\000\000@\000\000\000\000\000\000\000\020\000\000\000\000\000\000\000\020\000\000\000\000\000\000\000\000\004\000\000\000\000"
[2m[36m(CompileWorker pid=1531229)[0m }
[2m[36m(CompileWorker pid=1531229)[0m 
[2m[36m(CompileWorker pid=1531229)[0m %pipeline_marker_1.236 (Arg_0.237: f32[2048], Arg_1.238: f32[8192,2048], Arg_2.239: f32[8192], Arg_3.240: f32[2048,8192], Arg_4.241: f32[2048], Arg_5.242: f32[8192,2048], Arg_6.243: f32[8192], Arg_7.244: f32[2048,8192], Arg_8.245: f32[128,2048], Arg_9.246: pred[128,2048], Arg_10.247: f32[128,8192], Arg_11.248: pred[128,8192], Arg_12.249: f32[8192,2048], Arg_13.250: f32[128,2048], Arg_14.251: f32[2048,8192], Arg_15.252: pred[128,2048], Arg_16.253: f32[128,8192], Arg_17.254: pred[128,8192], Arg_18.255: f32[128,2048], Arg_19.256: f32[8192,2048]) -> (f32[2048], f32[8192,2048], f32[8192], f32[2048,8192], f32[2048], /*index=5*/f32[8192,2048], f32[8192], f32[2048,8192], f32[128,2048], pred[128,2048], /*index=10*/f32[128,8192], pred[128,8192], f32[8192,2048], f32[128,2048], f32[2048,8192], /*index=15*/pred[128,2048], f32[128,8192], pred[128,8192], f32[128,2048], f32[8192,2048]) {
[2m[36m(CompileWorker pid=1531229)[0m   %Arg_0.237 = f32[2048]{0} parameter(0)
[2m[36m(CompileWorker pid=1531229)[0m   %Arg_1.238 = f32[8192,2048]{1,0} parameter(1)
[2m[36m(CompileWorker pid=1531229)[0m   %Arg_2.239 = f32[8192]{0} parameter(2)
[2m[36m(CompileWorker pid=1531229)[0m   %Arg_3.240 = f32[2048,8192]{1,0} parameter(3)
[2m[36m(CompileWorker pid=1531229)[0m   %Arg_4.241 = f32[2048]{0} parameter(4)
[2m[36m(CompileWorker pid=1531229)[0m   %Arg_5.242 = f32[8192,2048]{1,0} parameter(5)
[2m[36m(CompileWorker pid=1531229)[0m   %Arg_6.243 = f32[8192]{0} parameter(6)
[2m[36m(CompileWorker pid=1531229)[0m   %Arg_7.244 = f32[2048,8192]{1,0} parameter(7)
[2m[36m(CompileWorker pid=1531229)[0m   %Arg_8.245 = f32[128,2048]{1,0} parameter(8)
[2m[36m(CompileWorker pid=1531229)[0m   %Arg_9.246 = pred[128,2048]{1,0} parameter(9)
[2m[36m(CompileWorker pid=1531229)[0m   %Arg_10.247 = f32[128,8192]{1,0} parameter(10)
[2m[36m(CompileWorker pid=1531229)[0m   %Arg_11.248 = pred[128,8192]{1,0} parameter(11)
[2m[36m(CompileWorker pid=1531229)[0m   %Arg_12.249 = f32[8192,2048]{1,0} parameter(12)
[2m[36m(CompileWorker pid=1531229)[0m   %Arg_13.250 = f32[128,2048]{1,0} parameter(13)
[2m[36m(CompileWorker pid=1531229)[0m   %Arg_14.251 = f32[2048,8192]{1,0} parameter(14)
[2m[36m(CompileWorker pid=1531229)[0m   %Arg_15.252 = pred[128,2048]{1,0} parameter(15)
[2m[36m(CompileWorker pid=1531229)[0m   %Arg_16.253 = f32[128,8192]{1,0} parameter(16)
[2m[36m(CompileWorker pid=1531229)[0m   %Arg_17.254 = pred[128,8192]{1,0} parameter(17)
[2m[36m(CompileWorker pid=1531229)[0m   %Arg_18.255 = f32[128,2048]{1,0} parameter(18)
[2m[36m(CompileWorker pid=1531229)[0m   %Arg_19.256 = f32[8192,2048]{1,0} parameter(19)
[2m[36m(CompileWorker pid=1531229)[0m   %call.257 = (f32[2048]{0}, f32[8192,2048]{1,0}, f32[8192]{0}, f32[2048,8192]{1,0}, f32[2048]{0}, /*index=5*/f32[8192,2048]{1,0}, f32[8192]{0}, f32[2048,8192]{1,0}, f32[128,2048]{1,0}, pred[128,2048]{1,0}, /*index=10*/f32[128,8192]{1,0}, pred[128,8192]{1,0}, f32[8192,2048]{1,0}, f32[128,2048]{1,0}, f32[2048,8192]{1,0}, /*index=15*/pred[128,2048]{1,0}, f32[128,8192]{1,0}, pred[128,8192]{1,0}, f32[128,2048]{1,0}, f32[8192,2048]{1,0}) call(f32[2048]{0} %Arg_0.237, f32[8192,2048]{1,0} %Arg_1.238, f32[8192]{0} %Arg_2.239, f32[2048,8192]{1,0} %Arg_3.240, f32[2048]{0} %Arg_4.241, /*index=5*/f32[8192,2048]{1,0} %Arg_5.242, f32[8192]{0} %Arg_6.243, f32[2048,8192]{1,0} %Arg_7.244, f32[128,2048]{1,0} %Arg_8.245, pred[128,2048]{1,0} %Arg_9.246, /*index=10*/f32[128,8192]{1,0} %Arg_10.247, pred[128,8192]{1,0} %Arg_11.248, f32[8192,2048]{1,0} %Arg_12.249, f32[128,2048]{1,0} %Arg_13.250, f32[2048,8192]{1,0} %Arg_14.251, /*index=15*/pred[128,2048]{1,0} %Arg_15.252, f32[128,8192]{1,0} %Arg_16.253, pred[128,8192]{1,0} %Arg_17.254, f32[128,2048]{1,0} %Arg_18.255, f32[8192,2048]{1,0} %Arg_19.256), to_apply=%xla_fallback_pipeline_marker_1.213
[2m[36m(CompileWorker pid=1531229)[0m   %get-tuple-element.258 = f32[2048]{0} get-tuple-element((f32[2048]{0}, f32[8192,2048]{1,0}, f32[8192]{0}, f32[2048,8192]{1,0}, f32[2048]{0}, /*index=5*/f32[8192,2048]{1,0}, f32[8192]{0}, f32[2048,8192]{1,0}, f32[128,2048]{1,0}, pred[128,2048]{1,0}, /*index=10*/f32[128,8192]{1,0}, pred[128,8192]{1,0}, f32[8192,2048]{1,0}, f32[128,2048]{1,0}, f32[2048,8192]{1,0}, /*index=15*/pred[128,2048]{1,0}, f32[128,8192]{1,0}, pred[128,8192]{1,0}, f32[128,2048]{1,0}, f32[8192,2048]{1,0}) %call.257), index=0, metadata={op_name="parallelize(stage_0_1)/jit(main)/pipeline_marker[name=stage_0_1_acc_grad_1 mark_type=start]"}
[2m[36m(CompileWorker pid=1531229)[0m   %get-tuple-element.259 = f32[8192,2048]{1,0} get-tuple-element((f32[2048]{0}, f32[8192,2048]{1,0}, f32[8192]{0}, f32[2048,8192]{1,0}, f32[2048]{0}, /*index=5*/f32[8192,2048]{1,0}, f32[8192]{0}, f32[2048,8192]{1,0}, f32[128,2048]{1,0}, pred[128,2048]{1,0}, /*index=10*/f32[128,8192]{1,0}, pred[128,8192]{1,0}, f32[8192,2048]{1,0}, f32[128,2048]{1,0}, f32[2048,8192]{1,0}, /*index=15*/pred[128,2048]{1,0}, f32[128,8192]{1,0}, pred[128,8192]{1,0}, f32[128,2048]{1,0}, f32[8192,2048]{1,0}) %call.257), index=1, metadata={op_name="parallelize(stage_0_1)/jit(main)/pipeline_marker[name=stage_0_1_acc_grad_1 mark_type=start]"}
[2m[36m(CompileWorker pid=1531229)[0m   %get-tuple-element.260 = f32[8192]{0} get-tuple-element((f32[2048]{0}, f32[8192,2048]{1,0}, f32[8192]{0}, f32[2048,8192]{1,0}, f32[2048]{0}, /*index=5*/f32[8192,2048]{1,0}, f32[8192]{0}, f32[2048,8192]{1,0}, f32[128,2048]{1,0}, pred[128,2048]{1,0}, /*index=10*/f32[128,8192]{1,0}, pred[128,8192]{1,0}, f32[8192,2048]{1,0}, f32[128,2048]{1,0}, f32[2048,8192]{1,0}, /*index=15*/pred[128,2048]{1,0}, f32[128,8192]{1,0}, pred[128,8192]{1,0}, f32[128,2048]{1,0}, f32[8192,2048]{1,0}) %call.257), index=2, metadata={op_name="parallelize(stage_0_1)/jit(main)/pipeline_marker[name=stage_0_1_acc_grad_1 mark_type=start]"}
[2m[36m(CompileWorker pid=1531229)[0m   %get-tuple-element.261 = f32[2048,8192]{1,0} get-tuple-element((f32[2048]{0}, f32[8192,2048]{1,0}, f32[8192]{0}, f32[2048,8192]{1,0}, f32[2048]{0}, /*index=5*/f32[8192,2048]{1,0}, f32[8192]{0}, f32[2048,8192]{1,0}, f32[128,2048]{1,0}, pred[128,2048]{1,0}, /*index=10*/f32[128,8192]{1,0}, pred[128,8192]{1,0}, f32[8192,2048]{1,0}, f32[128,2048]{1,0}, f32[2048,8192]{1,0}, /*index=15*/pred[128,2048]{1,0}, f32[128,8192]{1,0}, pred[128,8192]{1,0}, f32[128,2048]{1,0}, f32[8192,2048]{1,0}) %call.257), index=3, metadata={op_name="parallelize(stage_0_1)/jit(main)/pipeline_marker[name=stage_0_1_acc_grad_1 mark_type=start]"}
[2m[36m(CompileWorker pid=1531229)[0m   %get-tuple-element.262 = f32[2048]{0} get-tuple-element((f32[2048]{0}, f32[8192,2048]{1,0}, f32[8192]{0}, f32[2048,8192]{1,0}, f32[2048]{0}, /*index=5*/f32[8192,2048]{1,0}, f32[8192]{0}, f32[2048,8192]{1,0}, f32[128,2048]{1,0}, pred[128,2048]{1,0}, /*index=10*/f32[128,8192]{1,0}, pred[128,8192]{1,0}, f32[8192,2048]{1,0}, f32[128,2048]{1,0}, f32[2048,8192]{1,0}, /*index=15*/pred[128,2048]{1,0}, f32[128,8192]{1,0}, pred[128,8192]{1,0}, f32[128,2048]{1,0}, f32[8192,2048]{1,0}) %call.257), index=4, metadata={op_name="parallelize(stage_0_1)/jit(main)/pipeline_marker[name=stage_0_1_acc_grad_1 mark_type=start]"}
[2m[36m(CompileWorker pid=1531229)[0m   %get-tuple-element.263 = f32[8192,2048]{1,0} get-tuple-element((f32[2048]{0}, f32[8192,2048]{1,0}, f32[8192]{0}, f32[2048,8192]{1,0}, f32[2048]{0}, /*index=5*/f32[8192,2048]{1,0}, f32[8192]{0}, f32[2048,8192]{1,0}, f32[128,2048]{1,0}, pred[128,2048]{1,0}, /*index=10*/f32[128,8192]{1,0}, pred[128,8192]{1,0}, f32[8192,2048]{1,0}, f32[128,2048]{1,0}, f32[2048,8192]{1,0}, /*index=15*/pred[128,2048]{1,0}, f32[128,8192]{1,0}, pred[128,8192]{1,0}, f32[128,2048]{1,0}, f32[8192,2048]{1,0}) %call.257), index=5, metadata={op_name="parallelize(stage_0_1)/jit(main)/pipeline_marker[name=stage_0_1_acc_grad_1 mark_type=start]"}
[2m[36m(CompileWorker pid=1531229)[0m   %get-tuple-element.264 = f32[8192]{0} get-tuple-element((f32[2048]{0}, f32[8192,2048]{1,0}, f32[8192]{0}, f32[2048,8192]{1,0}, f32[2048]{0}, /*index=5*/f32[8192,2048]{1,0}, f32[8192]{0}, f32[2048,8192]{1,0}, f32[128,2048]{1,0}, pred[128,2048]{1,0}, /*index=10*/f32[128,8192]{1,0}, pred[128,8192]{1,0}, f32[8192,2048]{1,0}, f32[128,2048]{1,0}, f32[2048,8192]{1,0}, /*index=15*/pred[128,2048]{1,0}, f32[128,8192]{1,0}, pred[128,8192]{1,0}, f32[128,2048]{1,0}, f32[8192,2048]{1,0}) %call.257), index=6, metadata={op_name="parallelize(stage_0_1)/jit(main)/pipeline_marker[name=stage_0_1_acc_grad_1 mark_type=start]"}
[2m[36m(CompileWorker pid=1531229)[0m   %get-tuple-element.265 = f32[2048,8192]{1,0} get-tuple-element((f32[2048]{0}, f32[8192,2048]{1,0}, f32[8192]{0}, f32[2048,8192]{1,0}, f32[2048]{0}, /*index=5*/f32[8192,2048]{1,0}, f32[8192]{0}, f32[2048,8192]{1,0}, f32[128,2048]{1,0}, pred[128,2048]{1,0}, /*index=10*/f32[128,8192]{1,0}, pred[128,8192]{1,0}, f32[8192,2048]{1,0}, f32[128,2048]{1,0}, f32[2048,8192]{1,0}, /*index=15*/pred[128,2048]{1,0}, f32[128,8192]{1,0}, pred[128,8192]{1,0}, f32[128,2048]{1,0}, f32[8192,2048]{1,0}) %call.257), index=7, metadata={op_name="parallelize(stage_0_1)/jit(main)/pipeline_marker[name=stage_0_1_acc_grad_1 mark_type=start]"}
[2m[36m(CompileWorker pid=1531229)[0m   %get-tuple-element.266 = f32[128,2048]{1,0} get-tuple-element((f32[2048]{0}, f32[8192,2048]{1,0}, f32[8192]{0}, f32[2048,8192]{1,0}, f32[2048]{0}, /*index=5*/f32[8192,2048]{1,0}, f32[8192]{0}, f32[2048,8192]{1,0}, f32[128,2048]{1,0}, pred[128,2048]{1,0}, /*index=10*/f32[128,8192]{1,0}, pred[128,8192]{1,0}, f32[8192,2048]{1,0}, f32[128,2048]{1,0}, f32[2048,8192]{1,0}, /*index=15*/pred[128,2048]{1,0}, f32[128,8192]{1,0}, pred[128,8192]{1,0}, f32[128,2048]{1,0}, f32[8192,2048]{1,0}) %call.257), index=8, metadata={op_name="parallelize(stage_0_1)/jit(main)/pipeline_marker[name=stage_0_1_acc_grad_1 mark_type=start]"}
[2m[36m(CompileWorker pid=1531229)[0m   %get-tuple-element.267 = pred[128,2048]{1,0} get-tuple-element((f32[2048]{0}, f32[8192,2048]{1,0}, f32[8192]{0}, f32[2048,8192]{1,0}, f32[2048]{0}, /*index=5*/f32[8192,2048]{1,0}, f32[8192]{0}, f32[2048,8192]{1,0}, f32[128,2048]{1,0}, pred[128,2048]{1,0}, /*index=10*/f32[128,8192]{1,0}, pred[128,8192]{1,0}, f32[8192,2048]{1,0}, f32[128,2048]{1,0}, f32[2048,8192]{1,0}, /*index=15*/pred[128,2048]{1,0}, f32[128,8192]{1,0}, pred[128,8192]{1,0}, f32[128,2048]{1,0}, f32[8192,2048]{1,0}) %call.257), index=9, metadata={op_name="parallelize(stage_0_1)/jit(main)/pipeline_marker[name=stage_0_1_acc_grad_1 mark_type=start]"}
[2m[36m(CompileWorker pid=1531229)[0m   %get-tuple-element.268 = f32[128,8192]{1,0} get-tuple-element((f32[2048]{0}, f32[8192,2048]{1,0}, f32[8192]{0}, f32[2048,8192]{1,0}, f32[2048]{0}, /*index=5*/f32[8192,2048]{1,0}, f32[8192]{0}, f32[2048,8192]{1,0}, f32[128,2048]{1,0}, pred[128,2048]{1,0}, /*index=10*/f32[128,8192]{1,0}, pred[128,8192]{1,0}, f32[8192,2048]{1,0}, f32[128,2048]{1,0}, f32[2048,8192]{1,0}, /*index=15*/pred[128,2048]{1,0}, f32[128,8192]{1,0}, pred[128,8192]{1,0}, f32[128,2048]{1,0}, f32[8192,2048]{1,0}) %call.257), index=10, metadata={op_name="parallelize(stage_0_1)/jit(main)/pipeline_marker[name=stage_0_1_acc_grad_1 mark_type=start]"}
[2m[36m(CompileWorker pid=1531229)[0m   %get-tuple-element.269 = pred[128,8192]{1,0} get-tuple-element((f32[2048]{0}, f32[8192,2048]{1,0}, f32[8192]{0}, f32[2048,8192]{1,0}, f32[2048]{0}, /*index=5*/f32[8192,2048]{1,0}, f32[8192]{0}, f32[2048,8192]{1,0}, f32[128,2048]{1,0}, pred[128,2048]{1,0}, /*index=10*/f32[128,8192]{1,0}, pred[128,8192]{1,0}, f32[8192,2048]{1,0}, f32[128,2048]{1,0}, f32[2048,8192]{1,0}, /*index=15*/pred[128,2048]{1,0}, f32[128,8192]{1,0}, pred[128,8192]{1,0}, f32[128,2048]{1,0}, f32[8192,2048]{1,0}) %call.257), index=11, metadata={op_name="parallelize(stage_0_1)/jit(main)/pipeline_marker[name=stage_0_1_acc_grad_1 mark_type=start]"}
[2m[36m(CompileWorker pid=1531229)[0m   %get-tuple-element.270 = f32[8192,2048]{1,0} get-tuple-element((f32[2048]{0}, f32[8192,2048]{1,0}, f32[8192]{0}, f32[2048,8192]{1,0}, f32[2048]{0}, /*index=5*/f32[8192,2048]{1,0}, f32[8192]{0}, f32[2048,8192]{1,0}, f32[128,2048]{1,0}, pred[128,2048]{1,0}, /*index=10*/f32[128,8192]{1,0}, pred[128,8192]{1,0}, f32[8192,2048]{1,0}, f32[128,2048]{1,0}, f32[2048,8192]{1,0}, /*index=15*/pred[128,2048]{1,0}, f32[128,8192]{1,0}, pred[128,8192]{1,0}, f32[128,2048]{1,0}, f32[8192,2048]{1,0}) %call.257), index=12, metadata={op_name="parallelize(stage_0_1)/jit(main)/pipeline_marker[name=stage_0_1_acc_grad_1 mark_type=start]"}
[2m[36m(CompileWorker pid=1531229)[0m   %get-tuple-element.271 = f32[128,2048]{1,0} get-tuple-element((f32[2048]{0}, f32[8192,2048]{1,0}, f32[8192]{0}, f32[2048,8192]{1,0}, f32[2048]{0}, /*index=5*/f32[8192,2048]{1,0}, f32[8192]{0}, f32[2048,8192]{1,0}, f32[128,2048]{1,0}, pred[128,2048]{1,0}, /*index=10*/f32[128,8192]{1,0}, pred[128,8192]{1,0}, f32[8192,2048]{1,0}, f32[128,2048]{1,0}, f32[2048,8192]{1,0}, /*index=15*/pred[128,2048]{1,0}, f32[128,8192]{1,0}, pred[128,8192]{1,0}, f32[128,2048]{1,0}, f32[8192,2048]{1,0}) %call.257), index=13, metadata={op_name="parallelize(stage_0_1)/jit(main)/pipeline_marker[name=stage_0_1_acc_grad_1 mark_type=start]"}
[2m[36m(CompileWorker pid=1531229)[0m   %get-tuple-element.272 = f32[2048,8192]{1,0} get-tuple-element((f32[2048]{0}, f32[8192,2048]{1,0}, f32[8192]{0}, f32[2048,8192]{1,0}, f32[2048]{0}, /*index=5*/f32[8192,2048]{1,0}, f32[8192]{0}, f32[2048,8192]{1,0}, f32[128,2048]{1,0}, pred[128,2048]{1,0}, /*index=10*/f32[128,8192]{1,0}, pred[128,8192]{1,0}, f32[8192,2048]{1,0}, f32[128,2048]{1,0}, f32[2048,8192]{1,0}, /*index=15*/pred[128,2048]{1,0}, f32[128,8192]{1,0}, pred[128,8192]{1,0}, f32[128,2048]{1,0}, f32[8192,2048]{1,0}) %call.257), index=14, metadata={op_name="parallelize(stage_0_1)/jit(main)/pipeline_marker[name=stage_0_1_acc_grad_1 mark_type=start]"}
[2m[36m(CompileWorker pid=1531229)[0m   %get-tuple-element.273 = pred[128,2048]{1,0} get-tuple-element((f32[2048]{0}, f32[8192,2048]{1,0}, f32[8192]{0}, f32[2048,8192]{1,0}, f32[2048]{0}, /*index=5*/f32[8192,2048]{1,0}, f32[8192]{0}, f32[2048,8192]{1,0}, f32[128,2048]{1,0}, pred[128,2048]{1,0}, /*index=10*/f32[128,8192]{1,0}, pred[128,8192]{1,0}, f32[8192,2048]{1,0}, f32[128,2048]{1,0}, f32[2048,8192]{1,0}, /*index=15*/pred[128,2048]{1,0}, f32[128,8192]{1,0}, pred[128,8192]{1,0}, f32[128,2048]{1,0}, f32[8192,2048]{1,0}) %call.257), index=15, metadata={op_name="parallelize(stage_0_1)/jit(main)/pipeline_marker[name=stage_0_1_acc_grad_1 mark_type=start]"}
[2m[36m(CompileWorker pid=1531229)[0m   %get-tuple-element.274 = f32[128,8192]{1,0} get-tuple-element((f32[2048]{0}, f32[8192,2048]{1,0}, f32[8192]{0}, f32[2048,8192]{1,0}, f32[2048]{0}, /*index=5*/f32[8192,2048]{1,0}, f32[8192]{0}, f32[2048,8192]{1,0}, f32[128,2048]{1,0}, pred[128,2048]{1,0}, /*index=10*/f32[128,8192]{1,0}, pred[128,8192]{1,0}, f32[8192,2048]{1,0}, f32[128,2048]{1,0}, f32[2048,8192]{1,0}, /*index=15*/pred[128,2048]{1,0}, f32[128,8192]{1,0}, pred[128,8192]{1,0}, f32[128,2048]{1,0}, f32[8192,2048]{1,0}) %call.257), index=16, metadata={op_name="parallelize(stage_0_1)/jit(main)/pipeline_marker[name=stage_0_1_acc_grad_1 mark_type=start]"}
[2m[36m(CompileWorker pid=1531229)[0m   %get-tuple-element.275 = pred[128,8192]{1,0} get-tuple-element((f32[2048]{0}, f32[8192,2048]{1,0}, f32[8192]{0}, f32[2048,8192]{1,0}, f32[2048]{0}, /*index=5*/f32[8192,2048]{1,0}, f32[8192]{0}, f32[2048,8192]{1,0}, f32[128,2048]{1,0}, pred[128,2048]{1,0}, /*index=10*/f32[128,8192]{1,0}, pred[128,8192]{1,0}, f32[8192,2048]{1,0}, f32[128,2048]{1,0}, f32[2048,8192]{1,0}, /*index=15*/pred[128,2048]{1,0}, f32[128,8192]{1,0}, pred[128,8192]{1,0}, f32[128,2048]{1,0}, f32[8192,2048]{1,0}) %call.257), index=17, metadata={op_name="parallelize(stage_0_1)/jit(main)/pipeline_marker[name=stage_0_1_acc_grad_1 mark_type=start]"}
[2m[36m(CompileWorker pid=1531229)[0m   %get-tuple-element.276 = f32[128,2048]{1,0} get-tuple-element((f32[2048]{0}, f32[8192,2048]{1,0}, f32[8192]{0}, f32[2048,8192]{1,0}, f32[2048]{0}, /*index=5*/f32[8192,2048]{1,0}, f32[8192]{0}, f32[2048,8192]{1,0}, f32[128,2048]{1,0}, pred[128,2048]{1,0}, /*index=10*/f32[128,8192]{1,0}, pred[128,8192]{1,0}, f32[8192,2048]{1,0}, f32[128,2048]{1,0}, f32[2048,8192]{1,0}, /*index=15*/pred[128,2048]{1,0}, f32[128,8192]{1,0}, pred[128,8192]{1,0}, f32[128,2048]{1,0}, f32[8192,2048]{1,0}) %call.257), index=18, metadata={op_name="parallelize(stage_0_1)/jit(main)/pipeline_marker[name=stage_0_1_acc_grad_1 mark_type=start]"}
[2m[36m(CompileWorker pid=1531229)[0m   %get-tuple-element.277 = f32[8192,2048]{1,0} get-tuple-element((f32[2048]{0}, f32[8192,2048]{1,0}, f32[8192]{0}, f32[2048,8192]{1,0}, f32[2048]{0}, /*index=5*/f32[8192,2048]{1,0}, f32[8192]{0}, f32[2048,8192]{1,0}, f32[128,2048]{1,0}, pred[128,2048]{1,0}, /*index=10*/f32[128,8192]{1,0}, pred[128,8192]{1,0}, f32[8192,2048]{1,0}, f32[128,2048]{1,0}, f32[2048,8192]{1,0}, /*index=15*/pred[128,2048]{1,0}, f32[128,8192]{1,0}, pred[128,8192]{1,0}, f32[128,2048]{1,0}, f32[8192,2048]{1,0}) %call.257), index=19, metadata={op_name="parallelize(stage_0_1)/jit(main)/pipeline_marker[name=stage_0_1_acc_grad_1 mark_type=start]"}
[2m[36m(CompileWorker pid=1531229)[0m   ROOT %tuple.278 = (f32[2048]{0}, f32[8192,2048]{1,0}, f32[8192]{0}, f32[2048,8192]{1,0}, f32[2048]{0}, /*index=5*/f32[8192,2048]{1,0}, f32[8192]{0}, f32[2048,8192]{1,0}, f32[128,2048]{1,0}, pred[128,2048]{1,0}, /*index=10*/f32[128,8192]{1,0}, pred[128,8192]{1,0}, f32[8192,2048]{1,0}, f32[128,2048]{1,0}, f32[2048,8192]{1,0}, /*index=15*/pred[128,2048]{1,0}, f32[128,8192]{1,0}, pred[128,8192]{1,0}, f32[128,2048]{1,0}, f32[8192,2048]{1,0}) tuple(f32[2048]{0} %get-tuple-element.258, f32[8192,2048]{1,0} %get-tuple-element.259, f32[8192]{0} %get-tuple-element.260, f32[2048,8192]{1,0} %get-tuple-element.261, f32[2048]{0} %get-tuple-element.262, /*index=5*/f32[8192,2048]{1,0} %get-tuple-element.263, f32[8192]{0} %get-tuple-element.264, f32[2048,8192]{1,0} %get-tuple-element.265, f32[128,2048]{1,0} %get-tuple-element.266, pred[128,2048]{1,0} %get-tuple-element.267, /*index=10*/f32[128,8192]{1,0} %get-tuple-element.268, pred[128,8192]{1,0} %get-tuple-element.269, f32[8192,2048]{1,0} %get-tuple-element.270, f32[128,2048]{1,0} %get-tuple-element.271, f32[2048,8192]{1,0} %get-tuple-element.272, /*index=15*/pred[128,2048]{1,0} %get-tuple-element.273, f32[128,8192]{1,0} %get-tuple-element.274, pred[128,8192]{1,0} %get-tuple-element.275, f32[128,2048]{1,0} %get-tuple-element.276, f32[8192,2048]{1,0} %get-tuple-element.277)
[2m[36m(CompileWorker pid=1531229)[0m }
[2m[36m(CompileWorker pid=1531229)[0m 
[2m[36m(CompileWorker pid=1531229)[0m %region_0.300 (Arg_0.301: f32[], Arg_1.302: f32[]) -> f32[] {
[2m[36m(CompileWorker pid=1531229)[0m   %Arg_0.301 = f32[] parameter(0)
[2m[36m(CompileWorker pid=1531229)[0m   %Arg_1.302 = f32[] parameter(1)
[2m[36m(CompileWorker pid=1531229)[0m   ROOT %add.303 = f32[] add(f32[] %Arg_0.301, f32[] %Arg_1.302), metadata={op_name="parallelize(stage_0_1)/jit(main)/jit(stage_0_1_acc_grad_1)/jit(stage_0_1_acc_grad_10)/transpose(jvp(MLPModel))/Dense_3/reduce_sum[axes=(0,)]" source_file="/home/jingqi/anaconda3/envs/ddl/lib/python3.9/site-packages/flax/linen/linear.py" source_line=200}
[2m[36m(CompileWorker pid=1531229)[0m }
[2m[36m(CompileWorker pid=1531229)[0m 
[2m[36m(CompileWorker pid=1531229)[0m %region_1.304 (Arg_0.305: f32[], Arg_1.306: f32[]) -> f32[] {
[2m[36m(CompileWorker pid=1531229)[0m   %Arg_0.305 = f32[] parameter(0)
[2m[36m(CompileWorker pid=1531229)[0m   %Arg_1.306 = f32[] parameter(1)
[2m[36m(CompileWorker pid=1531229)[0m   ROOT %add.307 = f32[] add(f32[] %Arg_0.305, f32[] %Arg_1.306), metadata={op_name="parallelize(stage_0_1)/jit(main)/jit(stage_0_1_acc_grad_1)/jit(stage_0_1_acc_grad_10)/transpose(jvp(MLPModel))/Dense_2/reduce_sum[axes=(0,)]" source_file="/home/jingqi/anaconda3/envs/ddl/lib/python3.9/site-packages/flax/linen/linear.py" source_line=200}
[2m[36m(CompileWorker pid=1531229)[0m }
[2m[36m(CompileWorker pid=1531229)[0m 
[2m[36m(CompileWorker pid=1531229)[0m %stage_0_1_acc_grad_10.308 (Arg_0.309: f32[2048], Arg_1.310: f32[8192,2048], Arg_2.311: f32[8192], Arg_3.312: f32[2048,8192], Arg_4.313: f32[128,2048], Arg_5.314: pred[128,2048], Arg_6.315: f32[128,8192], Arg_7.316: pred[128,8192], Arg_8.317: f32[8192,2048], Arg_9.318: f32[128,2048], Arg_10.319: f32[2048,8192]) -> (f32[2048], f32[8192,2048], f32[8192], f32[2048,8192], f32[128,2048]) {
[2m[36m(CompileWorker pid=1531229)[0m   %Arg_0.309 = f32[2048]{0} parameter(0)
[2m[36m(CompileWorker pid=1531229)[0m   %Arg_5.314 = pred[128,2048]{1,0} parameter(5)
[2m[36m(CompileWorker pid=1531229)[0m   %Arg_4.313 = f32[128,2048]{1,0} parameter(4)
[2m[36m(CompileWorker pid=1531229)[0m   %constant.324 = f32[] constant(3.81469727e-06)
[2m[36m(CompileWorker pid=1531229)[0m   %broadcast.325 = f32[128,2048]{1,0} broadcast(f32[] %constant.324), dimensions={}, metadata={op_name="parallelize(stage_0_1)/jit(main)/jit(stage_0_1_acc_grad_1)/jit(stage_0_1_acc_grad_10)/broadcast_in_dim[shape=(128, 2048) broadcast_dimensions=()]" source_file="/home/jingqi/alpa/tests/tutorial/pipeline_shard.py" source_line=228}
[2m[36m(CompileWorker pid=1531229)[0m   %multiply.327 = f32[128,2048]{1,0} multiply(f32[128,2048]{1,0} %Arg_4.313, f32[128,2048]{1,0} %broadcast.325), metadata={op_name="parallelize(stage_0_1)/jit(main)/jit(stage_0_1_acc_grad_1)/jit(stage_0_1_acc_grad_10)/mul" source_file="/home/jingqi/alpa/tests/tutorial/pipeline_shard.py" source_line=228}
[2m[36m(CompileWorker pid=1531229)[0m   %constant.322 = f32[] constant(0)
[2m[36m(CompileWorker pid=1531229)[0m   %broadcast.323 = f32[128,2048]{1,0} broadcast(f32[] %constant.322), dimensions={}, metadata={op_name="parallelize(stage_0_1)/jit(main)/jit(stage_0_1_acc_grad_1)/jit(stage_0_1_acc_grad_10)/transpose(jvp(MLPModel))/broadcast_in_dim[shape=(128, 2048) broadcast_dimensions=()]" source_file="/home/jingqi/alpa/tests/tutorial/pipeline_shard.py" source_line=75}
[2m[36m(CompileWorker pid=1531229)[0m   %select.328 = f32[128,2048]{1,0} select(pred[128,2048]{1,0} %Arg_5.314, f32[128,2048]{1,0} %multiply.327, f32[128,2048]{1,0} %broadcast.323), metadata={op_name="parallelize(stage_0_1)/jit(main)/jit(stage_0_1_acc_grad_1)/jit(stage_0_1_acc_grad_10)/transpose(jvp(MLPModel))/select_n" source_file="/home/jingqi/alpa/tests/tutorial/pipeline_shard.py" source_line=75}
[2m[36m(CompileWorker pid=1531229)[0m   %constant.326 = f32[] constant(0)
[2m[36m(CompileWorker pid=1531229)[0m   %reduce.329 = f32[2048]{0} reduce(f32[128,2048]{1,0} %select.328, f32[] %constant.326), dimensions={0}, to_apply=%region_0.300, metadata={op_name="parallelize(stage_0_1)/jit(main)/jit(stage_0_1_acc_grad_1)/jit(stage_0_1_acc_grad_10)/transpose(jvp(MLPModel))/Dense_3/reduce_sum[axes=(0,)]" source_file="/home/jingqi/anaconda3/envs/ddl/lib/python3.9/site-packages/flax/linen/linear.py" source_line=200}
[2m[36m(CompileWorker pid=1531229)[0m   %add.338 = f32[2048]{0} add(f32[2048]{0} %Arg_0.309, f32[2048]{0} %reduce.329), metadata={op_name="parallelize(stage_0_1)/jit(main)/jit(stage_0_1_acc_grad_1)/jit(stage_0_1_acc_grad_10)/add"}
[2m[36m(CompileWorker pid=1531229)[0m   %Arg_1.310 = f32[8192,2048]{1,0} parameter(1)
[2m[36m(CompileWorker pid=1531229)[0m   %Arg_6.315 = f32[128,8192]{1,0} parameter(6)
[2m[36m(CompileWorker pid=1531229)[0m   %dot.330 = f32[2048,8192]{1,0} dot(f32[128,2048]{1,0} %select.328, f32[128,8192]{1,0} %Arg_6.315), lhs_contracting_dims={0}, rhs_contracting_dims={0}, metadata={op_name="parallelize(stage_0_1)/jit(main)/jit(stage_0_1_acc_grad_1)/jit(stage_0_1_acc_grad_10)/transpose(jvp(MLPModel))/Dense_3/dot_general[dimension_numbers=(((0,), (0,)), ((), ())) precision=None preferred_element_type=None]" source_file="/home/jingqi/anaconda3/envs/ddl/lib/python3.9/site-packages/flax/linen/linear.py" source_line=196}
[2m[36m(CompileWorker pid=1531229)[0m   %transpose.331 = f32[8192,2048]{0,1} transpose(f32[2048,8192]{1,0} %dot.330), dimensions={1,0}, metadata={op_name="parallelize(stage_0_1)/jit(main)/jit(stage_0_1_acc_grad_1)/jit(stage_0_1_acc_grad_10)/transpose(jvp(MLPModel))/Dense_3/transpose[permutation=(1, 0)]" source_file="/home/jingqi/anaconda3/envs/ddl/lib/python3.9/site-packages/flax/linen/linear.py" source_line=196}
[2m[36m(CompileWorker pid=1531229)[0m   %add.339 = f32[8192,2048]{1,0} add(f32[8192,2048]{1,0} %Arg_1.310, f32[8192,2048]{0,1} %transpose.331), metadata={op_name="parallelize(stage_0_1)/jit(main)/jit(stage_0_1_acc_grad_1)/jit(stage_0_1_acc_grad_10)/add"}
[2m[36m(CompileWorker pid=1531229)[0m   %Arg_2.311 = f32[8192]{0} parameter(2)
[2m[36m(CompileWorker pid=1531229)[0m   %Arg_7.316 = pred[128,8192]{1,0} parameter(7)
[2m[36m(CompileWorker pid=1531229)[0m   %Arg_8.317 = f32[8192,2048]{1,0} parameter(8)
[2m[36m(CompileWorker pid=1531229)[0m   %dot.332 = f32[128,8192]{1,0} dot(f32[128,2048]{1,0} %select.328, f32[8192,2048]{1,0} %Arg_8.317), lhs_contracting_dims={1}, rhs_contracting_dims={1}, metadata={op_name="parallelize(stage_0_1)/jit(main)/jit(stage_0_1_acc_grad_1)/jit(stage_0_1_acc_grad_10)/transpose(jvp(MLPModel))/Dense_3/dot_general[dimension_numbers=(((1,), (1,)), ((), ())) precision=None preferred_element_type=None]" source_file="/home/jingqi/anaconda3/envs/ddl/lib/python3.9/site-packages/flax/linen/linear.py" source_line=196}
[2m[36m(CompileWorker pid=1531229)[0m   %constant.320 = f32[] constant(0)
[2m[36m(CompileWorker pid=1531229)[0m   %broadcast.321 = f32[128,8192]{1,0} broadcast(f32[] %constant.320), dimensions={}, metadata={op_name="parallelize(stage_0_1)/jit(main)/jit(stage_0_1_acc_grad_1)/jit(stage_0_1_acc_grad_10)/transpose(jvp(MLPModel))/broadcast_in_dim[shape=(128, 8192) broadcast_dimensions=()]" source_file="/home/jingqi/alpa/tests/tutorial/pipeline_shard.py" source_line=73}
[2m[36m(CompileWorker pid=1531229)[0m   %select.333 = f32[128,8192]{1,0} select(pred[128,8192]{1,0} %Arg_7.316, f32[128,8192]{1,0} %dot.332, f32[128,8192]{1,0} %broadcast.321), metadata={op_name="parallelize(stage_0_1)/jit(main)/jit(stage_0_1_acc_grad_1)/jit(stage_0_1_acc_grad_10)/transpose(jvp(MLPModel))/select_n" source_file="/home/jingqi/alpa/tests/tutorial/pipeline_shard.py" source_line=73}
[2m[36m(CompileWorker pid=1531229)[0m   %reduce.334 = f32[8192]{0} reduce(f32[128,8192]{1,0} %select.333, f32[] %constant.326), dimensions={0}, to_apply=%region_1.304, metadata={op_name="parallelize(stage_0_1)/jit(main)/jit(stage_0_1_acc_grad_1)/jit(stage_0_1_acc_grad_10)/transpose(jvp(MLPModel))/Dense_2/reduce_sum[axes=(0,)]" source_file="/home/jingqi/anaconda3/envs/ddl/lib/python3.9/site-packages/flax/linen/linear.py" source_line=200}
[2m[36m(CompileWorker pid=1531229)[0m   %add.340 = f32[8192]{0} add(f32[8192]{0} %Arg_2.311, f32[8192]{0} %reduce.334), metadata={op_name="parallelize(stage_0_1)/jit(main)/jit(stage_0_1_acc_grad_1)/jit(stage_0_1_acc_grad_10)/add"}
[2m[36m(CompileWorker pid=1531229)[0m   %Arg_3.312 = f32[2048,8192]{1,0} parameter(3)
[2m[36m(CompileWorker pid=1531229)[0m   %Arg_9.318 = f32[128,2048]{1,0} parameter(9)
[2m[36m(CompileWorker pid=1531229)[0m   %dot.335 = f32[8192,2048]{1,0} dot(f32[128,8192]{1,0} %select.333, f32[128,2048]{1,0} %Arg_9.318), lhs_contracting_dims={0}, rhs_contracting_dims={0}, metadata={op_name="parallelize(stage_0_1)/jit(main)/jit(stage_0_1_acc_grad_1)/jit(stage_0_1_acc_grad_10)/transpose(jvp(MLPModel))/Dense_2/dot_general[dimension_numbers=(((0,), (0,)), ((), ())) precision=None preferred_element_type=None]" source_file="/home/jingqi/anaconda3/envs/ddl/lib/python3.9/site-packages/flax/linen/linear.py" source_line=196}
[2m[36m(CompileWorker pid=1531229)[0m   %transpose.336 = f32[2048,8192]{0,1} transpose(f32[8192,2048]{1,0} %dot.335), dimensions={1,0}, metadata={op_name="parallelize(stage_0_1)/jit(main)/jit(stage_0_1_acc_grad_1)/jit(stage_0_1_acc_grad_10)/transpose(jvp(MLPModel))/Dense_2/transpose[permutation=(1, 0)]" source_file="/home/jingqi/anaconda3/envs/ddl/lib/python3.9/site-packages/flax/linen/linear.py" source_line=196}
[2m[36m(CompileWorker pid=1531229)[0m   %add.341 = f32[2048,8192]{1,0} add(f32[2048,8192]{1,0} %Arg_3.312, f32[2048,8192]{0,1} %transpose.336), metadata={op_name="parallelize(stage_0_1)/jit(main)/jit(stage_0_1_acc_grad_1)/jit(stage_0_1_acc_grad_10)/add"}
[2m[36m(CompileWorker pid=1531229)[0m   %Arg_10.319 = f32[2048,8192]{1,0} parameter(10)
[2m[36m(CompileWorker pid=1531229)[0m   %dot.337 = f32[128,2048]{1,0} dot(f32[128,8192]{1,0} %select.333, f32[2048,8192]{1,0} %Arg_10.319), lhs_contracting_dims={1}, rhs_contracting_dims={1}, metadata={op_name="parallelize(stage_0_1)/jit(main)/jit(stage_0_1_acc_grad_1)/jit(stage_0_1_acc_grad_10)/transpose(jvp(MLPModel))/Dense_2/dot_general[dimension_numbers=(((1,), (1,)), ((), ())) precision=None preferred_element_type=None]" source_file="/home/jingqi/anaconda3/envs/ddl/lib/python3.9/site-packages/flax/linen/linear.py" source_line=196}
[2m[36m(CompileWorker pid=1531229)[0m   ROOT %tuple.342 = (f32[2048]{0}, f32[8192,2048]{1,0}, f32[8192]{0}, f32[2048,8192]{1,0}, f32[128,2048]{1,0}) tuple(f32[2048]{0} %add.338, f32[8192,2048]{1,0} %add.339, f32[8192]{0} %add.340, f32[2048,8192]{1,0} %add.341, f32[128,2048]{1,0} %dot.337)
[2m[36m(CompileWorker pid=1531229)[0m }
[2m[36m(CompileWorker pid=1531229)[0m 
[2m[36m(CompileWorker pid=1531229)[0m %region_2.343 (Arg_0.344: f32[], Arg_1.345: f32[]) -> f32[] {
[2m[36m(CompileWorker pid=1531229)[0m   %Arg_0.344 = f32[] parameter(0)
[2m[36m(CompileWorker pid=1531229)[0m   %Arg_1.345 = f32[] parameter(1)
[2m[36m(CompileWorker pid=1531229)[0m   ROOT %add.346 = f32[] add(f32[] %Arg_0.344, f32[] %Arg_1.345), metadata={op_name="parallelize(stage_0_1)/jit(main)/jit(stage_0_1_acc_grad_1)/jit(stage_0_1_acc_grad_11)/transpose(jvp(MLPModel))/Dense_1/reduce_sum[axes=(0,)]" source_file="/home/jingqi/anaconda3/envs/ddl/lib/python3.9/site-packages/flax/linen/linear.py" source_line=200}
[2m[36m(CompileWorker pid=1531229)[0m }
[2m[36m(CompileWorker pid=1531229)[0m 
[2m[36m(CompileWorker pid=1531229)[0m %region_3.347 (Arg_0.348: f32[], Arg_1.349: f32[]) -> f32[] {
[2m[36m(CompileWorker pid=1531229)[0m   %Arg_0.348 = f32[] parameter(0)
[2m[36m(CompileWorker pid=1531229)[0m   %Arg_1.349 = f32[] parameter(1)
[2m[36m(CompileWorker pid=1531229)[0m   ROOT %add.350 = f32[] add(f32[] %Arg_0.348, f32[] %Arg_1.349), metadata={op_name="parallelize(stage_0_1)/jit(main)/jit(stage_0_1_acc_grad_1)/jit(stage_0_1_acc_grad_11)/transpose(jvp(MLPModel))/Dense_0/reduce_sum[axes=(0,)]" source_file="/home/jingqi/anaconda3/envs/ddl/lib/python3.9/site-packages/flax/linen/linear.py" source_line=200}
[2m[36m(CompileWorker pid=1531229)[0m }
[2m[36m(CompileWorker pid=1531229)[0m 
[2m[36m(CompileWorker pid=1531229)[0m %stage_0_1_acc_grad_11.351 (Arg_0.352: f32[2048], Arg_1.353: f32[8192,2048], Arg_2.354: f32[8192], Arg_3.355: f32[2048,8192], Arg_4.356: f32[128,2048], Arg_5.357: pred[128,2048], Arg_6.358: f32[128,8192], Arg_7.359: pred[128,8192], Arg_8.360: f32[128,2048], Arg_9.361: f32[8192,2048]) -> (f32[2048], f32[8192,2048], f32[8192], f32[2048,8192]) {
[2m[36m(CompileWorker pid=1531229)[0m   %Arg_0.352 = f32[2048]{0} parameter(0)
[2m[36m(CompileWorker pid=1531229)[0m   %Arg_5.357 = pred[128,2048]{1,0} parameter(5)
[2m[36m(CompileWorker pid=1531229)[0m   %Arg_4.356 = f32[128,2048]{1,0} parameter(4)
[2m[36m(CompileWorker pid=1531229)[0m   %constant.364 = f32[] constant(0)
[2m[36m(CompileWorker pid=1531229)[0m   %broadcast.365 = f32[128,2048]{1,0} broadcast(f32[] %constant.364), dimensions={}, metadata={op_name="parallelize(stage_0_1)/jit(main)/jit(stage_0_1_acc_grad_1)/jit(stage_0_1_acc_grad_11)/transpose(jvp(MLPModel))/broadcast_in_dim[shape=(128, 2048) broadcast_dimensions=()]" source_file="/home/jingqi/alpa/tests/tutorial/pipeline_shard.py" source_line=71}
[2m[36m(CompileWorker pid=1531229)[0m   %select.367 = f32[128,2048]{1,0} select(pred[128,2048]{1,0} %Arg_5.357, f32[128,2048]{1,0} %Arg_4.356, f32[128,2048]{1,0} %broadcast.365), metadata={op_name="parallelize(stage_0_1)/jit(main)/jit(stage_0_1_acc_grad_1)/jit(stage_0_1_acc_grad_11)/transpose(jvp(MLPModel))/select_n" source_file="/home/jingqi/alpa/tests/tutorial/pipeline_shard.py" source_line=71}
[2m[36m(CompileWorker pid=1531229)[0m   %constant.366 = f32[] constant(0)
[2m[36m(CompileWorker pid=1531229)[0m   %reduce.368 = f32[2048]{0} reduce(f32[128,2048]{1,0} %select.367, f32[] %constant.366), dimensions={0}, to_apply=%region_2.343, metadata={op_name="parallelize(stage_0_1)/jit(main)/jit(stage_0_1_acc_grad_1)/jit(stage_0_1_acc_grad_11)/transpose(jvp(MLPModel))/Dense_1/reduce_sum[axes=(0,)]" source_file="/home/jingqi/anaconda3/envs/ddl/lib/python3.9/site-packages/flax/linen/linear.py" source_line=200}
[2m[36m(CompileWorker pid=1531229)[0m   %add.376 = f32[2048]{0} add(f32[2048]{0} %Arg_0.352, f32[2048]{0} %reduce.368), metadata={op_name="parallelize(stage_0_1)/jit(main)/jit(stage_0_1_acc_grad_1)/jit(stage_0_1_acc_grad_11)/add"}
[2m[36m(CompileWorker pid=1531229)[0m   %Arg_1.353 = f32[8192,2048]{1,0} parameter(1)
[2m[36m(CompileWorker pid=1531229)[0m   %Arg_6.358 = f32[128,8192]{1,0} parameter(6)
[2m[36m(CompileWorker pid=1531229)[0m   %dot.369 = f32[2048,8192]{1,0} dot(f32[128,2048]{1,0} %select.367, f32[128,8192]{1,0} %Arg_6.358), lhs_contracting_dims={0}, rhs_contracting_dims={0}, metadata={op_name="parallelize(stage_0_1)/jit(main)/jit(stage_0_1_acc_grad_1)/jit(stage_0_1_acc_grad_11)/transpose(jvp(MLPModel))/Dense_1/dot_general[dimension_numbers=(((0,), (0,)), ((), ())) precision=None preferred_element_type=None]" source_file="/home/jingqi/anaconda3/envs/ddl/lib/python3.9/site-packages/flax/linen/linear.py" source_line=196}
[2m[36m(CompileWorker pid=1531229)[0m   %transpose.370 = f32[8192,2048]{0,1} transpose(f32[2048,8192]{1,0} %dot.369), dimensions={1,0}, metadata={op_name="parallelize(stage_0_1)/jit(main)/jit(stage_0_1_acc_grad_1)/jit(stage_0_1_acc_grad_11)/transpose(jvp(MLPModel))/Dense_1/transpose[permutation=(1, 0)]" source_file="/home/jingqi/anaconda3/envs/ddl/lib/python3.9/site-packages/flax/linen/linear.py" source_line=196}
[2m[36m(CompileWorker pid=1531229)[0m   %add.377 = f32[8192,2048]{1,0} add(f32[8192,2048]{1,0} %Arg_1.353, f32[8192,2048]{0,1} %transpose.370), metadata={op_name="parallelize(stage_0_1)/jit(main)/jit(stage_0_1_acc_grad_1)/jit(stage_0_1_acc_grad_11)/add"}
[2m[36m(CompileWorker pid=1531229)[0m   %Arg_2.354 = f32[8192]{0} parameter(2)
[2m[36m(CompileWorker pid=1531229)[0m   %Arg_7.359 = pred[128,8192]{1,0} parameter(7)
[2m[36m(CompileWorker pid=1531229)[0m   %Arg_9.361 = f32[8192,2048]{1,0} parameter(9)
[2m[36m(CompileWorker pid=1531229)[0m   %dot.371 = f32[128,8192]{1,0} dot(f32[128,2048]{1,0} %select.367, f32[8192,2048]{1,0} %Arg_9.361), lhs_contracting_dims={1}, rhs_contracting_dims={1}, metadata={op_name="parallelize(stage_0_1)/jit(main)/jit(stage_0_1_acc_grad_1)/jit(stage_0_1_acc_grad_11)/transpose(jvp(MLPModel))/Dense_1/dot_general[dimension_numbers=(((1,), (1,)), ((), ())) precision=None preferred_element_type=None]" source_file="/home/jingqi/anaconda3/envs/ddl/lib/python3.9/site-packages/flax/linen/linear.py" source_line=196}
[2m[36m(CompileWorker pid=1531229)[0m   %constant.362 = f32[] constant(0)
[2m[36m(CompileWorker pid=1531229)[0m   %broadcast.363 = f32[128,8192]{1,0} broadcast(f32[] %constant.362), dimensions={}, metadata={op_name="parallelize(stage_0_1)/jit(main)/jit(stage_0_1_acc_grad_1)/jit(stage_0_1_acc_grad_11)/transpose(jvp(MLPModel))/broadcast_in_dim[shape=(128, 8192) broadcast_dimensions=()]" source_file="/home/jingqi/alpa/tests/tutorial/pipeline_shard.py" source_line=69}
[2m[36m(CompileWorker pid=1531229)[0m   %select.372 = f32[128,8192]{1,0} select(pred[128,8192]{1,0} %Arg_7.359, f32[128,8192]{1,0} %dot.371, f32[128,8192]{1,0} %broadcast.363), metadata={op_name="parallelize(stage_0_1)/jit(main)/jit(stage_0_1_acc_grad_1)/jit(stage_0_1_acc_grad_11)/transpose(jvp(MLPModel))/select_n" source_file="/home/jingqi/alpa/tests/tutorial/pipeline_shard.py" source_line=69}
[2m[36m(CompileWorker pid=1531229)[0m   %reduce.373 = f32[8192]{0} reduce(f32[128,8192]{1,0} %select.372, f32[] %constant.366), dimensions={0}, to_apply=%region_3.347, metadata={op_name="parallelize(stage_0_1)/jit(main)/jit(stage_0_1_acc_grad_1)/jit(stage_0_1_acc_grad_11)/transpose(jvp(MLPModel))/Dense_0/reduce_sum[axes=(0,)]" source_file="/home/jingqi/anaconda3/envs/ddl/lib/python3.9/site-packages/flax/linen/linear.py" source_line=200}
[2m[36m(CompileWorker pid=1531229)[0m   %add.378 = f32[8192]{0} add(f32[8192]{0} %Arg_2.354, f32[8192]{0} %reduce.373), metadata={op_name="parallelize(stage_0_1)/jit(main)/jit(stage_0_1_acc_grad_1)/jit(stage_0_1_acc_grad_11)/add"}
[2m[36m(CompileWorker pid=1531229)[0m   %Arg_3.355 = f32[2048,8192]{1,0} parameter(3)
[2m[36m(CompileWorker pid=1531229)[0m   %Arg_8.360 = f32[128,2048]{1,0} parameter(8)
[2m[36m(CompileWorker pid=1531229)[0m   %dot.374 = f32[8192,2048]{1,0} dot(f32[128,8192]{1,0} %select.372, f32[128,2048]{1,0} %Arg_8.360), lhs_contracting_dims={0}, rhs_contracting_dims={0}, metadata={op_name="parallelize(stage_0_1)/jit(main)/jit(stage_0_1_acc_grad_1)/jit(stage_0_1_acc_grad_11)/transpose(jvp(MLPModel))/Dense_0/dot_general[dimension_numbers=(((0,), (0,)), ((), ())) precision=None preferred_element_type=None]" source_file="/home/jingqi/anaconda3/envs/ddl/lib/python3.9/site-packages/flax/linen/linear.py" source_line=196}
[2m[36m(CompileWorker pid=1531229)[0m   %transpose.375 = f32[2048,8192]{0,1} transpose(f32[8192,2048]{1,0} %dot.374), dimensions={1,0}, metadata={op_name="parallelize(stage_0_1)/jit(main)/jit(stage_0_1_acc_grad_1)/jit(stage_0_1_acc_grad_11)/transpose(jvp(MLPModel))/Dense_0/transpose[permutation=(1, 0)]" source_file="/home/jingqi/anaconda3/envs/ddl/lib/python3.9/site-packages/flax/linen/linear.py" source_line=196}
[2m[36m(CompileWorker pid=1531229)[0m   %add.379 = f32[2048,8192]{1,0} add(f32[2048,8192]{1,0} %Arg_3.355, f32[2048,8192]{0,1} %transpose.375), metadata={op_name="parallelize(stage_0_1)/jit(main)/jit(stage_0_1_acc_grad_1)/jit(stage_0_1_acc_grad_11)/add"}
[2m[36m(CompileWorker pid=1531229)[0m   ROOT %tuple.380 = (f32[2048]{0}, f32[8192,2048]{1,0}, f32[8192]{0}, f32[2048,8192]{1,0}) tuple(f32[2048]{0} %add.376, f32[8192,2048]{1,0} %add.377, f32[8192]{0} %add.378, f32[2048,8192]{1,0} %add.379)
[2m[36m(CompileWorker pid=1531229)[0m }
[2m[36m(CompileWorker pid=1531229)[0m 
[2m[36m(CompileWorker pid=1531229)[0m %stage_0_1_acc_grad_1.381 (Arg_0.382: f32[2048], Arg_1.383: f32[8192,2048], Arg_2.384: f32[8192], Arg_3.385: f32[2048,8192], Arg_4.386: f32[2048], Arg_5.387: f32[8192,2048], Arg_6.388: f32[8192], Arg_7.389: f32[2048,8192], Arg_8.390: f32[128,2048], Arg_9.391: pred[128,2048], Arg_10.392: f32[128,8192], Arg_11.393: pred[128,8192], Arg_12.394: f32[8192,2048], Arg_13.395: f32[128,2048], Arg_14.396: f32[2048,8192], Arg_15.397: pred[128,2048], Arg_16.398: f32[128,8192], Arg_17.399: pred[128,8192], Arg_18.400: f32[128,2048], Arg_19.401: f32[8192,2048]) -> (f32[2048], f32[8192,2048], f32[8192], f32[2048,8192], f32[2048], /*index=5*/f32[8192,2048], f32[8192], f32[2048,8192]) {
[2m[36m(CompileWorker pid=1531229)[0m   %Arg_0.382 = f32[2048]{0} parameter(0)
[2m[36m(CompileWorker pid=1531229)[0m   %Arg_1.383 = f32[8192,2048]{1,0} parameter(1)
[2m[36m(CompileWorker pid=1531229)[0m   %Arg_2.384 = f32[8192]{0} parameter(2)
[2m[36m(CompileWorker pid=1531229)[0m   %Arg_3.385 = f32[2048,8192]{1,0} parameter(3)
[2m[36m(CompileWorker pid=1531229)[0m   %Arg_8.390 = f32[128,2048]{1,0} parameter(8)
[2m[36m(CompileWorker pid=1531229)[0m   %Arg_9.391 = pred[128,2048]{1,0} parameter(9)
[2m[36m(CompileWorker pid=1531229)[0m   %Arg_10.392 = f32[128,8192]{1,0} parameter(10)
[2m[36m(CompileWorker pid=1531229)[0m   %Arg_11.393 = pred[128,8192]{1,0} parameter(11)
[2m[36m(CompileWorker pid=1531229)[0m   %Arg_12.394 = f32[8192,2048]{1,0} parameter(12)
[2m[36m(CompileWorker pid=1531229)[0m   %Arg_13.395 = f32[128,2048]{1,0} parameter(13)
[2m[36m(CompileWorker pid=1531229)[0m   %Arg_14.396 = f32[2048,8192]{1,0} parameter(14)
[2m[36m(CompileWorker pid=1531229)[0m   %call.402 = (f32[2048]{0}, f32[8192,2048]{1,0}, f32[8192]{0}, f32[2048,8192]{1,0}, f32[128,2048]{1,0}) call(f32[2048]{0} %Arg_0.382, f32[8192,2048]{1,0} %Arg_1.383, f32[8192]{0} %Arg_2.384, f32[2048,8192]{1,0} %Arg_3.385, f32[128,2048]{1,0} %Arg_8.390, /*index=5*/pred[128,2048]{1,0} %Arg_9.391, f32[128,8192]{1,0} %Arg_10.392, pred[128,8192]{1,0} %Arg_11.393, f32[8192,2048]{1,0} %Arg_12.394, f32[128,2048]{1,0} %Arg_13.395, /*index=10*/f32[2048,8192]{1,0} %Arg_14.396), to_apply=%stage_0_1_acc_grad_10.308
[2m[36m(CompileWorker pid=1531229)[0m   %get-tuple-element.403 = f32[2048]{0} get-tuple-element((f32[2048]{0}, f32[8192,2048]{1,0}, f32[8192]{0}, f32[2048,8192]{1,0}, f32[128,2048]{1,0}) %call.402), index=0
[2m[36m(CompileWorker pid=1531229)[0m   %get-tuple-element.404 = f32[8192,2048]{1,0} get-tuple-element((f32[2048]{0}, f32[8192,2048]{1,0}, f32[8192]{0}, f32[2048,8192]{1,0}, f32[128,2048]{1,0}) %call.402), index=1
[2m[36m(CompileWorker pid=1531229)[0m   %get-tuple-element.405 = f32[8192]{0} get-tuple-element((f32[2048]{0}, f32[8192,2048]{1,0}, f32[8192]{0}, f32[2048,8192]{1,0}, f32[128,2048]{1,0}) %call.402), index=2
[2m[36m(CompileWorker pid=1531229)[0m   %get-tuple-element.406 = f32[2048,8192]{1,0} get-tuple-element((f32[2048]{0}, f32[8192,2048]{1,0}, f32[8192]{0}, f32[2048,8192]{1,0}, f32[128,2048]{1,0}) %call.402), index=3
[2m[36m(CompileWorker pid=1531229)[0m   %Arg_4.386 = f32[2048]{0} parameter(4)
[2m[36m(CompileWorker pid=1531229)[0m   %Arg_5.387 = f32[8192,2048]{1,0} parameter(5)
[2m[36m(CompileWorker pid=1531229)[0m   %Arg_6.388 = f32[8192]{0} parameter(6)
[2m[36m(CompileWorker pid=1531229)[0m   %Arg_7.389 = f32[2048,8192]{1,0} parameter(7)
[2m[36m(CompileWorker pid=1531229)[0m   %get-tuple-element.407 = f32[128,2048]{1,0} get-tuple-element((f32[2048]{0}, f32[8192,2048]{1,0}, f32[8192]{0}, f32[2048,8192]{1,0}, f32[128,2048]{1,0}) %call.402), index=4
[2m[36m(CompileWorker pid=1531229)[0m   %Arg_15.397 = pred[128,2048]{1,0} parameter(15)
[2m[36m(CompileWorker pid=1531229)[0m   %Arg_16.398 = f32[128,8192]{1,0} parameter(16)
[2m[36m(CompileWorker pid=1531229)[0m   %Arg_17.399 = pred[128,8192]{1,0} parameter(17)
[2m[36m(CompileWorker pid=1531229)[0m   %Arg_18.400 = f32[128,2048]{1,0} parameter(18)
[2m[36m(CompileWorker pid=1531229)[0m   %Arg_19.401 = f32[8192,2048]{1,0} parameter(19)
[2m[36m(CompileWorker pid=1531229)[0m   %call.408 = (f32[2048]{0}, f32[8192,2048]{1,0}, f32[8192]{0}, f32[2048,8192]{1,0}) call(f32[2048]{0} %Arg_4.386, f32[8192,2048]{1,0} %Arg_5.387, f32[8192]{0} %Arg_6.388, f32[2048,8192]{1,0} %Arg_7.389, f32[128,2048]{1,0} %get-tuple-element.407, /*index=5*/pred[128,2048]{1,0} %Arg_15.397, f32[128,8192]{1,0} %Arg_16.398, pred[128,8192]{1,0} %Arg_17.399, f32[128,2048]{1,0} %Arg_18.400, f32[8192,2048]{1,0} %Arg_19.401), to_apply=%stage_0_1_acc_grad_11.351
[2m[36m(CompileWorker pid=1531229)[0m   %get-tuple-element.409 = f32[2048]{0} get-tuple-element((f32[2048]{0}, f32[8192,2048]{1,0}, f32[8192]{0}, f32[2048,8192]{1,0}) %call.408), index=0
[2m[36m(CompileWorker pid=1531229)[0m   %get-tuple-element.410 = f32[8192,2048]{1,0} get-tuple-element((f32[2048]{0}, f32[8192,2048]{1,0}, f32[8192]{0}, f32[2048,8192]{1,0}) %call.408), index=1
[2m[36m(CompileWorker pid=1531229)[0m   %get-tuple-element.411 = f32[8192]{0} get-tuple-element((f32[2048]{0}, f32[8192,2048]{1,0}, f32[8192]{0}, f32[2048,8192]{1,0}) %call.408), index=2
[2m[36m(CompileWorker pid=1531229)[0m   %get-tuple-element.412 = f32[2048,8192]{1,0} get-tuple-element((f32[2048]{0}, f32[8192,2048]{1,0}, f32[8192]{0}, f32[2048,8192]{1,0}) %call.408), index=3
[2m[36m(CompileWorker pid=1531229)[0m   ROOT %tuple.413 = (f32[2048]{0}, f32[8192,2048]{1,0}, f32[8192]{0}, f32[2048,8192]{1,0}, f32[2048]{0}, /*index=5*/f32[8192,2048]{1,0}, f32[8192]{0}, f32[2048,8192]{1,0}) tuple(f32[2048]{0} %get-tuple-element.403, f32[8192,2048]{1,0} %get-tuple-element.404, f32[8192]{0} %get-tuple-element.405, f32[2048,8192]{1,0} %get-tuple-element.406, f32[2048]{0} %get-tuple-element.409, /*index=5*/f32[8192,2048]{1,0} %get-tuple-element.410, f32[8192]{0} %get-tuple-element.411, f32[2048,8192]{1,0} %get-tuple-element.412)
[2m[36m(CompileWorker pid=1531229)[0m }
[2m[36m(CompileWorker pid=1531229)[0m 
[2m[36m(CompileWorker pid=1531229)[0m %xla_fallback_pipeline_marker_2.423 (Arg_0.424: f32[2048], Arg_1.425: f32[8192,2048], Arg_2.426: f32[8192], Arg_3.427: f32[2048,8192], Arg_4.428: f32[2048], Arg_5.429: f32[8192,2048], Arg_6.430: f32[8192], Arg_7.431: f32[2048,8192]) -> (f32[2048], f32[8192,2048], f32[8192], f32[2048,8192], f32[2048], /*index=5*/f32[8192,2048], f32[8192], f32[2048,8192]) {
[2m[36m(CompileWorker pid=1531229)[0m   %Arg_0.424 = f32[2048]{0} parameter(0)
[2m[36m(CompileWorker pid=1531229)[0m   %Arg_1.425 = f32[8192,2048]{1,0} parameter(1)
[2m[36m(CompileWorker pid=1531229)[0m   %Arg_2.426 = f32[8192]{0} parameter(2)
[2m[36m(CompileWorker pid=1531229)[0m   %Arg_3.427 = f32[2048,8192]{1,0} parameter(3)
[2m[36m(CompileWorker pid=1531229)[0m   %Arg_4.428 = f32[2048]{0} parameter(4)
[2m[36m(CompileWorker pid=1531229)[0m   %Arg_5.429 = f32[8192,2048]{1,0} parameter(5)
[2m[36m(CompileWorker pid=1531229)[0m   %Arg_6.430 = f32[8192]{0} parameter(6)
[2m[36m(CompileWorker pid=1531229)[0m   %Arg_7.431 = f32[2048,8192]{1,0} parameter(7)
[2m[36m(CompileWorker pid=1531229)[0m   %tuple.432 = (f32[2048]{0}, f32[8192,2048]{1,0}, f32[8192]{0}, f32[2048,8192]{1,0}, f32[2048]{0}, /*index=5*/f32[8192,2048]{1,0}, f32[8192]{0}, f32[2048,8192]{1,0}) tuple(f32[2048]{0} %Arg_0.424, f32[8192,2048]{1,0} %Arg_1.425, f32[8192]{0} %Arg_2.426, f32[2048,8192]{1,0} %Arg_3.427, f32[2048]{0} %Arg_4.428, /*index=5*/f32[8192,2048]{1,0} %Arg_5.429, f32[8192]{0} %Arg_6.430, f32[2048,8192]{1,0} %Arg_7.431), metadata={op_name="tuple.9"}
[2m[36m(CompileWorker pid=1531229)[0m   ROOT %custom-call.433 = (f32[2048]{0}, f32[8192,2048]{1,0}, f32[8192]{0}, f32[2048,8192]{1,0}, f32[2048]{0}, /*index=5*/f32[8192,2048]{1,0}, f32[8192]{0}, f32[2048,8192]{1,0}) custom-call((f32[2048]{0}, f32[8192,2048]{1,0}, f32[8192]{0}, f32[2048,8192]{1,0}, f32[2048]{0}, /*index=5*/f32[8192,2048]{1,0}, f32[8192]{0}, f32[2048,8192]{1,0}) %tuple.432), custom_call_target="pipeline_marker", custom_call_has_side_effect=true, metadata={op_name="stage_0_1_acc_grad_1$end"}, backend_config="\000 \000\000\000\000\000\000\000\000\000\004\000\000\000\000\000\200\000\000\000\000\000\000\000\000\000\004\000\000\000\000\000 \000\000\000\000\000\000\000\000\000\004\000\000\000\000\000\200\000\000\000\000\000\000\000\000\000\004\000\000\000\000"
[2m[36m(CompileWorker pid=1531229)[0m }
[2m[36m(CompileWorker pid=1531229)[0m 
[2m[36m(CompileWorker pid=1531229)[0m %pipeline_marker_2.434 (Arg_0.435: f32[2048], Arg_1.436: f32[8192,2048], Arg_2.437: f32[8192], Arg_3.438: f32[2048,8192], Arg_4.439: f32[2048], Arg_5.440: f32[8192,2048], Arg_6.441: f32[8192], Arg_7.442: f32[2048,8192]) -> (f32[2048], f32[8192,2048], f32[8192], f32[2048,8192], f32[2048], /*index=5*/f32[8192,2048], f32[8192], f32[2048,8192]) {
[2m[36m(CompileWorker pid=1531229)[0m   %Arg_0.435 = f32[2048]{0} parameter(0)
[2m[36m(CompileWorker pid=1531229)[0m   %Arg_1.436 = f32[8192,2048]{1,0} parameter(1)
[2m[36m(CompileWorker pid=1531229)[0m   %Arg_2.437 = f32[8192]{0} parameter(2)
[2m[36m(CompileWorker pid=1531229)[0m   %Arg_3.438 = f32[2048,8192]{1,0} parameter(3)
[2m[36m(CompileWorker pid=1531229)[0m   %Arg_4.439 = f32[2048]{0} parameter(4)
[2m[36m(CompileWorker pid=1531229)[0m   %Arg_5.440 = f32[8192,2048]{1,0} parameter(5)
[2m[36m(CompileWorker pid=1531229)[0m   %Arg_6.441 = f32[8192]{0} parameter(6)
[2m[36m(CompileWorker pid=1531229)[0m   %Arg_7.442 = f32[2048,8192]{1,0} parameter(7)
[2m[36m(CompileWorker pid=1531229)[0m   %call.443 = (f32[2048]{0}, f32[8192,2048]{1,0}, f32[8192]{0}, f32[2048,8192]{1,0}, f32[2048]{0}, /*index=5*/f32[8192,2048]{1,0}, f32[8192]{0}, f32[2048,8192]{1,0}) call(f32[2048]{0} %Arg_0.435, f32[8192,2048]{1,0} %Arg_1.436, f32[8192]{0} %Arg_2.437, f32[2048,8192]{1,0} %Arg_3.438, f32[2048]{0} %Arg_4.439, /*index=5*/f32[8192,2048]{1,0} %Arg_5.440, f32[8192]{0} %Arg_6.441, f32[2048,8192]{1,0} %Arg_7.442), to_apply=%xla_fallback_pipeline_marker_2.423
[2m[36m(CompileWorker pid=1531229)[0m   %get-tuple-element.444 = f32[2048]{0} get-tuple-element((f32[2048]{0}, f32[8192,2048]{1,0}, f32[8192]{0}, f32[2048,8192]{1,0}, f32[2048]{0}, /*index=5*/f32[8192,2048]{1,0}, f32[8192]{0}, f32[2048,8192]{1,0}) %call.443), index=0, metadata={op_name="parallelize(stage_0_1)/jit(main)/pipeline_marker[name=stage_0_1_acc_grad_1 mark_type=end]"}
[2m[36m(CompileWorker pid=1531229)[0m   %get-tuple-element.445 = f32[8192,2048]{1,0} get-tuple-element((f32[2048]{0}, f32[8192,2048]{1,0}, f32[8192]{0}, f32[2048,8192]{1,0}, f32[2048]{0}, /*index=5*/f32[8192,2048]{1,0}, f32[8192]{0}, f32[2048,8192]{1,0}) %call.443), index=1, metadata={op_name="parallelize(stage_0_1)/jit(main)/pipeline_marker[name=stage_0_1_acc_grad_1 mark_type=end]"}
[2m[36m(CompileWorker pid=1531229)[0m   %get-tuple-element.446 = f32[8192]{0} get-tuple-element((f32[2048]{0}, f32[8192,2048]{1,0}, f32[8192]{0}, f32[2048,8192]{1,0}, f32[2048]{0}, /*index=5*/f32[8192,2048]{1,0}, f32[8192]{0}, f32[2048,8192]{1,0}) %call.443), index=2, metadata={op_name="parallelize(stage_0_1)/jit(main)/pipeline_marker[name=stage_0_1_acc_grad_1 mark_type=end]"}
[2m[36m(CompileWorker pid=1531229)[0m   %get-tuple-element.447 = f32[2048,8192]{1,0} get-tuple-element((f32[2048]{0}, f32[8192,2048]{1,0}, f32[8192]{0}, f32[2048,8192]{1,0}, f32[2048]{0}, /*index=5*/f32[8192,2048]{1,0}, f32[8192]{0}, f32[2048,8192]{1,0}) %call.443), index=3, metadata={op_name="parallelize(stage_0_1)/jit(main)/pipeline_marker[name=stage_0_1_acc_grad_1 mark_type=end]"}
[2m[36m(CompileWorker pid=1531229)[0m   %get-tuple-element.448 = f32[2048]{0} get-tuple-element((f32[2048]{0}, f32[8192,2048]{1,0}, f32[8192]{0}, f32[2048,8192]{1,0}, f32[2048]{0}, /*index=5*/f32[8192,2048]{1,0}, f32[8192]{0}, f32[2048,8192]{1,0}) %call.443), index=4, metadata={op_name="parallelize(stage_0_1)/jit(main)/pipeline_marker[name=stage_0_1_acc_grad_1 mark_type=end]"}
[2m[36m(CompileWorker pid=1531229)[0m   %get-tuple-element.449 = f32[8192,2048]{1,0} get-tuple-element((f32[2048]{0}, f32[8192,2048]{1,0}, f32[8192]{0}, f32[2048,8192]{1,0}, f32[2048]{0}, /*index=5*/f32[8192,2048]{1,0}, f32[8192]{0}, f32[2048,8192]{1,0}) %call.443), index=5, metadata={op_name="parallelize(stage_0_1)/jit(main)/pipeline_marker[name=stage_0_1_acc_grad_1 mark_type=end]"}
[2m[36m(CompileWorker pid=1531229)[0m   %get-tuple-element.450 = f32[8192]{0} get-tuple-element((f32[2048]{0}, f32[8192,2048]{1,0}, f32[8192]{0}, f32[2048,8192]{1,0}, f32[2048]{0}, /*index=5*/f32[8192,2048]{1,0}, f32[8192]{0}, f32[2048,8192]{1,0}) %call.443), index=6, metadata={op_name="parallelize(stage_0_1)/jit(main)/pipeline_marker[name=stage_0_1_acc_grad_1 mark_type=end]"}
[2m[36m(CompileWorker pid=1531229)[0m   %get-tuple-element.451 = f32[2048,8192]{1,0} get-tuple-element((f32[2048]{0}, f32[8192,2048]{1,0}, f32[8192]{0}, f32[2048,8192]{1,0}, f32[2048]{0}, /*index=5*/f32[8192,2048]{1,0}, f32[8192]{0}, f32[2048,8192]{1,0}) %call.443), index=7, metadata={op_name="parallelize(stage_0_1)/jit(main)/pipeline_marker[name=stage_0_1_acc_grad_1 mark_type=end]"}
[2m[36m(CompileWorker pid=1531229)[0m   ROOT %tuple.452 = (f32[2048]{0}, f32[8192,2048]{1,0}, f32[8192]{0}, f32[2048,8192]{1,0}, f32[2048]{0}, /*index=5*/f32[8192,2048]{1,0}, f32[8192]{0}, f32[2048,8192]{1,0}) tuple(f32[2048]{0} %get-tuple-element.444, f32[8192,2048]{1,0} %get-tuple-element.445, f32[8192]{0} %get-tuple-element.446, f32[2048,8192]{1,0} %get-tuple-element.447, f32[2048]{0} %get-tuple-element.448, /*index=5*/f32[8192,2048]{1,0} %get-tuple-element.449, f32[8192]{0} %get-tuple-element.450, f32[2048,8192]{1,0} %get-tuple-element.451)
[2m[36m(CompileWorker pid=1531229)[0m }
[2m[36m(CompileWorker pid=1531229)[0m 
[2m[36m(CompileWorker pid=1531229)[0m %xla_fallback_pipeline_marker_3.462 (Arg_0.463: f32[8192], Arg_1.464: f32[2048,8192], Arg_2.465: f32[2048], Arg_3.466: f32[8192,2048], Arg_4.467: f32[8192], Arg_5.468: f32[2048,8192], Arg_6.469: f32[2048], Arg_7.470: f32[8192,2048], Arg_8.471: s32[], Arg_9.472: f32[8192], Arg_10.473: f32[2048,8192], Arg_11.474: f32[2048], Arg_12.475: f32[8192,2048], Arg_13.476: s32[], Arg_14.477: f32[8192], Arg_15.478: f32[2048,8192], Arg_16.479: f32[2048], Arg_17.480: f32[8192,2048], Arg_18.481: f32[8192], Arg_19.482: f32[2048,8192], Arg_20.483: f32[2048], Arg_21.484: f32[8192,2048], Arg_22.485: f32[8192], Arg_23.486: f32[2048,8192], Arg_24.487: f32[2048], Arg_25.488: f32[8192,2048], Arg_26.489: f32[8192], Arg_27.490: f32[2048,8192], Arg_28.491: f32[2048], Arg_29.492: f32[8192,2048], Arg_30.493: f32[8192], Arg_31.494: f32[2048,8192], Arg_32.495: f32[2048], Arg_33.496: f32[8192,2048]) -> (f32[8192], f32[2048,8192], f32[2048], f32[8192,2048], f32[8192], /*index=5*/f32[2048,8192], f32[2048], f32[8192,2048], s32[], f32[8192], /*index=10*/f32[2048,8192], f32[2048], f32[8192,2048], s32[], f32[8192], /*index=15*/f32[2048,8192], f32[2048], f32[8192,2048], f32[8192], f32[2048,8192], /*index=20*/f32[2048], f32[8192,2048], f32[8192], f32[2048,8192], f32[2048], /*index=25*/f32[8192,2048], f32[8192], f32[2048,8192], f32[2048], f32[8192,2048], /*index=30*/f32[8192], f32[2048,8192], f32[2048], f32[8192,2048]) {
[2m[36m(CompileWorker pid=1531229)[0m   %Arg_0.463 = f32[8192]{0} parameter(0)
[2m[36m(CompileWorker pid=1531229)[0m   %Arg_1.464 = f32[2048,8192]{1,0} parameter(1)
[2m[36m(CompileWorker pid=1531229)[0m   %Arg_2.465 = f32[2048]{0} parameter(2)
[2m[36m(CompileWorker pid=1531229)[0m   %Arg_3.466 = f32[8192,2048]{1,0} parameter(3)
[2m[36m(CompileWorker pid=1531229)[0m   %Arg_4.467 = f32[8192]{0} parameter(4)
[2m[36m(CompileWorker pid=1531229)[0m   %Arg_5.468 = f32[2048,8192]{1,0} parameter(5)
[2m[36m(CompileWorker pid=1531229)[0m   %Arg_6.469 = f32[2048]{0} parameter(6)
[2m[36m(CompileWorker pid=1531229)[0m   %Arg_7.470 = f32[8192,2048]{1,0} parameter(7)
[2m[36m(CompileWorker pid=1531229)[0m   %Arg_8.471 = s32[] parameter(8)
[2m[36m(CompileWorker pid=1531229)[0m   %Arg_9.472 = f32[8192]{0} parameter(9)
[2m[36m(CompileWorker pid=1531229)[0m   %Arg_10.473 = f32[2048,8192]{1,0} parameter(10)
[2m[36m(CompileWorker pid=1531229)[0m   %Arg_11.474 = f32[2048]{0} parameter(11)
[2m[36m(CompileWorker pid=1531229)[0m   %Arg_12.475 = f32[8192,2048]{1,0} parameter(12)
[2m[36m(CompileWorker pid=1531229)[0m   %Arg_13.476 = s32[] parameter(13)
[2m[36m(CompileWorker pid=1531229)[0m   %Arg_14.477 = f32[8192]{0} parameter(14)
[2m[36m(CompileWorker pid=1531229)[0m   %Arg_15.478 = f32[2048,8192]{1,0} parameter(15)
[2m[36m(CompileWorker pid=1531229)[0m   %Arg_16.479 = f32[2048]{0} parameter(16)
[2m[36m(CompileWorker pid=1531229)[0m   %Arg_17.480 = f32[8192,2048]{1,0} parameter(17)
[2m[36m(CompileWorker pid=1531229)[0m   %Arg_18.481 = f32[8192]{0} parameter(18)
[2m[36m(CompileWorker pid=1531229)[0m   %Arg_19.482 = f32[2048,8192]{1,0} parameter(19)
[2m[36m(CompileWorker pid=1531229)[0m   %Arg_20.483 = f32[2048]{0} parameter(20)
[2m[36m(CompileWorker pid=1531229)[0m   %Arg_21.484 = f32[8192,2048]{1,0} parameter(21)
[2m[36m(CompileWorker pid=1531229)[0m   %Arg_22.485 = f32[8192]{0} parameter(22)
[2m[36m(CompileWorker pid=1531229)[0m   %Arg_23.486 = f32[2048,8192]{1,0} parameter(23)
[2m[36m(CompileWorker pid=1531229)[0m   %Arg_24.487 = f32[2048]{0} parameter(24)
[2m[36m(CompileWorker pid=1531229)[0m   %Arg_25.488 = f32[8192,2048]{1,0} parameter(25)
[2m[36m(CompileWorker pid=1531229)[0m   %Arg_26.489 = f32[8192]{0} parameter(26)
[2m[36m(CompileWorker pid=1531229)[0m   %Arg_27.490 = f32[2048,8192]{1,0} parameter(27)
[2m[36m(CompileWorker pid=1531229)[0m   %Arg_28.491 = f32[2048]{0} parameter(28)
[2m[36m(CompileWorker pid=1531229)[0m   %Arg_29.492 = f32[8192,2048]{1,0} parameter(29)
[2m[36m(CompileWorker pid=1531229)[0m   %Arg_30.493 = f32[8192]{0} parameter(30)
[2m[36m(CompileWorker pid=1531229)[0m   %Arg_31.494 = f32[2048,8192]{1,0} parameter(31)
[2m[36m(CompileWorker pid=1531229)[0m   %Arg_32.495 = f32[2048]{0} parameter(32)
[2m[36m(CompileWorker pid=1531229)[0m   %Arg_33.496 = f32[8192,2048]{1,0} parameter(33)
[2m[36m(CompileWorker pid=1531229)[0m   %tuple.497 = (f32[8192]{0}, f32[2048,8192]{1,0}, f32[2048]{0}, f32[8192,2048]{1,0}, f32[8192]{0}, /*index=5*/f32[2048,8192]{1,0}, f32[2048]{0}, f32[8192,2048]{1,0}, s32[], f32[8192]{0}, /*index=10*/f32[2048,8192]{1,0}, f32[2048]{0}, f32[8192,2048]{1,0}, s32[], f32[8192]{0}, /*index=15*/f32[2048,8192]{1,0}, f32[2048]{0}, f32[8192,2048]{1,0}, f32[8192]{0}, f32[2048,8192]{1,0}, /*index=20*/f32[2048]{0}, f32[8192,2048]{1,0}, f32[8192]{0}, f32[2048,8192]{1,0}, f32[2048]{0}, /*index=25*/f32[8192,2048]{1,0}, f32[8192]{0}, f32[2048,8192]{1,0}, f32[2048]{0}, f32[8192,2048]{1,0}, /*index=30*/f32[8192]{0}, f32[2048,8192]{1,0}, f32[2048]{0}, f32[8192,2048]{1,0}) tuple(f32[8192]{0} %Arg_0.463, f32[2048,8192]{1,0} %Arg_1.464, f32[2048]{0} %Arg_2.465, f32[8192,2048]{1,0} %Arg_3.466, f32[8192]{0} %Arg_4.467, /*index=5*/f32[2048,8192]{1,0} %Arg_5.468, f32[2048]{0} %Arg_6.469, f32[8192,2048]{1,0} %Arg_7.470, s32[] %Arg_8.471, f32[8192]{0} %Arg_9.472, /*index=10*/f32[2048,8192]{1,0} %Arg_10.473, f32[2048]{0} %Arg_11.474, f32[8192,2048]{1,0} %Arg_12.475, s32[] %Arg_13.476, f32[8192]{0} %Arg_14.477, /*index=15*/f32[2048,8192]{1,0} %Arg_15.478, f32[2048]{0} %Arg_16.479, f32[8192,2048]{1,0} %Arg_17.480, f32[8192]{0} %Arg_18.481, f32[2048,8192]{1,0} %Arg_19.482, /*index=20*/f32[2048]{0} %Arg_20.483, f32[8192,2048]{1,0} %Arg_21.484, f32[8192]{0} %Arg_22.485, f32[2048,8192]{1,0} %Arg_23.486, f32[2048]{0} %Arg_24.487, /*index=25*/f32[8192,2048]{1,0} %Arg_25.488, f32[8192]{0} %Arg_26.489, f32[2048,8192]{1,0} %Arg_27.490, f32[2048]{0} %Arg_28.491, f32[8192,2048]{1,0} %Arg_29.492, /*index=30*/f32[8192]{0} %Arg_30.493, f32[2048,8192]{1,0} %Arg_31.494, f32[2048]{0} %Arg_32.495, f32[8192,2048]{1,0} %Arg_33.496), metadata={op_name="tuple.35"}
[2m[36m(CompileWorker pid=1531229)[0m   ROOT %custom-call.498 = (f32[8192]{0}, f32[2048,8192]{1,0}, f32[2048]{0}, f32[8192,2048]{1,0}, f32[8192]{0}, /*index=5*/f32[2048,8192]{1,0}, f32[2048]{0}, f32[8192,2048]{1,0}, s32[], f32[8192]{0}, /*index=10*/f32[2048,8192]{1,0}, f32[2048]{0}, f32[8192,2048]{1,0}, s32[], f32[8192]{0}, /*index=15*/f32[2048,8192]{1,0}, f32[2048]{0}, f32[8192,2048]{1,0}, f32[8192]{0}, f32[2048,8192]{1,0}, /*index=20*/f32[2048]{0}, f32[8192,2048]{1,0}, f32[8192]{0}, f32[2048,8192]{1,0}, f32[2048]{0}, /*index=25*/f32[8192,2048]{1,0}, f32[8192]{0}, f32[2048,8192]{1,0}, f32[2048]{0}, f32[8192,2048]{1,0}, /*index=30*/f32[8192]{0}, f32[2048,8192]{1,0}, f32[2048]{0}, f32[8192,2048]{1,0}) custom-call((f32[8192]{0}, f32[2048,8192]{1,0}, f32[2048]{0}, f32[8192,2048]{1,0}, f32[8192]{0}, /*index=5*/f32[2048,8192]{1,0}, f32[2048]{0}, f32[8192,2048]{1,0}, s32[], f32[8192]{0}, /*index=10*/f32[2048,8192]{1,0}, f32[2048]{0}, f32[8192,2048]{1,0}, s32[], f32[8192]{0}, /*index=15*/f32[2048,8192]{1,0}, f32[2048]{0}, f32[8192,2048]{1,0}, f32[8192]{0}, f32[2048,8192]{1,0}, /*index=20*/f32[2048]{0}, f32[8192,2048]{1,0}, f32[8192]{0}, f32[2048,8192]{1,0}, f32[2048]{0}, /*index=25*/f32[8192,2048]{1,0}, f32[8192]{0}, f32[2048,8192]{1,0}, f32[2048]{0}, f32[8192,2048]{1,0}, /*index=30*/f32[8192]{0}, f32[2048,8192]{1,0}, f32[2048]{0}, f32[8192,2048]{1,0}) %tuple.497), custom_call_target="pipeline_marker", custom_call_has_side_effect=true, metadata={op_name="stage_0_1_apply_grad$start"}, backend_config="\000\200\000\000\000\000\000\000\000\000\000\004\000\000\000\000\000 \000\000\000\000\000\000\000\000\000\004\000\000\000\000\000\200\000\000\000\000\000\000\000\000\000\004\000\000\000\000\000 \000\000\000\000\000\000\000\000\000\004\000\000\000\000\004\000\000\000\000\000\000\000\000\200\000\000\000\000\000\000\000\000\000\004\000\000\000\000\000 \000\000\000\000\000\000\000\000\000\004\000\000\000\000\004\000\000\000\000\000\000\000\000\200\000\000\000\000\000\000\000\000\000\004\000\000\000\000\000 \000\000\000\000\000\000\000\000\000\004\000\000\000\000\000\200\000\000\000\000\000\000\000\000\000\004\000\000\000\000\000 \000\000\000\000\000\000\000\000\000\004\000\000\000\000\000\200\000\000\000\000\000\000\000\000\000\004\000\000\000\000\000 \000\000\000\000\000\000\000\000\000\004\000\000\000\000\000\200\000\000\000\000\000\000\000\000\000\004\000\000\000\000\000 \000\000\000\000\000\000\000\000\000\004\000\000\000\000\000\200\000\000\000\000\000\000\000\000\000\004\000\000\000\000\000 \000\000\000\000\000\000\000\000\000\004\000\000\000\000"
[2m[36m(CompileWorker pid=1531229)[0m }
[2m[36m(CompileWorker pid=1531229)[0m 
[2m[36m(CompileWorker pid=1531229)[0m %pipeline_marker_3.499 (Arg_0.500: f32[8192], Arg_1.501: f32[2048,8192], Arg_2.502: f32[2048], Arg_3.503: f32[8192,2048], Arg_4.504: f32[8192], Arg_5.505: f32[2048,8192], Arg_6.506: f32[2048], Arg_7.507: f32[8192,2048], Arg_8.508: s32[], Arg_9.509: f32[8192], Arg_10.510: f32[2048,8192], Arg_11.511: f32[2048], Arg_12.512: f32[8192,2048], Arg_13.513: s32[], Arg_14.514: f32[8192], Arg_15.515: f32[2048,8192], Arg_16.516: f32[2048], Arg_17.517: f32[8192,2048], Arg_18.518: f32[8192], Arg_19.519: f32[2048,8192], Arg_20.520: f32[2048], Arg_21.521: f32[8192,2048], Arg_22.522: f32[8192], Arg_23.523: f32[2048,8192], Arg_24.524: f32[2048], Arg_25.525: f32[8192,2048], Arg_26.526: f32[8192], Arg_27.527: f32[2048,8192], Arg_28.528: f32[2048], Arg_29.529: f32[8192,2048], Arg_30.530: f32[8192], Arg_31.531: f32[2048,8192], Arg_32.532: f32[2048], Arg_33.533: f32[8192,2048]) -> (f32[8192], f32[2048,8192], f32[2048], f32[8192,2048], f32[8192], /*index=5*/f32[2048,8192], f32[2048], f32[8192,2048], s32[], f32[8192], /*index=10*/f32[2048,8192], f32[2048], f32[8192,2048], s32[], f32[8192], /*index=15*/f32[2048,8192], f32[2048], f32[8192,2048], f32[8192], f32[2048,8192], /*index=20*/f32[2048], f32[8192,2048], f32[8192], f32[2048,8192], f32[2048], /*index=25*/f32[8192,2048], f32[8192], f32[2048,8192], f32[2048], f32[8192,2048], /*index=30*/f32[8192], f32[2048,8192], f32[2048], f32[8192,2048]) {
[2m[36m(CompileWorker pid=1531229)[0m   %Arg_0.500 = f32[8192]{0} parameter(0)
[2m[36m(CompileWorker pid=1531229)[0m   %Arg_1.501 = f32[2048,8192]{1,0} parameter(1)
[2m[36m(CompileWorker pid=1531229)[0m   %Arg_2.502 = f32[2048]{0} parameter(2)
[2m[36m(CompileWorker pid=1531229)[0m   %Arg_3.503 = f32[8192,2048]{1,0} parameter(3)
[2m[36m(CompileWorker pid=1531229)[0m   %Arg_4.504 = f32[8192]{0} parameter(4)
[2m[36m(CompileWorker pid=1531229)[0m   %Arg_5.505 = f32[2048,8192]{1,0} parameter(5)
[2m[36m(CompileWorker pid=1531229)[0m   %Arg_6.506 = f32[2048]{0} parameter(6)
[2m[36m(CompileWorker pid=1531229)[0m   %Arg_7.507 = f32[8192,2048]{1,0} parameter(7)
[2m[36m(CompileWorker pid=1531229)[0m   %Arg_8.508 = s32[] parameter(8)
[2m[36m(CompileWorker pid=1531229)[0m   %Arg_9.509 = f32[8192]{0} parameter(9)
[2m[36m(CompileWorker pid=1531229)[0m   %Arg_10.510 = f32[2048,8192]{1,0} parameter(10)
[2m[36m(CompileWorker pid=1531229)[0m   %Arg_11.511 = f32[2048]{0} parameter(11)
[2m[36m(CompileWorker pid=1531229)[0m   %Arg_12.512 = f32[8192,2048]{1,0} parameter(12)
[2m[36m(CompileWorker pid=1531229)[0m   %Arg_13.513 = s32[] parameter(13)
[2m[36m(CompileWorker pid=1531229)[0m   %Arg_14.514 = f32[8192]{0} parameter(14)
[2m[36m(CompileWorker pid=1531229)[0m   %Arg_15.515 = f32[2048,8192]{1,0} parameter(15)
[2m[36m(CompileWorker pid=1531229)[0m   %Arg_16.516 = f32[2048]{0} parameter(16)
[2m[36m(CompileWorker pid=1531229)[0m   %Arg_17.517 = f32[8192,2048]{1,0} parameter(17)
[2m[36m(CompileWorker pid=1531229)[0m   %Arg_18.518 = f32[8192]{0} parameter(18)
[2m[36m(CompileWorker pid=1531229)[0m   %Arg_19.519 = f32[2048,8192]{1,0} parameter(19)
[2m[36m(CompileWorker pid=1531229)[0m   %Arg_20.520 = f32[2048]{0} parameter(20)
[2m[36m(CompileWorker pid=1531229)[0m   %Arg_21.521 = f32[8192,2048]{1,0} parameter(21)
[2m[36m(CompileWorker pid=1531229)[0m   %Arg_22.522 = f32[8192]{0} parameter(22)
[2m[36m(CompileWorker pid=1531229)[0m   %Arg_23.523 = f32[2048,8192]{1,0} parameter(23)
[2m[36m(CompileWorker pid=1531229)[0m   %Arg_24.524 = f32[2048]{0} parameter(24)
[2m[36m(CompileWorker pid=1531229)[0m   %Arg_25.525 = f32[8192,2048]{1,0} parameter(25)
[2m[36m(CompileWorker pid=1531229)[0m   %Arg_26.526 = f32[8192]{0} parameter(26)
[2m[36m(CompileWorker pid=1531229)[0m   %Arg_27.527 = f32[2048,8192]{1,0} parameter(27)
[2m[36m(CompileWorker pid=1531229)[0m   %Arg_28.528 = f32[2048]{0} parameter(28)
[2m[36m(CompileWorker pid=1531229)[0m   %Arg_29.529 = f32[8192,2048]{1,0} parameter(29)
[2m[36m(CompileWorker pid=1531229)[0m   %Arg_30.530 = f32[8192]{0} parameter(30)
[2m[36m(CompileWorker pid=1531229)[0m   %Arg_31.531 = f32[2048,8192]{1,0} parameter(31)
[2m[36m(CompileWorker pid=1531229)[0m   %Arg_32.532 = f32[2048]{0} parameter(32)
[2m[36m(CompileWorker pid=1531229)[0m   %Arg_33.533 = f32[8192,2048]{1,0} parameter(33)
[2m[36m(CompileWorker pid=1531229)[0m   %call.534 = (f32[8192]{0}, f32[2048,8192]{1,0}, f32[2048]{0}, f32[8192,2048]{1,0}, f32[8192]{0}, /*index=5*/f32[2048,8192]{1,0}, f32[2048]{0}, f32[8192,2048]{1,0}, s32[], f32[8192]{0}, /*index=10*/f32[2048,8192]{1,0}, f32[2048]{0}, f32[8192,2048]{1,0}, s32[], f32[8192]{0}, /*index=15*/f32[2048,8192]{1,0}, f32[2048]{0}, f32[8192,2048]{1,0}, f32[8192]{0}, f32[2048,8192]{1,0}, /*index=20*/f32[2048]{0}, f32[8192,2048]{1,0}, f32[8192]{0}, f32[2048,8192]{1,0}, f32[2048]{0}, /*index=25*/f32[8192,2048]{1,0}, f32[8192]{0}, f32[2048,8192]{1,0}, f32[2048]{0}, f32[8192,2048]{1,0}, /*index=30*/f32[8192]{0}, f32[2048,8192]{1,0}, f32[2048]{0}, f32[8192,2048]{1,0}) call(f32[8192]{0} %Arg_0.500, f32[2048,8192]{1,0} %Arg_1.501, f32[2048]{0} %Arg_2.502, f32[8192,2048]{1,0} %Arg_3.503, f32[8192]{0} %Arg_4.504, /*index=5*/f32[2048,8192]{1,0} %Arg_5.505, f32[2048]{0} %Arg_6.506, f32[8192,2048]{1,0} %Arg_7.507, s32[] %Arg_8.508, f32[8192]{0} %Arg_9.509, /*index=10*/f32[2048,8192]{1,0} %Arg_10.510, f32[2048]{0} %Arg_11.511, f32[8192,2048]{1,0} %Arg_12.512, s32[] %Arg_13.513, f32[8192]{0} %Arg_14.514, /*index=15*/f32[2048,8192]{1,0} %Arg_15.515, f32[2048]{0} %Arg_16.516, f32[8192,2048]{1,0} %Arg_17.517, f32[8192]{0} %Arg_18.518, f32[2048,8192]{1,0} %Arg_19.519, /*index=20*/f32[2048]{0} %Arg_20.520, f32[8192,2048]{1,0} %Arg_21.521, f32[8192]{0} %Arg_22.522, f32[2048,8192]{1,0} %Arg_23.523, f32[2048]{0} %Arg_24.524, /*index=25*/f32[8192,2048]{1,0} %Arg_25.525, f32[8192]{0} %Arg_26.526, f32[2048,8192]{1,0} %Arg_27.527, f32[2048]{0} %Arg_28.528, f32[8192,2048]{1,0} %Arg_29.529, /*index=30*/f32[8192]{0} %Arg_30.530, f32[2048,8192]{1,0} %Arg_31.531, f32[2048]{0} %Arg_32.532, f32[8192,2048]{1,0} %Arg_33.533), to_apply=%xla_fallback_pipeline_marker_3.462
[2m[36m(CompileWorker pid=1531229)[0m   %get-tuple-element.535 = f32[8192]{0} get-tuple-element((f32[8192]{0}, f32[2048,8192]{1,0}, f32[2048]{0}, f32[8192,2048]{1,0}, f32[8192]{0}, /*index=5*/f32[2048,8192]{1,0}, f32[2048]{0}, f32[8192,2048]{1,0}, s32[], f32[8192]{0}, /*index=10*/f32[2048,8192]{1,0}, f32[2048]{0}, f32[8192,2048]{1,0}, s32[], f32[8192]{0}, /*index=15*/f32[2048,8192]{1,0}, f32[2048]{0}, f32[8192,2048]{1,0}, f32[8192]{0}, f32[2048,8192]{1,0}, /*index=20*/f32[2048]{0}, f32[8192,2048]{1,0}, f32[8192]{0}, f32[2048,8192]{1,0}, f32[2048]{0}, /*index=25*/f32[8192,2048]{1,0}, f32[8192]{0}, f32[2048,8192]{1,0}, f32[2048]{0}, f32[8192,2048]{1,0}, /*index=30*/f32[8192]{0}, f32[2048,8192]{1,0}, f32[2048]{0}, f32[8192,2048]{1,0}) %call.534), index=0, metadata={op_name="parallelize(stage_0_1)/jit(main)/pipeline_marker[name=stage_0_1_apply_grad mark_type=start]"}
[2m[36m(CompileWorker pid=1531229)[0m   %get-tuple-element.536 = f32[2048,8192]{1,0} get-tuple-element((f32[8192]{0}, f32[2048,8192]{1,0}, f32[2048]{0}, f32[8192,2048]{1,0}, f32[8192]{0}, /*index=5*/f32[2048,8192]{1,0}, f32[2048]{0}, f32[8192,2048]{1,0}, s32[], f32[8192]{0}, /*index=10*/f32[2048,8192]{1,0}, f32[2048]{0}, f32[8192,2048]{1,0}, s32[], f32[8192]{0}, /*index=15*/f32[2048,8192]{1,0}, f32[2048]{0}, f32[8192,2048]{1,0}, f32[8192]{0}, f32[2048,8192]{1,0}, /*index=20*/f32[2048]{0}, f32[8192,2048]{1,0}, f32[8192]{0}, f32[2048,8192]{1,0}, f32[2048]{0}, /*index=25*/f32[8192,2048]{1,0}, f32[8192]{0}, f32[2048,8192]{1,0}, f32[2048]{0}, f32[8192,2048]{1,0}, /*index=30*/f32[8192]{0}, f32[2048,8192]{1,0}, f32[2048]{0}, f32[8192,2048]{1,0}) %call.534), index=1, metadata={op_name="parallelize(stage_0_1)/jit(main)/pipeline_marker[name=stage_0_1_apply_grad mark_type=start]"}
[2m[36m(CompileWorker pid=1531229)[0m   %get-tuple-element.537 = f32[2048]{0} get-tuple-element((f32[8192]{0}, f32[2048,8192]{1,0}, f32[2048]{0}, f32[8192,2048]{1,0}, f32[8192]{0}, /*index=5*/f32[2048,8192]{1,0}, f32[2048]{0}, f32[8192,2048]{1,0}, s32[], f32[8192]{0}, /*index=10*/f32[2048,8192]{1,0}, f32[2048]{0}, f32[8192,2048]{1,0}, s32[], f32[8192]{0}, /*index=15*/f32[2048,8192]{1,0}, f32[2048]{0}, f32[8192,2048]{1,0}, f32[8192]{0}, f32[2048,8192]{1,0}, /*index=20*/f32[2048]{0}, f32[8192,2048]{1,0}, f32[8192]{0}, f32[2048,8192]{1,0}, f32[2048]{0}, /*index=25*/f32[8192,2048]{1,0}, f32[8192]{0}, f32[2048,8192]{1,0}, f32[2048]{0}, f32[8192,2048]{1,0}, /*index=30*/f32[8192]{0}, f32[2048,8192]{1,0}, f32[2048]{0}, f32[8192,2048]{1,0}) %call.534), index=2, metadata={op_name="parallelize(stage_0_1)/jit(main)/pipeline_marker[name=stage_0_1_apply_grad mark_type=start]"}
[2m[36m(CompileWorker pid=1531229)[0m   %get-tuple-element.538 = f32[8192,2048]{1,0} get-tuple-element((f32[8192]{0}, f32[2048,8192]{1,0}, f32[2048]{0}, f32[8192,2048]{1,0}, f32[8192]{0}, /*index=5*/f32[2048,8192]{1,0}, f32[2048]{0}, f32[8192,2048]{1,0}, s32[], f32[8192]{0}, /*index=10*/f32[2048,8192]{1,0}, f32[2048]{0}, f32[8192,2048]{1,0}, s32[], f32[8192]{0}, /*index=15*/f32[2048,8192]{1,0}, f32[2048]{0}, f32[8192,2048]{1,0}, f32[8192]{0}, f32[2048,8192]{1,0}, /*index=20*/f32[2048]{0}, f32[8192,2048]{1,0}, f32[8192]{0}, f32[2048,8192]{1,0}, f32[2048]{0}, /*index=25*/f32[8192,2048]{1,0}, f32[8192]{0}, f32[2048,8192]{1,0}, f32[2048]{0}, f32[8192,2048]{1,0}, /*index=30*/f32[8192]{0}, f32[2048,8192]{1,0}, f32[2048]{0}, f32[8192,2048]{1,0}) %call.534), index=3, metadata={op_name="parallelize(stage_0_1)/jit(main)/pipeline_marker[name=stage_0_1_apply_grad mark_type=start]"}
[2m[36m(CompileWorker pid=1531229)[0m   %get-tuple-element.539 = f32[8192]{0} get-tuple-element((f32[8192]{0}, f32[2048,8192]{1,0}, f32[2048]{0}, f32[8192,2048]{1,0}, f32[8192]{0}, /*index=5*/f32[2048,8192]{1,0}, f32[2048]{0}, f32[8192,2048]{1,0}, s32[], f32[8192]{0}, /*index=10*/f32[2048,8192]{1,0}, f32[2048]{0}, f32[8192,2048]{1,0}, s32[], f32[8192]{0}, /*index=15*/f32[2048,8192]{1,0}, f32[2048]{0}, f32[8192,2048]{1,0}, f32[8192]{0}, f32[2048,8192]{1,0}, /*index=20*/f32[2048]{0}, f32[8192,2048]{1,0}, f32[8192]{0}, f32[2048,8192]{1,0}, f32[2048]{0}, /*index=25*/f32[8192,2048]{1,0}, f32[8192]{0}, f32[2048,8192]{1,0}, f32[2048]{0}, f32[8192,2048]{1,0}, /*index=30*/f32[8192]{0}, f32[2048,8192]{1,0}, f32[2048]{0}, f32[8192,2048]{1,0}) %call.534), index=4, metadata={op_name="parallelize(stage_0_1)/jit(main)/pipeline_marker[name=stage_0_1_apply_grad mark_type=start]"}
[2m[36m(CompileWorker pid=1531229)[0m   %get-tuple-element.540 = f32[2048,8192]{1,0} get-tuple-element((f32[8192]{0}, f32[2048,8192]{1,0}, f32[2048]{0}, f32[8192,2048]{1,0}, f32[8192]{0}, /*index=5*/f32[2048,8192]{1,0}, f32[2048]{0}, f32[8192,2048]{1,0}, s32[], f32[8192]{0}, /*index=10*/f32[2048,8192]{1,0}, f32[2048]{0}, f32[8192,2048]{1,0}, s32[], f32[8192]{0}, /*index=15*/f32[2048,8192]{1,0}, f32[2048]{0}, f32[8192,2048]{1,0}, f32[8192]{0}, f32[2048,8192]{1,0}, /*index=20*/f32[2048]{0}, f32[8192,2048]{1,0}, f32[8192]{0}, f32[2048,8192]{1,0}, f32[2048]{0}, /*index=25*/f32[8192,2048]{1,0}, f32[8192]{0}, f32[2048,8192]{1,0}, f32[2048]{0}, f32[8192,2048]{1,0}, /*index=30*/f32[8192]{0}, f32[2048,8192]{1,0}, f32[2048]{0}, f32[8192,2048]{1,0}) %call.534), index=5, metadata={op_name="parallelize(stage_0_1)/jit(main)/pipeline_marker[name=stage_0_1_apply_grad mark_type=start]"}
[2m[36m(CompileWorker pid=1531229)[0m   %get-tuple-element.541 = f32[2048]{0} get-tuple-element((f32[8192]{0}, f32[2048,8192]{1,0}, f32[2048]{0}, f32[8192,2048]{1,0}, f32[8192]{0}, /*index=5*/f32[2048,8192]{1,0}, f32[2048]{0}, f32[8192,2048]{1,0}, s32[], f32[8192]{0}, /*index=10*/f32[2048,8192]{1,0}, f32[2048]{0}, f32[8192,2048]{1,0}, s32[], f32[8192]{0}, /*index=15*/f32[2048,8192]{1,0}, f32[2048]{0}, f32[8192,2048]{1,0}, f32[8192]{0}, f32[2048,8192]{1,0}, /*index=20*/f32[2048]{0}, f32[8192,2048]{1,0}, f32[8192]{0}, f32[2048,8192]{1,0}, f32[2048]{0}, /*index=25*/f32[8192,2048]{1,0}, f32[8192]{0}, f32[2048,8192]{1,0}, f32[2048]{0}, f32[8192,2048]{1,0}, /*index=30*/f32[8192]{0}, f32[2048,8192]{1,0}, f32[2048]{0}, f32[8192,2048]{1,0}) %call.534), index=6, metadata={op_name="parallelize(stage_0_1)/jit(main)/pipeline_marker[name=stage_0_1_apply_grad mark_type=start]"}
[2m[36m(CompileWorker pid=1531229)[0m   %get-tuple-element.542 = f32[8192,2048]{1,0} get-tuple-element((f32[8192]{0}, f32[2048,8192]{1,0}, f32[2048]{0}, f32[8192,2048]{1,0}, f32[8192]{0}, /*index=5*/f32[2048,8192]{1,0}, f32[2048]{0}, f32[8192,2048]{1,0}, s32[], f32[8192]{0}, /*index=10*/f32[2048,8192]{1,0}, f32[2048]{0}, f32[8192,2048]{1,0}, s32[], f32[8192]{0}, /*index=15*/f32[2048,8192]{1,0}, f32[2048]{0}, f32[8192,2048]{1,0}, f32[8192]{0}, f32[2048,8192]{1,0}, /*index=20*/f32[2048]{0}, f32[8192,2048]{1,0}, f32[8192]{0}, f32[2048,8192]{1,0}, f32[2048]{0}, /*index=25*/f32[8192,2048]{1,0}, f32[8192]{0}, f32[2048,8192]{1,0}, f32[2048]{0}, f32[8192,2048]{1,0}, /*index=30*/f32[8192]{0}, f32[2048,8192]{1,0}, f32[2048]{0}, f32[8192,2048]{1,0}) %call.534), index=7, metadata={op_name="parallelize(stage_0_1)/jit(main)/pipeline_marker[name=stage_0_1_apply_grad mark_type=start]"}
[2m[36m(CompileWorker pid=1531229)[0m   %get-tuple-element.543 = s32[] get-tuple-element((f32[8192]{0}, f32[2048,8192]{1,0}, f32[2048]{0}, f32[8192,2048]{1,0}, f32[8192]{0}, /*index=5*/f32[2048,8192]{1,0}, f32[2048]{0}, f32[8192,2048]{1,0}, s32[], f32[8192]{0}, /*index=10*/f32[2048,8192]{1,0}, f32[2048]{0}, f32[8192,2048]{1,0}, s32[], f32[8192]{0}, /*index=15*/f32[2048,8192]{1,0}, f32[2048]{0}, f32[8192,2048]{1,0}, f32[8192]{0}, f32[2048,8192]{1,0}, /*index=20*/f32[2048]{0}, f32[8192,2048]{1,0}, f32[8192]{0}, f32[2048,8192]{1,0}, f32[2048]{0}, /*index=25*/f32[8192,2048]{1,0}, f32[8192]{0}, f32[2048,8192]{1,0}, f32[2048]{0}, f32[8192,2048]{1,0}, /*index=30*/f32[8192]{0}, f32[2048,8192]{1,0}, f32[2048]{0}, f32[8192,2048]{1,0}) %call.534), index=8, metadata={op_name="parallelize(stage_0_1)/jit(main)/pipeline_marker[name=stage_0_1_apply_grad mark_type=start]"}
[2m[36m(CompileWorker pid=1531229)[0m   %get-tuple-element.544 = f32[8192]{0} get-tuple-element((f32[8192]{0}, f32[2048,8192]{1,0}, f32[2048]{0}, f32[8192,2048]{1,0}, f32[8192]{0}, /*index=5*/f32[2048,8192]{1,0}, f32[2048]{0}, f32[8192,2048]{1,0}, s32[], f32[8192]{0}, /*index=10*/f32[2048,8192]{1,0}, f32[2048]{0}, f32[8192,2048]{1,0}, s32[], f32[8192]{0}, /*index=15*/f32[2048,8192]{1,0}, f32[2048]{0}, f32[8192,2048]{1,0}, f32[8192]{0}, f32[2048,8192]{1,0}, /*index=20*/f32[2048]{0}, f32[8192,2048]{1,0}, f32[8192]{0}, f32[2048,8192]{1,0}, f32[2048]{0}, /*index=25*/f32[8192,2048]{1,0}, f32[8192]{0}, f32[2048,8192]{1,0}, f32[2048]{0}, f32[8192,2048]{1,0}, /*index=30*/f32[8192]{0}, f32[2048,8192]{1,0}, f32[2048]{0}, f32[8192,2048]{1,0}) %call.534), index=9, metadata={op_name="parallelize(stage_0_1)/jit(main)/pipeline_marker[name=stage_0_1_apply_grad mark_type=start]"}
[2m[36m(CompileWorker pid=1531229)[0m   %get-tuple-element.545 = f32[2048,8192]{1,0} get-tuple-element((f32[8192]{0}, f32[2048,8192]{1,0}, f32[2048]{0}, f32[8192,2048]{1,0}, f32[8192]{0}, /*index=5*/f32[2048,8192]{1,0}, f32[2048]{0}, f32[8192,2048]{1,0}, s32[], f32[8192]{0}, /*index=10*/f32[2048,8192]{1,0}, f32[2048]{0}, f32[8192,2048]{1,0}, s32[], f32[8192]{0}, /*index=15*/f32[2048,8192]{1,0}, f32[2048]{0}, f32[8192,2048]{1,0}, f32[8192]{0}, f32[2048,8192]{1,0}, /*index=20*/f32[2048]{0}, f32[8192,2048]{1,0}, f32[8192]{0}, f32[2048,8192]{1,0}, f32[2048]{0}, /*index=25*/f32[8192,2048]{1,0}, f32[8192]{0}, f32[2048,8192]{1,0}, f32[2048]{0}, f32[8192,2048]{1,0}, /*index=30*/f32[8192]{0}, f32[2048,8192]{1,0}, f32[2048]{0}, f32[8192,2048]{1,0}) %call.534), index=10, metadata={op_name="parallelize(stage_0_1)/jit(main)/pipeline_marker[name=stage_0_1_apply_grad mark_type=start]"}
[2m[36m(CompileWorker pid=1531229)[0m   %get-tuple-element.546 = f32[2048]{0} get-tuple-element((f32[8192]{0}, f32[2048,8192]{1,0}, f32[2048]{0}, f32[8192,2048]{1,0}, f32[8192]{0}, /*index=5*/f32[2048,8192]{1,0}, f32[2048]{0}, f32[8192,2048]{1,0}, s32[], f32[8192]{0}, /*index=10*/f32[2048,8192]{1,0}, f32[2048]{0}, f32[8192,2048]{1,0}, s32[], f32[8192]{0}, /*index=15*/f32[2048,8192]{1,0}, f32[2048]{0}, f32[8192,2048]{1,0}, f32[8192]{0}, f32[2048,8192]{1,0}, /*index=20*/f32[2048]{0}, f32[8192,2048]{1,0}, f32[8192]{0}, f32[2048,8192]{1,0}, f32[2048]{0}, /*index=25*/f32[8192,2048]{1,0}, f32[8192]{0}, f32[2048,8192]{1,0}, f32[2048]{0}, f32[8192,2048]{1,0}, /*index=30*/f32[8192]{0}, f32[2048,8192]{1,0}, f32[2048]{0}, f32[8192,2048]{1,0}) %call.534), index=11, metadata={op_name="parallelize(stage_0_1)/jit(main)/pipeline_marker[name=stage_0_1_apply_grad mark_type=start]"}
[2m[36m(CompileWorker pid=1531229)[0m   %get-tuple-element.547 = f32[8192,2048]{1,0} get-tuple-element((f32[8192]{0}, f32[2048,8192]{1,0}, f32[2048]{0}, f32[8192,2048]{1,0}, f32[8192]{0}, /*index=5*/f32[2048,8192]{1,0}, f32[2048]{0}, f32[8192,2048]{1,0}, s32[], f32[8192]{0}, /*index=10*/f32[2048,8192]{1,0}, f32[2048]{0}, f32[8192,2048]{1,0}, s32[], f32[8192]{0}, /*index=15*/f32[2048,8192]{1,0}, f32[2048]{0}, f32[8192,2048]{1,0}, f32[8192]{0}, f32[2048,8192]{1,0}, /*index=20*/f32[2048]{0}, f32[8192,2048]{1,0}, f32[8192]{0}, f32[2048,8192]{1,0}, f32[2048]{0}, /*index=25*/f32[8192,2048]{1,0}, f32[8192]{0}, f32[2048,8192]{1,0}, f32[2048]{0}, f32[8192,2048]{1,0}, /*index=30*/f32[8192]{0}, f32[2048,8192]{1,0}, f32[2048]{0}, f32[8192,2048]{1,0}) %call.534), index=12, metadata={op_name="parallelize(stage_0_1)/jit(main)/pipeline_marker[name=stage_0_1_apply_grad mark_type=start]"}
[2m[36m(CompileWorker pid=1531229)[0m   %get-tuple-element.548 = s32[] get-tuple-element((f32[8192]{0}, f32[2048,8192]{1,0}, f32[2048]{0}, f32[8192,2048]{1,0}, f32[8192]{0}, /*index=5*/f32[2048,8192]{1,0}, f32[2048]{0}, f32[8192,2048]{1,0}, s32[], f32[8192]{0}, /*index=10*/f32[2048,8192]{1,0}, f32[2048]{0}, f32[8192,2048]{1,0}, s32[], f32[8192]{0}, /*index=15*/f32[2048,8192]{1,0}, f32[2048]{0}, f32[8192,2048]{1,0}, f32[8192]{0}, f32[2048,8192]{1,0}, /*index=20*/f32[2048]{0}, f32[8192,2048]{1,0}, f32[8192]{0}, f32[2048,8192]{1,0}, f32[2048]{0}, /*index=25*/f32[8192,2048]{1,0}, f32[8192]{0}, f32[2048,8192]{1,0}, f32[2048]{0}, f32[8192,2048]{1,0}, /*index=30*/f32[8192]{0}, f32[2048,8192]{1,0}, f32[2048]{0}, f32[8192,2048]{1,0}) %call.534), index=13, metadata={op_name="parallelize(stage_0_1)/jit(main)/pipeline_marker[name=stage_0_1_apply_grad mark_type=start]"}
[2m[36m(CompileWorker pid=1531229)[0m   %get-tuple-element.549 = f32[8192]{0} get-tuple-element((f32[8192]{0}, f32[2048,8192]{1,0}, f32[2048]{0}, f32[8192,2048]{1,0}, f32[8192]{0}, /*index=5*/f32[2048,8192]{1,0}, f32[2048]{0}, f32[8192,2048]{1,0}, s32[], f32[8192]{0}, /*index=10*/f32[2048,8192]{1,0}, f32[2048]{0}, f32[8192,2048]{1,0}, s32[], f32[8192]{0}, /*index=15*/f32[2048,8192]{1,0}, f32[2048]{0}, f32[8192,2048]{1,0}, f32[8192]{0}, f32[2048,8192]{1,0}, /*index=20*/f32[2048]{0}, f32[8192,2048]{1,0}, f32[8192]{0}, f32[2048,8192]{1,0}, f32[2048]{0}, /*index=25*/f32[8192,2048]{1,0}, f32[8192]{0}, f32[2048,8192]{1,0}, f32[2048]{0}, f32[8192,2048]{1,0}, /*index=30*/f32[8192]{0}, f32[2048,8192]{1,0}, f32[2048]{0}, f32[8192,2048]{1,0}) %call.534), index=14, metadata={op_name="parallelize(stage_0_1)/jit(main)/pipeline_marker[name=stage_0_1_apply_grad mark_type=start]"}
[2m[36m(CompileWorker pid=1531229)[0m   %get-tuple-element.550 = f32[2048,8192]{1,0} get-tuple-element((f32[8192]{0}, f32[2048,8192]{1,0}, f32[2048]{0}, f32[8192,2048]{1,0}, f32[8192]{0}, /*index=5*/f32[2048,8192]{1,0}, f32[2048]{0}, f32[8192,2048]{1,0}, s32[], f32[8192]{0}, /*index=10*/f32[2048,8192]{1,0}, f32[2048]{0}, f32[8192,2048]{1,0}, s32[], f32[8192]{0}, /*index=15*/f32[2048,8192]{1,0}, f32[2048]{0}, f32[8192,2048]{1,0}, f32[8192]{0}, f32[2048,8192]{1,0}, /*index=20*/f32[2048]{0}, f32[8192,2048]{1,0}, f32[8192]{0}, f32[2048,8192]{1,0}, f32[2048]{0}, /*index=25*/f32[8192,2048]{1,0}, f32[8192]{0}, f32[2048,8192]{1,0}, f32[2048]{0}, f32[8192,2048]{1,0}, /*index=30*/f32[8192]{0}, f32[2048,8192]{1,0}, f32[2048]{0}, f32[8192,2048]{1,0}) %call.534), index=15, metadata={op_name="parallelize(stage_0_1)/jit(main)/pipeline_marker[name=stage_0_1_apply_grad mark_type=start]"}
[2m[36m(CompileWorker pid=1531229)[0m   %get-tuple-element.551 = f32[2048]{0} get-tuple-element((f32[8192]{0}, f32[2048,8192]{1,0}, f32[2048]{0}, f32[8192,2048]{1,0}, f32[8192]{0}, /*index=5*/f32[2048,8192]{1,0}, f32[2048]{0}, f32[8192,2048]{1,0}, s32[], f32[8192]{0}, /*index=10*/f32[2048,8192]{1,0}, f32[2048]{0}, f32[8192,2048]{1,0}, s32[], f32[8192]{0}, /*index=15*/f32[2048,8192]{1,0}, f32[2048]{0}, f32[8192,2048]{1,0}, f32[8192]{0}, f32[2048,8192]{1,0}, /*index=20*/f32[2048]{0}, f32[8192,2048]{1,0}, f32[8192]{0}, f32[2048,8192]{1,0}, f32[2048]{0}, /*index=25*/f32[8192,2048]{1,0}, f32[8192]{0}, f32[2048,8192]{1,0}, f32[2048]{0}, f32[8192,2048]{1,0}, /*index=30*/f32[8192]{0}, f32[2048,8192]{1,0}, f32[2048]{0}, f32[8192,2048]{1,0}) %call.534), index=16, metadata={op_name="parallelize(stage_0_1)/jit(main)/pipeline_marker[name=stage_0_1_apply_grad mark_type=start]"}
[2m[36m(CompileWorker pid=1531229)[0m   %get-tuple-element.552 = f32[8192,2048]{1,0} get-tuple-element((f32[8192]{0}, f32[2048,8192]{1,0}, f32[2048]{0}, f32[8192,2048]{1,0}, f32[8192]{0}, /*index=5*/f32[2048,8192]{1,0}, f32[2048]{0}, f32[8192,2048]{1,0}, s32[], f32[8192]{0}, /*index=10*/f32[2048,8192]{1,0}, f32[2048]{0}, f32[8192,2048]{1,0}, s32[], f32[8192]{0}, /*index=15*/f32[2048,8192]{1,0}, f32[2048]{0}, f32[8192,2048]{1,0}, f32[8192]{0}, f32[2048,8192]{1,0}, /*index=20*/f32[2048]{0}, f32[8192,2048]{1,0}, f32[8192]{0}, f32[2048,8192]{1,0}, f32[2048]{0}, /*index=25*/f32[8192,2048]{1,0}, f32[8192]{0}, f32[2048,8192]{1,0}, f32[2048]{0}, f32[8192,2048]{1,0}, /*index=30*/f32[8192]{0}, f32[2048,8192]{1,0}, f32[2048]{0}, f32[8192,2048]{1,0}) %call.534), index=17, metadata={op_name="parallelize(stage_0_1)/jit(main)/pipeline_marker[name=stage_0_1_apply_grad mark_type=start]"}
[2m[36m(CompileWorker pid=1531229)[0m   %get-tuple-element.553 = f32[8192]{0} get-tuple-element((f32[8192]{0}, f32[2048,8192]{1,0}, f32[2048]{0}, f32[8192,2048]{1,0}, f32[8192]{0}, /*index=5*/f32[2048,8192]{1,0}, f32[2048]{0}, f32[8192,2048]{1,0}, s32[], f32[8192]{0}, /*index=10*/f32[2048,8192]{1,0}, f32[2048]{0}, f32[8192,2048]{1,0}, s32[], f32[8192]{0}, /*index=15*/f32[2048,8192]{1,0}, f32[2048]{0}, f32[8192,2048]{1,0}, f32[8192]{0}, f32[2048,8192]{1,0}, /*index=20*/f32[2048]{0}, f32[8192,2048]{1,0}, f32[8192]{0}, f32[2048,8192]{1,0}, f32[2048]{0}, /*index=25*/f32[8192,2048]{1,0}, f32[8192]{0}, f32[2048,8192]{1,0}, f32[2048]{0}, f32[8192,2048]{1,0}, /*index=30*/f32[8192]{0}, f32[2048,8192]{1,0}, f32[2048]{0}, f32[8192,2048]{1,0}) %call.534), index=18, metadata={op_name="parallelize(stage_0_1)/jit(main)/pipeline_marker[name=stage_0_1_apply_grad mark_type=start]"}
[2m[36m(CompileWorker pid=1531229)[0m   %get-tuple-element.554 = f32[2048,8192]{1,0} get-tuple-element((f32[8192]{0}, f32[2048,8192]{1,0}, f32[2048]{0}, f32[8192,2048]{1,0}, f32[8192]{0}, /*index=5*/f32[2048,8192]{1,0}, f32[2048]{0}, f32[8192,2048]{1,0}, s32[], f32[8192]{0}, /*index=10*/f32[2048,8192]{1,0}, f32[2048]{0}, f32[8192,2048]{1,0}, s32[], f32[8192]{0}, /*index=15*/f32[2048,8192]{1,0}, f32[2048]{0}, f32[8192,2048]{1,0}, f32[8192]{0}, f32[2048,8192]{1,0}, /*index=20*/f32[2048]{0}, f32[8192,2048]{1,0}, f32[8192]{0}, f32[2048,8192]{1,0}, f32[2048]{0}, /*index=25*/f32[8192,2048]{1,0}, f32[8192]{0}, f32[2048,8192]{1,0}, f32[2048]{0}, f32[8192,2048]{1,0}, /*index=30*/f32[8192]{0}, f32[2048,8192]{1,0}, f32[2048]{0}, f32[8192,2048]{1,0}) %call.534), index=19, metadata={op_name="parallelize(stage_0_1)/jit(main)/pipeline_marker[name=stage_0_1_apply_grad mark_type=start]"}
[2m[36m(CompileWorker pid=1531229)[0m   %get-tuple-element.555 = f32[2048]{0} get-tuple-element((f32[8192]{0}, f32[2048,8192]{1,0}, f32[2048]{0}, f32[8192,2048]{1,0}, f32[8192]{0}, /*index=5*/f32[2048,8192]{1,0}, f32[2048]{0}, f32[8192,2048]{1,0}, s32[], f32[8192]{0}, /*index=10*/f32[2048,8192]{1,0}, f32[2048]{0}, f32[8192,2048]{1,0}, s32[], f32[8192]{0}, /*index=15*/f32[2048,8192]{1,0}, f32[2048]{0}, f32[8192,2048]{1,0}, f32[8192]{0}, f32[2048,8192]{1,0}, /*index=20*/f32[2048]{0}, f32[8192,2048]{1,0}, f32[8192]{0}, f32[2048,8192]{1,0}, f32[2048]{0}, /*index=25*/f32[8192,2048]{1,0}, f32[8192]{0}, f32[2048,8192]{1,0}, f32[2048]{0}, f32[8192,2048]{1,0}, /*index=30*/f32[8192]{0}, f32[2048,8192]{1,0}, f32[2048]{0}, f32[8192,2048]{1,0}) %call.534), index=20, metadata={op_name="parallelize(stage_0_1)/jit(main)/pipeline_marker[name=stage_0_1_apply_grad mark_type=start]"}
[2m[36m(CompileWorker pid=1531229)[0m   %get-tuple-element.556 = f32[8192,2048]{1,0} get-tuple-element((f32[8192]{0}, f32[2048,8192]{1,0}, f32[2048]{0}, f32[8192,2048]{1,0}, f32[8192]{0}, /*index=5*/f32[2048,8192]{1,0}, f32[2048]{0}, f32[8192,2048]{1,0}, s32[], f32[8192]{0}, /*index=10*/f32[2048,8192]{1,0}, f32[2048]{0}, f32[8192,2048]{1,0}, s32[], f32[8192]{0}, /*index=15*/f32[2048,8192]{1,0}, f32[2048]{0}, f32[8192,2048]{1,0}, f32[8192]{0}, f32[2048,8192]{1,0}, /*index=20*/f32[2048]{0}, f32[8192,2048]{1,0}, f32[8192]{0}, f32[2048,8192]{1,0}, f32[2048]{0}, /*index=25*/f32[8192,2048]{1,0}, f32[8192]{0}, f32[2048,8192]{1,0}, f32[2048]{0}, f32[8192,2048]{1,0}, /*index=30*/f32[8192]{0}, f32[2048,8192]{1,0}, f32[2048]{0}, f32[8192,2048]{1,0}) %call.534), index=21, metadata={op_name="parallelize(stage_0_1)/jit(main)/pipeline_marker[name=stage_0_1_apply_grad mark_type=start]"}
[2m[36m(CompileWorker pid=1531229)[0m   %get-tuple-element.557 = f32[8192]{0} get-tuple-element((f32[8192]{0}, f32[2048,8192]{1,0}, f32[2048]{0}, f32[8192,2048]{1,0}, f32[8192]{0}, /*index=5*/f32[2048,8192]{1,0}, f32[2048]{0}, f32[8192,2048]{1,0}, s32[], f32[8192]{0}, /*index=10*/f32[2048,8192]{1,0}, f32[2048]{0}, f32[8192,2048]{1,0}, s32[], f32[8192]{0}, /*index=15*/f32[2048,8192]{1,0}, f32[2048]{0}, f32[8192,2048]{1,0}, f32[8192]{0}, f32[2048,8192]{1,0}, /*index=20*/f32[2048]{0}, f32[8192,2048]{1,0}, f32[8192]{0}, f32[2048,8192]{1,0}, f32[2048]{0}, /*index=25*/f32[8192,2048]{1,0}, f32[8192]{0}, f32[2048,8192]{1,0}, f32[2048]{0}, f32[8192,2048]{1,0}, /*index=30*/f32[8192]{0}, f32[2048,8192]{1,0}, f32[2048]{0}, f32[8192,2048]{1,0}) %call.534), index=22, metadata={op_name="parallelize(stage_0_1)/jit(main)/pipeline_marker[name=stage_0_1_apply_grad mark_type=start]"}
[2m[36m(CompileWorker pid=1531229)[0m   %get-tuple-element.558 = f32[2048,8192]{1,0} get-tuple-element((f32[8192]{0}, f32[2048,8192]{1,0}, f32[2048]{0}, f32[8192,2048]{1,0}, f32[8192]{0}, /*index=5*/f32[2048,8192]{1,0}, f32[2048]{0}, f32[8192,2048]{1,0}, s32[], f32[8192]{0}, /*index=10*/f32[2048,8192]{1,0}, f32[2048]{0}, f32[8192,2048]{1,0}, s32[], f32[8192]{0}, /*index=15*/f32[2048,8192]{1,0}, f32[2048]{0}, f32[8192,2048]{1,0}, f32[8192]{0}, f32[2048,8192]{1,0}, /*index=20*/f32[2048]{0}, f32[8192,2048]{1,0}, f32[8192]{0}, f32[2048,8192]{1,0}, f32[2048]{0}, /*index=25*/f32[8192,2048]{1,0}, f32[8192]{0}, f32[2048,8192]{1,0}, f32[2048]{0}, f32[8192,2048]{1,0}, /*index=30*/f32[8192]{0}, f32[2048,8192]{1,0}, f32[2048]{0}, f32[8192,2048]{1,0}) %call.534), index=23, metadata={op_name="parallelize(stage_0_1)/jit(main)/pipeline_marker[name=stage_0_1_apply_grad mark_type=start]"}
[2m[36m(CompileWorker pid=1531229)[0m   %get-tuple-element.559 = f32[2048]{0} get-tuple-element((f32[8192]{0}, f32[2048,8192]{1,0}, f32[2048]{0}, f32[8192,2048]{1,0}, f32[8192]{0}, /*index=5*/f32[2048,8192]{1,0}, f32[2048]{0}, f32[8192,2048]{1,0}, s32[], f32[8192]{0}, /*index=10*/f32[2048,8192]{1,0}, f32[2048]{0}, f32[8192,2048]{1,0}, s32[], f32[8192]{0}, /*index=15*/f32[2048,8192]{1,0}, f32[2048]{0}, f32[8192,2048]{1,0}, f32[8192]{0}, f32[2048,8192]{1,0}, /*index=20*/f32[2048]{0}, f32[8192,2048]{1,0}, f32[8192]{0}, f32[2048,8192]{1,0}, f32[2048]{0}, /*index=25*/f32[8192,2048]{1,0}, f32[8192]{0}, f32[2048,8192]{1,0}, f32[2048]{0}, f32[8192,2048]{1,0}, /*index=30*/f32[8192]{0}, f32[2048,8192]{1,0}, f32[2048]{0}, f32[8192,2048]{1,0}) %call.534), index=24, metadata={op_name="parallelize(stage_0_1)/jit(main)/pipeline_marker[name=stage_0_1_apply_grad mark_type=start]"}
[2m[36m(CompileWorker pid=1531229)[0m   %get-tuple-element.560 = f32[8192,2048]{1,0} get-tuple-element((f32[8192]{0}, f32[2048,8192]{1,0}, f32[2048]{0}, f32[8192,2048]{1,0}, f32[8192]{0}, /*index=5*/f32[2048,8192]{1,0}, f32[2048]{0}, f32[8192,2048]{1,0}, s32[], f32[8192]{0}, /*index=10*/f32[2048,8192]{1,0}, f32[2048]{0}, f32[8192,2048]{1,0}, s32[], f32[8192]{0}, /*index=15*/f32[2048,8192]{1,0}, f32[2048]{0}, f32[8192,2048]{1,0}, f32[8192]{0}, f32[2048,8192]{1,0}, /*index=20*/f32[2048]{0}, f32[8192,2048]{1,0}, f32[8192]{0}, f32[2048,8192]{1,0}, f32[2048]{0}, /*index=25*/f32[8192,2048]{1,0}, f32[8192]{0}, f32[2048,8192]{1,0}, f32[2048]{0}, f32[8192,2048]{1,0}, /*index=30*/f32[8192]{0}, f32[2048,8192]{1,0}, f32[2048]{0}, f32[8192,2048]{1,0}) %call.534), index=25, metadata={op_name="parallelize(stage_0_1)/jit(main)/pipeline_marker[name=stage_0_1_apply_grad mark_type=start]"}
[2m[36m(CompileWorker pid=1531229)[0m   %get-tuple-element.561 = f32[8192]{0} get-tuple-element((f32[8192]{0}, f32[2048,8192]{1,0}, f32[2048]{0}, f32[8192,2048]{1,0}, f32[8192]{0}, /*index=5*/f32[2048,8192]{1,0}, f32[2048]{0}, f32[8192,2048]{1,0}, s32[], f32[8192]{0}, /*index=10*/f32[2048,8192]{1,0}, f32[2048]{0}, f32[8192,2048]{1,0}, s32[], f32[8192]{0}, /*index=15*/f32[2048,8192]{1,0}, f32[2048]{0}, f32[8192,2048]{1,0}, f32[8192]{0}, f32[2048,8192]{1,0}, /*index=20*/f32[2048]{0}, f32[8192,2048]{1,0}, f32[8192]{0}, f32[2048,8192]{1,0}, f32[2048]{0}, /*index=25*/f32[8192,2048]{1,0}, f32[8192]{0}, f32[2048,8192]{1,0}, f32[2048]{0}, f32[8192,2048]{1,0}, /*index=30*/f32[8192]{0}, f32[2048,8192]{1,0}, f32[2048]{0}, f32[8192,2048]{1,0}) %call.534), index=26, metadata={op_name="parallelize(stage_0_1)/jit(main)/pipeline_marker[name=stage_0_1_apply_grad mark_type=start]"}
[2m[36m(CompileWorker pid=1531229)[0m   %get-tuple-element.562 = f32[2048,8192]{1,0} get-tuple-element((f32[8192]{0}, f32[2048,8192]{1,0}, f32[2048]{0}, f32[8192,2048]{1,0}, f32[8192]{0}, /*index=5*/f32[2048,8192]{1,0}, f32[2048]{0}, f32[8192,2048]{1,0}, s32[], f32[8192]{0}, /*index=10*/f32[2048,8192]{1,0}, f32[2048]{0}, f32[8192,2048]{1,0}, s32[], f32[8192]{0}, /*index=15*/f32[2048,8192]{1,0}, f32[2048]{0}, f32[8192,2048]{1,0}, f32[8192]{0}, f32[2048,8192]{1,0}, /*index=20*/f32[2048]{0}, f32[8192,2048]{1,0}, f32[8192]{0}, f32[2048,8192]{1,0}, f32[2048]{0}, /*index=25*/f32[8192,2048]{1,0}, f32[8192]{0}, f32[2048,8192]{1,0}, f32[2048]{0}, f32[8192,2048]{1,0}, /*index=30*/f32[8192]{0}, f32[2048,8192]{1,0}, f32[2048]{0}, f32[8192,2048]{1,0}) %call.534), index=27, metadata={op_name="parallelize(stage_0_1)/jit(main)/pipeline_marker[name=stage_0_1_apply_grad mark_type=start]"}
[2m[36m(CompileWorker pid=1531229)[0m   %get-tuple-element.563 = f32[2048]{0} get-tuple-element((f32[8192]{0}, f32[2048,8192]{1,0}, f32[2048]{0}, f32[8192,2048]{1,0}, f32[8192]{0}, /*index=5*/f32[2048,8192]{1,0}, f32[2048]{0}, f32[8192,2048]{1,0}, s32[], f32[8192]{0}, /*index=10*/f32[2048,8192]{1,0}, f32[2048]{0}, f32[8192,2048]{1,0}, s32[], f32[8192]{0}, /*index=15*/f32[2048,8192]{1,0}, f32[2048]{0}, f32[8192,2048]{1,0}, f32[8192]{0}, f32[2048,8192]{1,0}, /*index=20*/f32[2048]{0}, f32[8192,2048]{1,0}, f32[8192]{0}, f32[2048,8192]{1,0}, f32[2048]{0}, /*index=25*/f32[8192,2048]{1,0}, f32[8192]{0}, f32[2048,8192]{1,0}, f32[2048]{0}, f32[8192,2048]{1,0}, /*index=30*/f32[8192]{0}, f32[2048,8192]{1,0}, f32[2048]{0}, f32[8192,2048]{1,0}) %call.534), index=28, metadata={op_name="parallelize(stage_0_1)/jit(main)/pipeline_marker[name=stage_0_1_apply_grad mark_type=start]"}
[2m[36m(CompileWorker pid=1531229)[0m   %get-tuple-element.564 = f32[8192,2048]{1,0} get-tuple-element((f32[8192]{0}, f32[2048,8192]{1,0}, f32[2048]{0}, f32[8192,2048]{1,0}, f32[8192]{0}, /*index=5*/f32[2048,8192]{1,0}, f32[2048]{0}, f32[8192,2048]{1,0}, s32[], f32[8192]{0}, /*index=10*/f32[2048,8192]{1,0}, f32[2048]{0}, f32[8192,2048]{1,0}, s32[], f32[8192]{0}, /*index=15*/f32[2048,8192]{1,0}, f32[2048]{0}, f32[8192,2048]{1,0}, f32[8192]{0}, f32[2048,8192]{1,0}, /*index=20*/f32[2048]{0}, f32[8192,2048]{1,0}, f32[8192]{0}, f32[2048,8192]{1,0}, f32[2048]{0}, /*index=25*/f32[8192,2048]{1,0}, f32[8192]{0}, f32[2048,8192]{1,0}, f32[2048]{0}, f32[8192,2048]{1,0}, /*index=30*/f32[8192]{0}, f32[2048,8192]{1,0}, f32[2048]{0}, f32[8192,2048]{1,0}) %call.534), index=29, metadata={op_name="parallelize(stage_0_1)/jit(main)/pipeline_marker[name=stage_0_1_apply_grad mark_type=start]"}
[2m[36m(CompileWorker pid=1531229)[0m   %get-tuple-element.565 = f32[8192]{0} get-tuple-element((f32[8192]{0}, f32[2048,8192]{1,0}, f32[2048]{0}, f32[8192,2048]{1,0}, f32[8192]{0}, /*index=5*/f32[2048,8192]{1,0}, f32[2048]{0}, f32[8192,2048]{1,0}, s32[], f32[8192]{0}, /*index=10*/f32[2048,8192]{1,0}, f32[2048]{0}, f32[8192,2048]{1,0}, s32[], f32[8192]{0}, /*index=15*/f32[2048,8192]{1,0}, f32[2048]{0}, f32[8192,2048]{1,0}, f32[8192]{0}, f32[2048,8192]{1,0}, /*index=20*/f32[2048]{0}, f32[8192,2048]{1,0}, f32[8192]{0}, f32[2048,8192]{1,0}, f32[2048]{0}, /*index=25*/f32[8192,2048]{1,0}, f32[8192]{0}, f32[2048,8192]{1,0}, f32[2048]{0}, f32[8192,2048]{1,0}, /*index=30*/f32[8192]{0}, f32[2048,8192]{1,0}, f32[2048]{0}, f32[8192,2048]{1,0}) %call.534), index=30, metadata={op_name="parallelize(stage_0_1)/jit(main)/pipeline_marker[name=stage_0_1_apply_grad mark_type=start]"}
[2m[36m(CompileWorker pid=1531229)[0m   %get-tuple-element.566 = f32[2048,8192]{1,0} get-tuple-element((f32[8192]{0}, f32[2048,8192]{1,0}, f32[2048]{0}, f32[8192,2048]{1,0}, f32[8192]{0}, /*index=5*/f32[2048,8192]{1,0}, f32[2048]{0}, f32[8192,2048]{1,0}, s32[], f32[8192]{0}, /*index=10*/f32[2048,8192]{1,0}, f32[2048]{0}, f32[8192,2048]{1,0}, s32[], f32[8192]{0}, /*index=15*/f32[2048,8192]{1,0}, f32[2048]{0}, f32[8192,2048]{1,0}, f32[8192]{0}, f32[2048,8192]{1,0}, /*index=20*/f32[2048]{0}, f32[8192,2048]{1,0}, f32[8192]{0}, f32[2048,8192]{1,0}, f32[2048]{0}, /*index=25*/f32[8192,2048]{1,0}, f32[8192]{0}, f32[2048,8192]{1,0}, f32[2048]{0}, f32[8192,2048]{1,0}, /*index=30*/f32[8192]{0}, f32[2048,8192]{1,0}, f32[2048]{0}, f32[8192,2048]{1,0}) %call.534), index=31, metadata={op_name="parallelize(stage_0_1)/jit(main)/pipeline_marker[name=stage_0_1_apply_grad mark_type=start]"}
[2m[36m(CompileWorker pid=1531229)[0m   %get-tuple-element.567 = f32[2048]{0} get-tuple-element((f32[8192]{0}, f32[2048,8192]{1,0}, f32[2048]{0}, f32[8192,2048]{1,0}, f32[8192]{0}, /*index=5*/f32[2048,8192]{1,0}, f32[2048]{0}, f32[8192,2048]{1,0}, s32[], f32[8192]{0}, /*index=10*/f32[2048,8192]{1,0}, f32[2048]{0}, f32[8192,2048]{1,0}, s32[], f32[8192]{0}, /*index=15*/f32[2048,8192]{1,0}, f32[2048]{0}, f32[8192,2048]{1,0}, f32[8192]{0}, f32[2048,8192]{1,0}, /*index=20*/f32[2048]{0}, f32[8192,2048]{1,0}, f32[8192]{0}, f32[2048,8192]{1,0}, f32[2048]{0}, /*index=25*/f32[8192,2048]{1,0}, f32[8192]{0}, f32[2048,8192]{1,0}, f32[2048]{0}, f32[8192,2048]{1,0}, /*index=30*/f32[8192]{0}, f32[2048,8192]{1,0}, f32[2048]{0}, f32[8192,2048]{1,0}) %call.534), index=32, metadata={op_name="parallelize(stage_0_1)/jit(main)/pipeline_marker[name=stage_0_1_apply_grad mark_type=start]"}
[2m[36m(CompileWorker pid=1531229)[0m   %get-tuple-element.568 = f32[8192,2048]{1,0} get-tuple-element((f32[8192]{0}, f32[2048,8192]{1,0}, f32[2048]{0}, f32[8192,2048]{1,0}, f32[8192]{0}, /*index=5*/f32[2048,8192]{1,0}, f32[2048]{0}, f32[8192,2048]{1,0}, s32[], f32[8192]{0}, /*index=10*/f32[2048,8192]{1,0}, f32[2048]{0}, f32[8192,2048]{1,0}, s32[], f32[8192]{0}, /*index=15*/f32[2048,8192]{1,0}, f32[2048]{0}, f32[8192,2048]{1,0}, f32[8192]{0}, f32[2048,8192]{1,0}, /*index=20*/f32[2048]{0}, f32[8192,2048]{1,0}, f32[8192]{0}, f32[2048,8192]{1,0}, f32[2048]{0}, /*index=25*/f32[8192,2048]{1,0}, f32[8192]{0}, f32[2048,8192]{1,0}, f32[2048]{0}, f32[8192,2048]{1,0}, /*index=30*/f32[8192]{0}, f32[2048,8192]{1,0}, f32[2048]{0}, f32[8192,2048]{1,0}) %call.534), index=33, metadata={op_name="parallelize(stage_0_1)/jit(main)/pipeline_marker[name=stage_0_1_apply_grad mark_type=start]"}
[2m[36m(CompileWorker pid=1531229)[0m   ROOT %tuple.569 = (f32[8192]{0}, f32[2048,8192]{1,0}, f32[2048]{0}, f32[8192,2048]{1,0}, f32[8192]{0}, /*index=5*/f32[2048,8192]{1,0}, f32[2048]{0}, f32[8192,2048]{1,0}, s32[], f32[8192]{0}, /*index=10*/f32[2048,8192]{1,0}, f32[2048]{0}, f32[8192,2048]{1,0}, s32[], f32[8192]{0}, /*index=15*/f32[2048,8192]{1,0}, f32[2048]{0}, f32[8192,2048]{1,0}, f32[8192]{0}, f32[2048,8192]{1,0}, /*index=20*/f32[2048]{0}, f32[8192,2048]{1,0}, f32[8192]{0}, f32[2048,8192]{1,0}, f32[2048]{0}, /*index=25*/f32[8192,2048]{1,0}, f32[8192]{0}, f32[2048,8192]{1,0}, f32[2048]{0}, f32[8192,2048]{1,0}, /*index=30*/f32[8192]{0}, f32[2048,8192]{1,0}, f32[2048]{0}, f32[8192,2048]{1,0}) tuple(f32[8192]{0} %get-tuple-element.535, f32[2048,8192]{1,0} %get-tuple-element.536, f32[2048]{0} %get-tuple-element.537, f32[8192,2048]{1,0} %get-tuple-element.538, f32[8192]{0} %get-tuple-element.539, /*index=5*/f32[2048,8192]{1,0} %get-tuple-element.540, f32[2048]{0} %get-tuple-element.541, f32[8192,2048]{1,0} %get-tuple-element.542, s32[] %get-tuple-element.543, f32[8192]{0} %get-tuple-element.544, /*index=10*/f32[2048,8192]{1,0} %get-tuple-element.545, f32[2048]{0} %get-tuple-element.546, f32[8192,2048]{1,0} %get-tuple-element.547, s32[] %get-tuple-element.548, f32[8192]{0} %get-tuple-element.549, /*index=15*/f32[2048,8192]{1,0} %get-tuple-element.550, f32[2048]{0} %get-tuple-element.551, f32[8192,2048]{1,0} %get-tuple-element.552, f32[8192]{0} %get-tuple-element.553, f32[2048,8192]{1,0} %get-tuple-element.554, /*index=20*/f32[2048]{0} %get-tuple-element.555, f32[8192,2048]{1,0} %get-tuple-element.556, f32[8192]{0} %get-tuple-element.557, f32[2048,8192]{1,0} %get-tuple-element.558, f32[2048]{0} %get-tuple-element.559, /*index=25*/f32[8192,2048]{1,0} %get-tuple-element.560, f32[8192]{0} %get-tuple-element.561, f32[2048,8192]{1,0} %get-tuple-element.562, f32[2048]{0} %get-tuple-element.563, f32[8192,2048]{1,0} %get-tuple-element.564, /*index=30*/f32[8192]{0} %get-tuple-element.565, f32[2048,8192]{1,0} %get-tuple-element.566, f32[2048]{0} %get-tuple-element.567, f32[8192,2048]{1,0} %get-tuple-element.568)
[2m[36m(CompileWorker pid=1531229)[0m }
[2m[36m(CompileWorker pid=1531229)[0m 
[2m[36m(CompileWorker pid=1531229)[0m %stage_0_1_apply0.605 (Arg_0.606: f32[8192], Arg_1.607: f32[8192], Arg_2.608: f32[2048,8192], Arg_3.609: f32[2048,8192], Arg_4.610: f32[2048], Arg_5.611: f32[2048], Arg_6.612: f32[8192,2048], Arg_7.613: f32[8192,2048], Arg_8.614: f32[8192], Arg_9.615: f32[2048,8192], Arg_10.616: f32[2048], Arg_11.617: f32[8192,2048], Arg_12.618: s32[], Arg_13.619: f32[8192], Arg_14.620: f32[2048,8192], Arg_15.621: f32[2048], Arg_16.622: f32[8192,2048], Arg_17.623: s32[]) -> (f32[8192], f32[2048,8192], f32[2048], f32[8192,2048], f32[8192], /*index=5*/f32[2048,8192], f32[2048], f32[8192,2048], s32[], f32[8192], /*index=10*/f32[2048,8192], f32[2048], f32[8192,2048], s32[]) {
[2m[36m(CompileWorker pid=1531229)[0m   %Arg_0.606 = f32[8192]{0} parameter(0)
[2m[36m(CompileWorker pid=1531229)[0m   %constant.678 = f32[] constant(16)
[2m[36m(CompileWorker pid=1531229)[0m   %broadcast.679 = f32[8192]{0} broadcast(f32[] %constant.678), dimensions={}, metadata={op_name="parallelize(stage_0_1)/jit(main)/jit(stage_0_1_apply_grad)/jit(stage_0_1_apply0)/div"}
[2m[36m(CompileWorker pid=1531229)[0m   %divide.685 = f32[8192]{0} divide(f32[8192]{0} %Arg_0.606, f32[8192]{0} %broadcast.679), metadata={op_name="parallelize(stage_0_1)/jit(main)/jit(stage_0_1_apply_grad)/jit(stage_0_1_apply0)/div"}
[2m[36m(CompileWorker pid=1531229)[0m   %constant.670 = f32[] constant(0.1)
[2m[36m(CompileWorker pid=1531229)[0m   %broadcast.671 = f32[8192]{0} broadcast(f32[] %constant.670), dimensions={}, metadata={op_name="parallelize(stage_0_1)/jit(main)/jit(stage_0_1_apply_grad)/jit(stage_0_1_apply0)/mul" source_file="/home/jingqi/anaconda3/envs/ddl/lib/python3.9/site-packages/optax/_src/transform.py" source_line=84}
[2m[36m(CompileWorker pid=1531229)[0m   %multiply.689 = f32[8192]{0} multiply(f32[8192]{0} %divide.685, f32[8192]{0} %broadcast.671), metadata={op_name="parallelize(stage_0_1)/jit(main)/jit(stage_0_1_apply_grad)/jit(stage_0_1_apply0)/mul" source_file="/home/jingqi/anaconda3/envs/ddl/lib/python3.9/site-packages/optax/_src/transform.py" source_line=84}
…
element.76)
[2m[36m(CompileWorker pid=1531826)[0m   %get-tuple-element.536 = f32[8192]{0} get-tuple-element((f32[8192]{0}, f32[2048,8192]{1,0}, f32[2048]{0}, f32[8192,2048]{1,0}, f32[8192]{0}, /*index=5*/f32[2048,8192]{1,0}, f32[2048]{0}, f32[8192,2048]{1,0}, s32[], f32[8192]{0}, /*index=10*/f32[2048,8192]{1,0}, f32[2048]{0}, f32[8192,2048]{1,0}) %tuple.24), index=0
[2m[36m(CompileWorker pid=1531826)[0m   %get-tuple-element.537 = f32[2048,8192]{1,0} get-tuple-element((f32[8192]{0}, f32[2048,8192]{1,0}, f32[2048]{0}, f32[8192,2048]{1,0}, f32[8192]{0}, /*index=5*/f32[2048,8192]{1,0}, f32[2048]{0}, f32[8192,2048]{1,0}, s32[], f32[8192]{0}, /*index=10*/f32[2048,8192]{1,0}, f32[2048]{0}, f32[8192,2048]{1,0}) %tuple.24), index=1
[2m[36m(CompileWorker pid=1531826)[0m   %get-tuple-element.538 = f32[2048]{0} get-tuple-element((f32[8192]{0}, f32[2048,8192]{1,0}, f32[2048]{0}, f32[8192,2048]{1,0}, f32[8192]{0}, /*index=5*/f32[2048,8192]{1,0}, f32[2048]{0}, f32[8192,2048]{1,0}, s32[], f32[8192]{0}, /*index=10*/f32[2048,8192]{1,0}, f32[2048]{0}, f32[8192,2048]{1,0}) %tuple.24), index=2
[2m[36m(CompileWorker pid=1531826)[0m   %get-tuple-element.539 = f32[8192,2048]{1,0} get-tuple-element((f32[8192]{0}, f32[2048,8192]{1,0}, f32[2048]{0}, f32[8192,2048]{1,0}, f32[8192]{0}, /*index=5*/f32[2048,8192]{1,0}, f32[2048]{0}, f32[8192,2048]{1,0}, s32[], f32[8192]{0}, /*index=10*/f32[2048,8192]{1,0}, f32[2048]{0}, f32[8192,2048]{1,0}) %tuple.24), index=3
[2m[36m(CompileWorker pid=1531826)[0m   %get-tuple-element.540 = f32[8192]{0} get-tuple-element((f32[8192]{0}, f32[2048,8192]{1,0}, f32[2048]{0}, f32[8192,2048]{1,0}, f32[8192]{0}, /*index=5*/f32[2048,8192]{1,0}, f32[2048]{0}, f32[8192,2048]{1,0}, s32[], f32[8192]{0}, /*index=10*/f32[2048,8192]{1,0}, f32[2048]{0}, f32[8192,2048]{1,0}) %tuple.24), index=4
[2m[36m(CompileWorker pid=1531826)[0m   %get-tuple-element.541 = f32[2048,8192]{1,0} get-tuple-element((f32[8192]{0}, f32[2048,8192]{1,0}, f32[2048]{0}, f32[8192,2048]{1,0}, f32[8192]{0}, /*index=5*/f32[2048,8192]{1,0}, f32[2048]{0}, f32[8192,2048]{1,0}, s32[], f32[8192]{0}, /*index=10*/f32[2048,8192]{1,0}, f32[2048]{0}, f32[8192,2048]{1,0}) %tuple.24), index=5
[2m[36m(CompileWorker pid=1531826)[0m   %get-tuple-element.542 = f32[2048]{0} get-tuple-element((f32[8192]{0}, f32[2048,8192]{1,0}, f32[2048]{0}, f32[8192,2048]{1,0}, f32[8192]{0}, /*index=5*/f32[2048,8192]{1,0}, f32[2048]{0}, f32[8192,2048]{1,0}, s32[], f32[8192]{0}, /*index=10*/f32[2048,8192]{1,0}, f32[2048]{0}, f32[8192,2048]{1,0}) %tuple.24), index=6
[2m[36m(CompileWorker pid=1531826)[0m   %get-tuple-element.543 = f32[8192,2048]{1,0} get-tuple-element((f32[8192]{0}, f32[2048,8192]{1,0}, f32[2048]{0}, f32[8192,2048]{1,0}, f32[8192]{0}, /*index=5*/f32[2048,8192]{1,0}, f32[2048]{0}, f32[8192,2048]{1,0}, s32[], f32[8192]{0}, /*index=10*/f32[2048,8192]{1,0}, f32[2048]{0}, f32[8192,2048]{1,0}) %tuple.24), index=7
[2m[36m(CompileWorker pid=1531826)[0m   %get-tuple-element.544 = s32[] get-tuple-element((f32[8192]{0}, f32[2048,8192]{1,0}, f32[2048]{0}, f32[8192,2048]{1,0}, f32[8192]{0}, /*index=5*/f32[2048,8192]{1,0}, f32[2048]{0}, f32[8192,2048]{1,0}, s32[], f32[8192]{0}, /*index=10*/f32[2048,8192]{1,0}, f32[2048]{0}, f32[8192,2048]{1,0}) %tuple.24), index=8
[2m[36m(CompileWorker pid=1531826)[0m   %get-tuple-element.545 = f32[8192]{0} get-tuple-element((f32[8192]{0}, f32[2048,8192]{1,0}, f32[2048]{0}, f32[8192,2048]{1,0}, f32[8192]{0}, /*index=5*/f32[2048,8192]{1,0}, f32[2048]{0}, f32[8192,2048]{1,0}, s32[], f32[8192]{0}, /*index=10*/f32[2048,8192]{1,0}, f32[2048]{0}, f32[8192,2048]{1,0}) %tuple.24), index=9
[2m[36m(CompileWorker pid=1531826)[0m   %get-tuple-element.546 = f32[2048,8192]{1,0} get-tuple-element((f32[8192]{0}, f32[2048,8192]{1,0}, f32[2048]{0}, f32[8192,2048]{1,0}, f32[8192]{0}, /*index=5*/f32[2048,8192]{1,0}, f32[2048]{0}, f32[8192,2048]{1,0}, s32[], f32[8192]{0}, /*index=10*/f32[2048,8192]{1,0}, f32[2048]{0}, f32[8192,2048]{1,0}) %tuple.24), index=10
[2m[36m(CompileWorker pid=1531826)[0m   %get-tuple-element.547 = f32[2048]{0} get-tuple-element((f32[8192]{0}, f32[2048,8192]{1,0}, f32[2048]{0}, f32[8192,2048]{1,0}, f32[8192]{0}, /*index=5*/f32[2048,8192]{1,0}, f32[2048]{0}, f32[8192,2048]{1,0}, s32[], f32[8192]{0}, /*index=10*/f32[2048,8192]{1,0}, f32[2048]{0}, f32[8192,2048]{1,0}) %tuple.24), index=11
[2m[36m(CompileWorker pid=1531826)[0m   %get-tuple-element.548 = f32[8192,2048]{1,0} get-tuple-element((f32[8192]{0}, f32[2048,8192]{1,0}, f32[2048]{0}, f32[8192,2048]{1,0}, f32[8192]{0}, /*index=5*/f32[2048,8192]{1,0}, f32[2048]{0}, f32[8192,2048]{1,0}, s32[], f32[8192]{0}, /*index=10*/f32[2048,8192]{1,0}, f32[2048]{0}, f32[8192,2048]{1,0}) %tuple.24), index=12
[2m[36m(CompileWorker pid=1531826)[0m   ROOT %tuple.25 = (f32[8192]{0}, f32[2048,8192]{1,0}, f32[2048]{0}, f32[8192,2048]{1,0}, f32[8192]{0}, /*index=5*/f32[2048,8192]{1,0}, f32[2048]{0}, f32[8192,2048]{1,0}, s32[], f32[8192]{0}, /*index=10*/f32[2048,8192]{1,0}, f32[2048]{0}, f32[8192,2048]{1,0}) tuple(f32[8192]{0} %get-tuple-element.536, f32[2048,8192]{1,0} %get-tuple-element.537, f32[2048]{0} %get-tuple-element.538, f32[8192,2048]{1,0} %get-tuple-element.539, f32[8192]{0} %get-tuple-element.540, /*index=5*/f32[2048,8192]{1,0} %get-tuple-element.541, f32[2048]{0} %get-tuple-element.542, f32[8192,2048]{1,0} %get-tuple-element.543, s32[] %get-tuple-element.544, f32[8192]{0} %get-tuple-element.545, /*index=10*/f32[2048,8192]{1,0} %get-tuple-element.546, f32[2048]{0} %get-tuple-element.547, f32[8192,2048]{1,0} %get-tuple-element.548), metadata={op_name="tuple.14"}
[2m[36m(CompileWorker pid=1531826)[0m }
[2m[36m(CompileWorker pid=1531826)[0m 
[2m[36m(CompileWorker pid=1531826)[0m 
[2m[36m(CompileWorker pid=1531828)[0m   %get-tuple-element.141 = f32[2048,8192]{1,0} get-tuple-element((f32[8192]{0}, f32[2048,8192]{1,0}, f32[2048]{0}, f32[8192,2048]{1,0}, f32[8192]{0}, /*index=5*/f32[2048,8192]{1,0}, f32[2048]{0}, f32[8192,2048]{1,0}, s32[], f32[8192]{0}, /*index=10*/f32[2048,8192]{1,0}, f32[2048]{0}, f32[8192,2048]{1,0}) %tuple.29), index=10
[2m[36m(CompileWorker pid=1531828)[0m   %get-tuple-element.142 = f32[2048]{0} get-tuple-element((f32[8192]{0}, f32[2048,8192]{1,0}, f32[2048]{0}, f32[8192,2048]{1,0}, f32[8192]{0}, /*index=5*/f32[2048,8192]{1,0}, f32[2048]{0}, f32[8192,2048]{1,0}, s32[], f32[8192]{0}, /*index=10*/f32[2048,8192]{1,0}, f32[2048]{0}, f32[8192,2048]{1,0}) %tuple.29), index=11
[2m[36m(CompileWorker pid=1531828)[0m   %get-tuple-element.143 = f32[8192,2048]{1,0} get-tuple-element((f32[8192]{0}, f32[2048,8192]{1,0}, f32[2048]{0}, f32[8192,2048]{1,0}, f32[8192]{0}, /*index=5*/f32[2048,8192]{1,0}, f32[2048]{0}, f32[8192,2048]{1,0}, s32[], f32[8192]{0}, /*index=10*/f32[2048,8192]{1,0}, f32[2048]{0}, f32[8192,2048]{1,0}) %tuple.29), index=12
[2m[36m(CompileWorker pid=1531828)[0m   %tuple.30 = (f32[8192]{0}, f32[2048,8192]{1,0}, f32[2048]{0}, f32[8192,2048]{1,0}, f32[8192]{0}, /*index=5*/f32[2048,8192]{1,0}, f32[2048]{0}, f32[8192,2048]{1,0}, s32[], f32[8192]{0}, /*index=10*/f32[2048,8192]{1,0}, f32[2048]{0}, f32[8192,2048]{1,0}, s32[], f32[8192]{0}, /*index=15*/f32[2048,8192]{1,0}, f32[2048]{0}, f32[8192,2048]{1,0}, f32[8192]{0}, f32[2048,8192]{1,0}, /*index=20*/f32[2048]{0}, f32[8192,2048]{1,0}, f32[8192]{0}, f32[2048,8192]{1,0}, f32[2048]{0}, /*index=25*/f32[8192,2048]{1,0}) tuple(f32[8192]{0} %get-tuple-element.118, f32[2048,8192]{1,0} %get-tuple-element.119, f32[2048]{0} %get-tuple-element.120, f32[8192,2048]{1,0} %get-tuple-element.121, f32[8192]{0} %get-tuple-element.122, /*index=5*/f32[2048,8192]{1,0} %get-tuple-element.123, f32[2048]{0} %get-tuple-element.124, f32[8192,2048]{1,0} %get-tuple-element.125, s32[] %get-tuple-element.126, f32[8192]{0} %get-tuple-element.127, /*index=10*/f32[2048,8192]{1,0} %get-tuple-element.128, f32[2048]{0} %get-tuple-element.129, f32[8192,2048]{1,0} %get-tuple-element.130, s32[] %get-tuple-element.131, f32[8192]{0} %get-tuple-element.132, /*index=15*/f32[2048,8192]{1,0} %get-tuple-element.133, f32[2048]{0} %get-tuple-element.134, f32[8192,2048]{1,0} %get-tuple-element.135, f32[8192]{0} %get-tuple-element.136, f32[2048,8192]{1,0} %get-tuple-element.137, /*index=20*/f32[2048]{0} %get-tuple-element.138, f32[8192,2048]{1,0} %get-tuple-element.139, f32[8192]{0} %get-tuple-element.140, f32[2048,8192]{1,0} %get-tuple-element.141, f32[2048]{0} %get-tuple-element.142, /*index=25*/f32[8192,2048]{1,0} %get-tuple-element.143)
[2m[36m(CompileWorker pid=1531828)[0m   %get-tuple-element.987 = f32[8192]{0} get-tuple-element((f32[8192]{0}, f32[2048,8192]{1,0}, f32[2048]{0}, f32[8192,2048]{1,0}, f32[8192]{0}, /*index=5*/f32[2048,8192]{1,0}, f32[2048]{0}, f32[8192,2048]{1,0}, s32[], f32[8192]{0}, /*index=10*/f32[2048,8192]{1,0}, f32[2048]{0}, f32[8192,2048]{1,0}, s32[], f32[8192]{0}, /*index=15*/f32[2048,8192]{1,0}, f32[2048]{0}, f32[8192,2048]{1,0}, f32[8192]{0}, f32[2048,8192]{1,0}, /*index=20*/f32[2048]{0}, f32[8192,2048]{1,0}, f32[8192]{0}, f32[2048,8192]{1,0}, f32[2048]{0}, /*index=25*/f32[8192,2048]{1,0}) %tuple.30), index=0
[2m[36m(CompileWorker pid=1531828)[0m   %get-tuple-element.988 = f32[2048,8192]{1,0} get-tuple-element((f32[8192]{0}, f32[2048,8192]{1,0}, f32[2048]{0}, f32[8192,2048]{1,0}, f32[8192]{0}, /*index=5*/f32[2048,8192]{1,0}, f32[2048]{0}, f32[8192,2048]{1,0}, s32[], f32[8192]{0}, /*index=10*/f32[2048,8192]{1,0}, f32[2048]{0}, f32[8192,2048]{1,0}, s32[], f32[8192]{0}, /*index=15*/f32[2048,8192]{1,0}, f32[2048]{0}, f32[8192,2048]{1,0}, f32[8192]{0}, f32[2048,8192]{1,0}, /*index=20*/f32[2048]{0}, f32[8192,2048]{1,0}, f32[8192]{0}, f32[2048,8192]{1,0}, f32[2048]{0}, /*index=25*/f32[8192,2048]{1,0}) %tuple.30), index=1
[2m[36m(CompileWorker pid=1531828)[0m   %get-tuple-element.989 = f32[2048]{0} get-tuple-element((f32[8192]{0}, f32[2048,8192]{1,0}, f32[2048]{0}, f32[8192,2048]{1,0}, f32[8192]{0}, /*index=5*/f32[2048,8192]{1,0}, f32[2048]{0}, f32[8192,2048]{1,0}, s32[], f32[8192]{0}, /*index=10*/f32[2048,8192]{1,0}, f32[2048]{0}, f32[8192,2048]{1,0}, s32[], f32[8192]{0}, /*index=15*/f32[2048,8192]{1,0}, f32[2048]{0}, f32[8192,2048]{1,0}, f32[8192]{0}, f32[2048,8192]{1,0}, /*index=20*/f32[2048]{0}, f32[8192,2048]{1,0}, f32[8192]{0}, f32[2048,8192]{1,0}, f32[2048]{0}, /*index=25*/f32[8192,2048]{1,0}) %tuple.30), index=2
[2m[36m(CompileWorker pid=1531828)[0m   %get-tuple-element.990 = f32[8192,2048]{1,0} get-tuple-element((f32[8192]{0}, f32[2048,8192]{1,0}, f32[2048]{0}, f32[8192,2048]{1,0}, f32[8192]{0}, /*index=5*/f32[2048,8192]{1,0}, f32[2048]{0}, f32[8192,2048]{1,0}, s32[], f32[8192]{0}, /*index=10*/f32[2048,8192]{1,0}, f32[2048]{0}, f32[8192,2048]{1,0}, s32[], f32[8192]{0}, /*index=15*/f32[2048,8192]{1,0}, f32[2048]{0}, f32[8192,2048]{1,0}, f32[8192]{0}, f32[2048,8192]{1,0}, /*index=20*/f32[2048]{0}, f32[8192,2048]{1,0}, f32[8192]{0}, f32[2048,8192]{1,0}, f32[2048]{0}, /*index=25*/f32[8192,2048]{1,0}) %tuple.30), index=3
[2m[36m(CompileWorker pid=1531828)[0m   %get-tuple-element.991 = f32[8192]{0} get-tuple-element((f32[8192]{0}, f32[2048,8192]{1,0}, f32[2048]{0}, f32[8192,2048]{1,0}, f32[8192]{0}, /*index=5*/f32[2048,8192]{1,0}, f32[2048]{0}, f32[8192,2048]{1,0}, s32[], f32[8192]{0}, /*index=10*/f32[2048,8192]{1,0}, f32[2048]{0}, f32[8192,2048]{1,0}, s32[], f32[8192]{0}, /*index=15*/f32[2048,8192]{1,0}, f32[2048]{0}, f32[8192,2048]{1,0}, f32[8192]{0}, f32[2048,8192]{1,0}, /*index=20*/f32[2048]{0}, f32[8192,2048]{1,0}, f32[8192]{0}, f32[2048,8192]{1,0}, f32[2048]{0}, /*index=25*/f32[8192,2048]{1,0}) %tuple.30), index=4
[2m[36m(CompileWorker pid=1531828)[0m   %get-tuple-element.992 = f32[2048,8192]{1,0} get-tuple-element((f32[8192]{0}, f32[2048,8192]{1,0}, f32[2048]{0}, f32[8192,2048]{1,0}, f32[8192]{0}, /*index=5*/f32[2048,8192]{1,0}, f32[2048]{0}, f32[8192,2048]{1,0}, s32[], f32[8192]{0}, /*index=10*/f32[2048,8192]{1,0}, f32[2048]{0}, f32[8192,2048]{1,0}, s32[], f32[8192]{0}, /*index=15*/f32[2048,8192]{1,0}, f32[2048]{0}, f32[8192,2048]{1,0}, f32[8192]{0}, f32[2048,8192]{1,0}, /*index=20*/f32[2048]{0}, f32[8192,2048]{1,0}, f32[8192]{0}, f32[2048,8192]{1,0}, f32[2048]{0}, /*index=25*/f32[8192,2048]{1,0}) %tuple.30), index=5
[2m[36m(CompileWorker pid=1531828)[0m   %get-tuple-element.993 = f32[2048]{0} get-tuple-element((f32[8192]{0}, f32[2048,8192]{1,0}, f32[2048]{0}, f32[8192,2048]{1,0}, f32[8192]{0}, /*index=5*/f32[2048,8192]{1,0}, f32[2048]{0}, f32[8192,2048]{1,0}, s32[], f32[8192]{0}, /*index=10*/f32[2048,8192]{1,0}, f32[2048]{0}, f32[8192,2048]{1,0}, s32[], f32[8192]{0}, /*index=15*/f32[2048,8192]{1,0}, f32[2048]{0}, f32[8192,2048]{1,0}, f32[8192]{0}, f32[2048,8192]{1,0}, /*index=20*/f32[2048]{0}, f32[8192,2048]{1,0}, f32[8192]{0}, f32[2048,8192]{1,0}, f32[2048]{0}, /*index=25*/f32[8192,2048]{1,0}) %tuple.30), index=6
[2m[36m(CompileWorker pid=1531828)[0m   %get-tuple-element.994 = f32[8192,2048]{1,0} get-tuple-element((f32[8192]{0}, f32[2048,8192]{1,0}, f32[2048]{0}, f32[8192,2048]{1,0}, f32[8192]{0}, /*index=5*/f32[2048,8192]{1,0}, f32[2048]{0}, f32[8192,2048]{1,0}, s32[], f32[8192]{0}, /*index=10*/f32[2048,8192]{1,0}, f32[2048]{0}, f32[8192,2048]{1,0}, s32[], f32[8192]{0}, /*index=15*/f32[2048,8192]{1,0}, f32[2048]{0}, f32[8192,2048]{1,0}, f32[8192]{0}, f32[2048,8192]{1,0}, /*index=20*/f32[2048]{0}, f32[8192,2048]{1,0}, f32[8192]{0}, f32[2048,8192]{1,0}, f32[2048]{0}, /*index=25*/f32[8192,2048]{1,0}) %tuple.30), index=7
[2m[36m(CompileWorker pid=1531828)[0m   %get-tuple-element.995 = s32[] get-tuple-element((f32[8192]{0}, f32[2048,8192]{1,0}, f32[2048]{0}, f32[8192,2048]{1,0}, f32[8192]{0}, /*index=5*/f32[2048,8192]{1,0}, f32[2048]{0}, f32[8192,2048]{1,0}, s32[], f32[8192]{0}, /*index=10*/f32[2048,8192]{1,0}, f32[2048]{0}, f32[8192,2048]{1,0}, s32[], f32[8192]{0}, /*index=15*/f32[2048,8192]{1,0}, f32[2048]{0}, f32[8192,2048]{1,0}, f32[8192]{0}, f32[2048,8192]{1,0}, /*index=20*/f32[2048]{0}, f32[8192,2048]{1,0}, f32[8192]{0}, f32[2048,8192]{1,0}, f32[2048]{0}, /*index=25*/f32[8192,2048]{1,0}) %tuple.30), index=8
[2m[36m(CompileWorker pid=1531828)[0m   %get-tuple-element.996 = f32[8192]{0} get-tuple-element((f32[8192]{0}, f32[2048,8192]{1,0}, f32[2048]{0}, f32[8192,2048]{1,0}, f32[8192]{0}, /*index=5*/f32[2048,8192]{1,0}, f32[2048]{0}, f32[8192,2048]{1,0}, s32[], f32[8192]{0}, /*index=10*/f32[2048,8192]{1,0}, f32[2048]{0}, f32[8192,2048]{1,0}, s32[], f32[8192]{0}, /*index=15*/f32[2048,8192]{1,0}, f32[2048]{0}, f32[8192,2048]{1,0}, f32[8192]{0}, f32[2048,8192]{1,0}, /*index=20*/f32[2048]{0}, f32[8192,2048]{1,0}, f32[8192]{0}, f32[2048,8192]{1,0}, f32[2048]{0}, /*index=25*/f32[8192,2048]{1,0}) %tuple.30), index=9
[2m[36m(CompileWorker pid=1531828)[0m   %get-tuple-element.997 = f32[2048,8192]{1,0} get-tuple-element((f32[8192]{0}, f32[2048,8192]{1,0}, f32[2048]{0}, f32[8192,2048]{1,0}, f32[8192]{0}, /*index=5*/f32[2048,8192]{1,0}, f32[2048]{0}, f32[8192,2048]{1,0}, s32[], f32[8192]{0}, /*index=10*/f32[2048,8192]{1,0}, f32[2048]{0}, f32[8192,2048]{1,0}, s32[], f32[8192]{0}, /*index=15*/f32[2048,8192]{1,0}, f32[2048]{0}, f32[8192,2048]{1,0}, f32[8192]{0}, f32[2048,8192]{1,0}, /*index=20*/f32[2048]{0}, f32[8192,2048]{1,0}, f32[8192]{0}, f32[2048,8192]{1,0}, f32[2048]{0}, /*index=25*/f32[8192,2048]{1,0}) %tuple.30), index=10
[2m[36m(CompileWorker pid=1531828)[0m   %get-tuple-element.998 = f32[2048]{0} get-tuple-element((f32[8192]{0}, f32[2048,8192]{1,0}, f32[2048]{0}, f32[8192,2048]{1,0}, f32[8192]{0}, /*index=5*/f32[2048,8192]{1,0}, f32[2048]{0}, f32[8192,2048]{1,0}, s32[], f32[8192]{0}, /*index=10*/f32[2048,8192]{1,0}, f32[2048]{0}, f32[8192,2048]{1,0}, s32[], f32[8192]{0}, /*index=15*/f32[2048,8192]{1,0}, f32[2048]{0}, f32[8192,2048]{1,0}, f32[8192]{0}, f32[2048,8192]{1,0}, /*index=20*/f32[2048]{0}, f32[8192,2048]{1,0}, f32[8192]{0}, f32[2048,8192]{1,0}, f32[2048]{0}, /*index=25*/f32[8192,2048]{1,0}) %tuple.30), index=11
[2m[36m(CompileWorker pid=1531828)[0m   %get-tuple-element.999 = f32[8192,2048]{1,0} get-tuple-element((f32[8192]{0}, f32[2048,8192]{1,0}, f32[2048]{0}, f32[8192,2048]{1,0}, f32[8192]{0}, /*index=5*/f32[2048,8192]{1,0}, f32[2048]{0}, f32[8192,2048]{1,0}, s32[], f32[8192]{0}, /*index=10*/f32[2048,8192]{1,0}, f32[2048]{0}, f32[8192,2048]{1,0}, s32[], f32[8192]{0}, /*index=15*/f32[2048,8192]{1,0}, f32[2048]{0}, f32[8192,2048]{1,0}, f32[8192]{0}, f32[2048,8192]{1,0}, /*index=20*/f32[2048]{0}, f32[8192,2048]{1,0}, f32[8192]{0}, f32[2048,8192]{1,0}, f32[2048]{0}, /*index=25*/f32[8192,2048]{1,0}) %tuple.30), index=12
[2m[36m(CompileWorker pid=1531828)[0m   %get-tuple-element.1000 = s32[] get-tuple-element((f32[8192]{0}, f32[2048,8192]{1,0}, f32[2048]{0}, f32[8192,2048]{1,0}, f32[8192]{0}, /*index=5*/f32[2048,8192]{1,0}, f32[2048]{0}, f32[8192,2048]{1,0}, s32[], f32[8192]{0}, /*index=10*/f32[2048,8192]{1,0}, f32[2048]{0}, f32[8192,2048]{1,0}, s32[], f32[8192]{0}, /*index=15*/f32[2048,8192]{1,0}, f32[2048]{0}, f32[8192,2048]{1,0}, f32[8192]{0}, f32[2048,8192]{1,0}, /*index=20*/f32[2048]{0}, f32[8192,2048]{1,0}, f32[8192]{0}, f32[2048,8192]{1,0}, f32[2048]{0}, /*index=25*/f32[8192,2048]{1,0}) %tuple.30), index=13
[2m[36m(CompileWorker pid=1531828)[0m   %get-tuple-element.1001 = f32[8192]{0} get-tuple-element((f32[8192]{0}, f32[2048,8192]{1,0}, f32[2048]{0}, f32[8192,2048]{1,0}, f32[8192]{0}, /*index=5*/f32[2048,8192]{1,0}, f32[2048]{0}, f32[8192,2048]{1,0}, s32[], f32[8192]{0}, /*index=10*/f32[2048,8192]{1,0}, f32[2048]{0}, f32[8192,2048]{1,0}, s32[], f32[8192]{0}, /*index=15*/f32[2048,8192]{1,0}, f32[2048]{0}, f32[8192,2048]{1,0}, f32[8192]{0}, f32[2048,8192]{1,0}, /*index=20*/f32[2048]{0}, f32[8192,2048]{1,0}, f32[8192]{0}, f32[2048,8192]{1,0}, f32[2048]{0}, /*index=25*/f32[8192,2048]{1,0}) %tuple.30), index=14
[2m[36m(CompileWorker pid=1531828)[0m   %get-tuple-element.1002 = f32[2048,8192]{1,0} get-tuple-element((f32[8192]{0}, f32[2048,8192]{1,0}, f32[2048]{0}, f32[8192,2048]{1,0}, f32[8192]{0}, /*index=5*/f32[2048,8192]{1,0}, f32[2048]{0}, f32[8192,2048]{1,0}, s32[], f32[8192]{0}, /*index=10*/f32[2048,8192]{1,0}, f32[2048]{0}, f32[8192,2048]{1,0}, s32[], f32[8192]{0}, /*index=15*/f32[2048,8192]{1,0}, f32[2048]{0}, f32[8192,2048]{1,0}, f32[8192]{0}, f32[2048,8192]{1,0}, /*index=20*/f32[2048]{0}, f32[8192,2048]{1,0}, f32[8192]{0}, f32[2048,8192]{1,0}, f32[2048]{0}, /*index=25*/f32[8192,2048]{1,0}) %tuple.30), index=15
[2m[36m(CompileWorker pid=1531828)[0m   %get-tuple-element.1003 = f32[2048]{0} get-tuple-element((f32[8192]{0}, f32[2048,8192]{1,0}, f32[2048]{0}, f32[8192,2048]{1,0}, f32[8192]{0}, /*index=5*/f32[2048,8192]{1,0}, f32[2048]{0}, f32[8192,2048]{1,0}, s32[], f32[8192]{0}, /*index=10*/f32[2048,8192]{1,0}, f32[2048]{0}, f32[8192,2048]{1,0}, s32[], f32[8192]{0}, /*index=15*/f32[2048,8192]{1,0}, f32[2048]{0}, f32[8192,2048]{1,0}, f32[8192]{0}, f32[2048,8192]{1,0}, /*index=20*/f32[2048]{0}, f32[8192,2048]{1,0}, f32[8192]{0}, f32[2048,8192]{1,0}, f32[2048]{0}, /*index=25*/f32[8192,2048]{1,0}) %tuple.30), index=16
[2m[36m(CompileWorker pid=1531828)[0m   %get-tuple-element.1004 = f32[8192,2048]{1,0} get-tuple-element((f32[8192]{0}, f32[2048,8192]{1,0}, f32[2048]{0}, f32[8192,2048]{1,0}, f32[8192]{0}, /*index=5*/f32[2048,8192]{1,0}, f32[2048]{0}, f32[8192,2048]{1,0}, s32[], f32[8192]{0}, /*index=10*/f32[2048,8192]{1,0}, f32[2048]{0}, f32[8192,2048]{1,0}, s32[], f32[8192]{0}, /*index=15*/f32[2048,8192]{1,0}, f32[2048]{0}, f32[8192,2048]{1,0}, f32[8192]{0}, f32[2048,8192]{1,0}, /*index=20*/f32[2048]{0}, f32[8192,2048]{1,0}, f32[8192]{0}, f32[2048,8192]{1,0}, f32[2048]{0}, /*index=25*/f32[8192,2048]{1,0}) %tuple.30), index=17
[2m[36m(CompileWorker pid=1531828)[0m   %get-tuple-element.1005 = f32[8192]{0} get-tuple-element((f32[8192]{0}, f32[2048,8192]{1,0}, f32[2048]{0}, f32[8192,2048]{1,0}, f32[8192]{0}, /*index=5*/f32[2048,8192]{1,0}, f32[2048]{0}, f32[8192,2048]{1,0}, s32[], f32[8192]{0}, /*index=10*/f32[2048,8192]{1,0}, f32[2048]{0}, f32[8192,2048]{1,0}, s32[], f32[8192]{0}, /*index=15*/f32[2048,8192]{1,0}, f32[2048]{0}, f32[8192,2048]{1,0}, f32[8192]{0}, f32[2048,8192]{1,0}, /*index=20*/f32[2048]{0}, f32[8192,2048]{1,0}, f32[8192]{0}, f32[2048,8192]{1,0}, f32[2048]{0}, /*index=25*/f32[8192,2048]{1,0}) %tuple.30), index=18
[2m[36m(CompileWorker pid=1531828)[0m   %get-tuple-element.1006 = f32[2048,8192]{1,0} get-tuple-element((f32[8192]{0}, f32[2048,8192]{1,0}, f32[2048]{0}, f32[8192,2048]{1,0}, f32[8192]{0}, /*index=5*/f32[2048,8192]{1,0}, f32[2048]{0}, f32[8192,2048]{1,0}, s32[], f32[8192]{0}, /*index=10*/f32[2048,8192]{1,0}, f32[2048]{0}, f32[8192,2048]{1,0}, s32[], f32[8192]{0}, /*index=15*/f32[2048,8192]{1,0}, f32[2048]{0}, f32[8192,2048]{1,0}, f32[8192]{0}, f32[2048,8192]{1,0}, /*index=20*/f32[2048]{0}, f32[8192,2048]{1,0}, f32[8192]{0}, f32[2048,8192]{1,0}, f32[2048]{0}, /*index=25*/f32[8192,2048]{1,0}) %tuple.30), index=19
[2m[36m(CompileWorker pid=1531828)[0m   %get-tuple-element.1007 = f32[2048]{0} get-tuple-element((f32[8192]{0}, f32[2048,8192]{1,0}, f32[2048]{0}, f32[8192,2048]{1,0}, f32[8192]{0}, /*index=5*/f32[2048,8192]{1,0}, f32[2048]{0}, f32[8192,2048]{1,0}, s32[], f32[8192]{0}, /*index=10*/f32[2048,8192]{1,0}, f32[2048]{0}, f32[8192,2048]{1,0}, s32[], f32[8192]{0}, /*index=15*/f32[2048,8192]{1,0}, f32[2048]{0}, f32[8192,2048]{1,0}, f32[8192]{0}, f32[2048,8192]{1,0}, /*index=20*/f32[2048]{0}, f32[8192,2048]{1,0}, f32[8192]{0}, f32[2048,8192]{1,0}, f32[2048]{0}, /*index=25*/f32[8192,2048]{1,0}) %tuple.30), index=20
[2m[36m(CompileWorker pid=1531828)[0m   %get-tuple-element.1008 = f32[8192,2048]{1,0} get-tuple-element((f32[8192]{0}, f32[2048,8192]{1,0}, f32[2048]{0}, f32[8192,2048]{1,0}, f32[8192]{0}, /*index=5*/f32[2048,8192]{1,0}, f32[2048]{0}, f32[8192,2048]{1,0}, s32[], f32[8192]{0}, /*index=10*/f32[2048,8192]{1,0}, f32[2048]{0}, f32[8192,2048]{1,0}, s32[], f32[8192]{0}, /*index=15*/f32[2048,8192]{1,0}, f32[2048]{0}, f32[8192,2048]{1,0}, f32[8192]{0}, f32[2048,8192]{1,0}, /*index=20*/f32[2048]{0}, f32[8192,2048]{1,0}, f32[8192]{0}, f32[2048,8192]{1,0}, f32[2048]{0}, /*index=25*/f32[8192,2048]{1,0}) %tuple.30), index=21
[2m[36m(CompileWorker pid=1531828)[0m   %get-tuple-element.1009 = f32[8192]{0} get-tuple-element((f32[8192]{0}, f32[2048,8192]{1,0}, f32[2048]{0}, f32[8192,2048]{1,0}, f32[8192]{0}, /*index=5*/f32[2048,8192]{1,0}, f32[2048]{0}, f32[8192,2048]{1,0}, s32[], f32[8192]{0}, /*index=10*/f32[2048,8192]{1,0}, f32[2048]{0}, f32[8192,2048]{1,0}, s32[], f32[8192]{0}, /*index=15*/f32[2048,8192]{1,0}, f32[2048]{0}, f32[8192,2048]{1,0}, f32[8192]{0}, f32[2048,8192]{1,0}, /*index=20*/f32[2048]{0}, f32[8192,2048]{1,0}, f32[8192]{0}, f32[2048,8192]{1,0}, f32[2048]{0}, /*index=25*/f32[8192,2048]{1,0}) %tuple.30), index=22
[2m[36m(CompileWorker pid=1531828)[0m   %get-tuple-element.1010 = f32[2048,8192]{1,0} get-tuple-element((f32[8192]{0}, f32[2048,8192]{1,0}, f32[2048]{0}, f32[8192,2048]{1,0}, f32[8192]{0}, /*index=5*/f32[2048,8192]{1,0}, f32[2048]{0}, f32[8192,2048]{1,0}, s32[], f32[8192]{0}, /*index=10*/f32[2048,8192]{1,0}, f32[2048]{0}, f32[8192,2048]{1,0}, s32[], f32[8192]{0}, /*index=15*/f32[2048,8192]{1,0}, f32[2048]{0}, f32[8192,2048]{1,0}, f32[8192]{0}, f32[2048,8192]{1,0}, /*index=20*/f32[2048]{0}, f32[8192,2048]{1,0}, f32[8192]{0}, f32[2048,8192]{1,0}, f32[2048]{0}, /*index=25*/f32[8192,2048]{1,0}) %tuple.30), index=23
[2m[36m(CompileWorker pid=1531828)[0m   %get-tuple-element.1011 = f32[2048]{0} get-tuple-element((f32[8192]{0}, f32[2048,8192]{1,0}, f32[2048]{0}, f32[8192,2048]{1,0}, f32[8192]{0}, /*index=5*/f32[2048,8192]{1,0}, f32[2048]{0}, f32[8192,2048]{1,0}, s32[], f32[8192]{0}, /*index=10*/f32[2048,8192]{1,0}, f32[2048]{0}, f32[8192,2048]{1,0}, s32[], f32[8192]{0}, /*index=15*/f32[2048,8192]{1,0}, f32[2048]{0}, f32[8192,2048]{1,0}, f32[8192]{0}, f32[2048,8192]{1,0}, /*index=20*/f32[2048]{0}, f32[8192,2048]{1,0}, f32[8192]{0}, f32[2048,8192]{1,0}, f32[2048]{0}, /*index=25*/f32[8192,2048]{1,0}) %tuple.30), index=24
[2m[36m(CompileWorker pid=1531828)[0m   %get-tuple-element.1012 = f32[8192,2048]{1,0} get-tuple-element((f32[8192]{0}, f32[2048,8192]{1,0}, f32[2048]{0}, f32[8192,2048]{1,0}, f32[8192]{0}, /*index=5*/f32[2048,8192]{1,0}, f32[2048]{0}, f32[8192,2048]{1,0}, s32[], f32[8192]{0}, /*index=10*/f32[2048,8192]{1,0}, f32[2048]{0}, f32[8192,2048]{1,0}, s32[], f32[8192]{0}, /*index=15*/f32[2048,8192]{1,0}, f32[2048]{0}, f32[8192,2048]{1,0}, f32[8192]{0}, f32[2048,8192]{1,0}, /*index=20*/f32[2048]{0}, f32[8192,2048]{1,0}, f32[8192]{0}, f32[2048,8192]{1,0}, f32[2048]{0}, /*index=25*/f32[8192,2048]{1,0}) %tuple.30), index=25
[2m[36m(CompileWorker pid=1531828)[0m   ROOT %tuple.31 = (f32[8192]{0}, f32[2048,8192]{1,0}, f32[2048]{0}, f32[8192,2048]{1,0}, f32[8192]{0}, /*index=5*/f32[2048,8192]{1,0}, f32[2048]{0}, f32[8192,2048]{1,0}, s32[], f32[8192]{0}, /*index=10*/f32[2048,8192]{1,0}, f32[2048]{0}, f32[8192,2048]{1,0}, s32[], f32[8192]{0}, /*index=15*/f32[2048,8192]{1,0}, f32[2048]{0}, f32[8192,2048]{1,0}, f32[8192]{0}, f32[2048,8192]{1,0}, /*index=20*/f32[2048]{0}, f32[8192,2048]{1,0}, f32[8192]{0}, f32[2048,8192]{1,0}, f32[2048]{0}, /*index=25*/f32[8192,2048]{1,0}) tuple(f32[8192]{0} %get-tuple-element.987, f32[2048,8192]{1,0} %get-tuple-element.988, f32[2048]{0} %get-tuple-element.989, f32[8192,2048]{1,0} %get-tuple-element.990, f32[8192]{0} %get-tuple-element.991, /*index=5*/f32[2048,8192]{1,0} %get-tuple-element.992, f32[2048]{0} %get-tuple-element.993, f32[8192,2048]{1,0} %get-tuple-element.994, s32[] %get-tuple-element.995, f32[8192]{0} %get-tuple-element.996, /*index=10*/f32[2048,8192]{1,0} %get-tuple-element.997, f32[2048]{0} %get-tuple-element.998, f32[8192,2048]{1,0} %get-tuple-element.999, s32[] %get-tuple-element.1000, f32[8192]{0} %get-tuple-element.1001, /*index=15*/f32[2048,8192]{1,0} %get-tuple-element.1002, f32[2048]{0} %get-tuple-element.1003, f32[8192,2048]{1,0} %get-tuple-element.1004, f32[8192]{0} %get-tuple-element.1005, f32[2048,8192]{1,0} %get-tuple-element.1006, /*index=20*/f32[2048]{0} %get-tuple-element.1007, f32[8192,2048]{1,0} %get-tuple-element.1008, f32[8192]{0} %get-tuple-element.1009, f32[2048,8192]{1,0} %get-tuple-element.1010, f32[2048]{0} %get-tuple-element.1011, /*index=25*/f32[8192,2048]{1,0} %get-tuple-element.1012), metadata={op_name="tuple.27"}
[2m[36m(CompileWorker pid=1531828)[0m }
[2m[36m(CompileWorker pid=1531828)[0m 
[2m[36m(CompileWorker pid=1531828)[0m 
[2m[36m(CompileWorker pid=1531827)[0m   %get-tuple-element.140 = f32[8192]{0} get-tuple-element((f32[8192]{0}, f32[2048,8192]{1,0}, f32[2048]{0}, f32[8192,2048]{1,0}, f32[8192]{0}, /*index=5*/f32[2048,8192]{1,0}, f32[2048]{0}, f32[8192,2048]{1,0}, s32[], f32[8192]{0}, /*index=10*/f32[2048,8192]{1,0}, f32[2048]{0}, f32[8192,2048]{1,0}) %tuple.29), index=9
[2m[36m(CompileWorker pid=1531827)[0m   %get-tuple-element.141 = f32[2048,8192]{1,0} get-tuple-element((f32[8192]{0}, f32[2048,8192]{1,0}, f32[2048]{0}, f32[8192,2048]{1,0}, f32[8192]{0}, /*index=5*/f32[2048,8192]{1,0}, f32[2048]{0}, f32[8192,2048]{1,0}, s32[], f32[8192]{0}, /*index=10*/f32[2048,8192]{1,0}, f32[2048]{0}, f32[8192,2048]{1,0}) %tuple.29), index=10
[2m[36m(CompileWorker pid=1531827)[0m   %get-tuple-element.142 = f32[2048]{0} get-tuple-element((f32[8192]{0}, f32[2048,8192]{1,0}, f32[2048]{0}, f32[8192,2048]{1,0}, f32[8192]{0}, /*index=5*/f32[2048,8192]{1,0}, f32[2048]{0}, f32[8192,2048]{1,0}, s32[], f32[8192]{0}, /*index=10*/f32[2048,8192]{1,0}, f32[2048]{0}, f32[8192,2048]{1,0}) %tuple.29), index=11
[2m[36m(CompileWorker pid=1531827)[0m   %get-tuple-element.143 = f32[8192,2048]{1,0} get-tuple-element((f32[8192]{0}, f32[2048,8192]{1,0}, f32[2048]{0}, f32[8192,2048]{1,0}, f32[8192]{0}, /*index=5*/f32[2048,8192]{1,0}, f32[2048]{0}, f32[8192,2048]{1,0}, s32[], f32[8192]{0}, /*index=10*/f32[2048,8192]{1,0}, f32[2048]{0}, f32[8192,2048]{1,0}) %tuple.29), index=12
[2m[36m(CompileWorker pid=1531827)[0m   %tuple.30 = (f32[8192]{0}, f32[2048,8192]{1,0}, f32[2048]{0}, f32[8192,2048]{1,0}, f32[8192]{0}, /*index=5*/f32[2048,8192]{1,0}, f32[2048]{0}, f32[8192,2048]{1,0}, s32[], f32[8192]{0}, /*index=10*/f32[2048,8192]{1,0}, f32[2048]{0}, f32[8192,2048]{1,0}, s32[], f32[8192]{0}, /*index=15*/f32[2048,8192]{1,0}, f32[2048]{0}, f32[8192,2048]{1,0}, f32[8192]{0}, f32[2048,8192]{1,0}, /*index=20*/f32[2048]{0}, f32[8192,2048]{1,0}, f32[8192]{0}, f32[2048,8192]{1,0}, f32[2048]{0}, /*index=25*/f32[8192,2048]{1,0}) tuple(f32[8192]{0} %get-tuple-element.118, f32[2048,8192]{1,0} %get-tuple-element.119, f32[2048]{0} %get-tuple-element.120, f32[8192,2048]{1,0} %get-tuple-element.121, f32[8192]{0} %get-tuple-element.122, /*index=5*/f32[2048,8192]{1,0} %get-tuple-element.123, f32[2048]{0} %get-tuple-element.124, f32[8192,2048]{1,0} %get-tuple-element.125, s32[] %get-tuple-element.126, f32[8192]{0} %get-tuple-element.127, /*index=10*/f32[2048,8192]{1,0} %get-tuple-element.128, f32[2048]{0} %get-tuple-element.129, f32[8192,2048]{1,0} %get-tuple-element.130, s32[] %get-tuple-element.131, f32[8192]{0} %get-tuple-element.132, /*index=15*/f32[2048,8192]{1,0} %get-tuple-element.133, f32[2048]{0} %get-tuple-element.134, f32[8192,2048]{1,0} %get-tuple-element.135, f32[8192]{0} %get-tuple-element.136, f32[2048,8192]{1,0} %get-tuple-element.137, /*index=20*/f32[2048]{0} %get-tuple-element.138, f32[8192,2048]{1,0} %get-tuple-element.139, f32[8192]{0} %get-tuple-element.140, f32[2048,8192]{1,0} %get-tuple-element.141, f32[2048]{0} %get-tuple-element.142, /*index=25*/f32[8192,2048]{1,0} %get-tuple-element.143)
[2m[36m(CompileWorker pid=1531827)[0m   %get-tuple-element.987 = f32[8192]{0} get-tuple-element((f32[8192]{0}, f32[2048,8192]{1,0}, f32[2048]{0}, f32[8192,2048]{1,0}, f32[8192]{0}, /*index=5*/f32[2048,8192]{1,0}, f32[2048]{0}, f32[8192,2048]{1,0}, s32[], f32[8192]{0}, /*index=10*/f32[2048,8192]{1,0}, f32[2048]{0}, f32[8192,2048]{1,0}, s32[], f32[8192]{0}, /*index=15*/f32[2048,8192]{1,0}, f32[2048]{0}, f32[8192,2048]{1,0}, f32[8192]{0}, f32[2048,8192]{1,0}, /*index=20*/f32[2048]{0}, f32[8192,2048]{1,0}, f32[8192]{0}, f32[2048,8192]{1,0}, f32[2048]{0}, /*index=25*/f32[8192,2048]{1,0}) %tuple.30), index=0
[2m[36m(CompileWorker pid=1531827)[0m   %get-tuple-element.988 = f32[2048,8192]{1,0} get-tuple-element((f32[8192]{0}, f32[2048,8192]{1,0}, f32[2048]{0}, f32[8192,2048]{1,0}, f32[8192]{0}, /*index=5*/f32[2048,8192]{1,0}, f32[2048]{0}, f32[8192,2048]{1,0}, s32[], f32[8192]{0}, /*index=10*/f32[2048,8192]{1,0}, f32[2048]{0}, f32[8192,2048]{1,0}, s32[], f32[8192]{0}, /*index=15*/f32[2048,8192]{1,0}, f32[2048]{0}, f32[8192,2048]{1,0}, f32[8192]{0}, f32[2048,8192]{1,0}, /*index=20*/f32[2048]{0}, f32[8192,2048]{1,0}, f32[8192]{0}, f32[2048,8192]{1,0}, f32[2048]{0}, /*index=25*/f32[8192,2048]{1,0}) %tuple.30), index=1
[2m[36m(CompileWorker pid=1531827)[0m   %get-tuple-element.989 = f32[2048]{0} get-tuple-element((f32[8192]{0}, f32[2048,8192]{1,0}, f32[2048]{0}, f32[8192,2048]{1,0}, f32[8192]{0}, /*index=5*/f32[2048,8192]{1,0}, f32[2048]{0}, f32[8192,2048]{1,0}, s32[], f32[8192]{0}, /*index=10*/f32[2048,8192]{1,0}, f32[2048]{0}, f32[8192,2048]{1,0}, s32[], f32[8192]{0}, /*index=15*/f32[2048,8192]{1,0}, f32[2048]{0}, f32[8192,2048]{1,0}, f32[8192]{0}, f32[2048,8192]{1,0}, /*index=20*/f32[2048]{0}, f32[8192,2048]{1,0}, f32[8192]{0}, f32[2048,8192]{1,0}, f32[2048]{0}, /*index=25*/f32[8192,2048]{1,0}) %tuple.30), index=2
[2m[36m(CompileWorker pid=1531827)[0m   %get-tuple-element.990 = f32[8192,2048]{1,0} get-tuple-element((f32[8192]{0}, f32[2048,8192]{1,0}, f32[2048]{0}, f32[8192,2048]{1,0}, f32[8192]{0}, /*index=5*/f32[2048,8192]{1,0}, f32[2048]{0}, f32[8192,2048]{1,0}, s32[], f32[8192]{0}, /*index=10*/f32[2048,8192]{1,0}, f32[2048]{0}, f32[8192,2048]{1,0}, s32[], f32[8192]{0}, /*index=15*/f32[2048,8192]{1,0}, f32[2048]{0}, f32[8192,2048]{1,0}, f32[8192]{0}, f32[2048,8192]{1,0}, /*index=20*/f32[2048]{0}, f32[8192,2048]{1,0}, f32[8192]{0}, f32[2048,8192]{1,0}, f32[2048]{0}, /*index=25*/f32[8192,2048]{1,0}) %tuple.30), index=3
[2m[36m(CompileWorker pid=1531827)[0m   %get-tuple-element.991 = f32[8192]{0} get-tuple-element((f32[8192]{0}, f32[2048,8192]{1,0}, f32[2048]{0}, f32[8192,2048]{1,0}, f32[8192]{0}, /*index=5*/f32[2048,8192]{1,0}, f32[2048]{0}, f32[8192,2048]{1,0}, s32[], f32[8192]{0}, /*index=10*/f32[2048,8192]{1,0}, f32[2048]{0}, f32[8192,2048]{1,0}, s32[], f32[8192]{0}, /*index=15*/f32[2048,8192]{1,0}, f32[2048]{0}, f32[8192,2048]{1,0}, f32[8192]{0}, f32[2048,8192]{1,0}, /*index=20*/f32[2048]{0}, f32[8192,2048]{1,0}, f32[8192]{0}, f32[2048,8192]{1,0}, f32[2048]{0}, /*index=25*/f32[8192,2048]{1,0}) %tuple.30), index=4
[2m[36m(CompileWorker pid=1531827)[0m   %get-tuple-element.992 = f32[2048,8192]{1,0} get-tuple-element((f32[8192]{0}, f32[2048,8192]{1,0}, f32[2048]{0}, f32[8192,2048]{1,0}, f32[8192]{0}, /*index=5*/f32[2048,8192]{1,0}, f32[2048]{0}, f32[8192,2048]{1,0}, s32[], f32[8192]{0}, /*index=10*/f32[2048,8192]{1,0}, f32[2048]{0}, f32[8192,2048]{1,0}, s32[], f32[8192]{0}, /*index=15*/f32[2048,8192]{1,0}, f32[2048]{0}, f32[8192,2048]{1,0}, f32[8192]{0}, f32[2048,8192]{1,0}, /*index=20*/f32[2048]{0}, f32[8192,2048]{1,0}, f32[8192]{0}, f32[2048,8192]{1,0}, f32[2048]{0}, /*index=25*/f32[8192,2048]{1,0}) %tuple.30), index=5
[2m[36m(CompileWorker pid=1531827)[0m   %get-tuple-element.993 = f32[2048]{0} get-tuple-element((f32[8192]{0}, f32[2048,8192]{1,0}, f32[2048]{0}, f32[8192,2048]{1,0}, f32[8192]{0}, /*index=5*/f32[2048,8192]{1,0}, f32[2048]{0}, f32[8192,2048]{1,0}, s32[], f32[8192]{0}, /*index=10*/f32[2048,8192]{1,0}, f32[2048]{0}, f32[8192,2048]{1,0}, s32[], f32[8192]{0}, /*index=15*/f32[2048,8192]{1,0}, f32[2048]{0}, f32[8192,2048]{1,0}, f32[8192]{0}, f32[2048,8192]{1,0}, /*index=20*/f32[2048]{0}, f32[8192,2048]{1,0}, f32[8192]{0}, f32[2048,8192]{1,0}, f32[2048]{0}, /*index=25*/f32[8192,2048]{1,0}) %tuple.30), index=6
[2m[36m(CompileWorker pid=1531827)[0m   %get-tuple-element.994 = f32[8192,2048]{1,0} get-tuple-element((f32[8192]{0}, f32[2048,8192]{1,0}, f32[2048]{0}, f32[8192,2048]{1,0}, f32[8192]{0}, /*index=5*/f32[2048,8192]{1,0}, f32[2048]{0}, f32[8192,2048]{1,0}, s32[], f32[8192]{0}, /*index=10*/f32[2048,8192]{1,0}, f32[2048]{0}, f32[8192,2048]{1,0}, s32[], f32[8192]{0}, /*index=15*/f32[2048,8192]{1,0}, f32[2048]{0}, f32[8192,2048]{1,0}, f32[8192]{0}, f32[2048,8192]{1,0}, /*index=20*/f32[2048]{0}, f32[8192,2048]{1,0}, f32[8192]{0}, f32[2048,8192]{1,0}, f32[2048]{0}, /*index=25*/f32[8192,2048]{1,0}) %tuple.30), index=7
[2m[36m(CompileWorker pid=1531827)[0m   %get-tuple-element.995 = s32[] get-tuple-element((f32[8192]{0}, f32[2048,8192]{1,0}, f32[2048]{0}, f32[8192,2048]{1,0}, f32[8192]{0}, /*index=5*/f32[2048,8192]{1,0}, f32[2048]{0}, f32[8192,2048]{1,0}, s32[], f32[8192]{0}, /*index=10*/f32[2048,8192]{1,0}, f32[2048]{0}, f32[8192,2048]{1,0}, s32[], f32[8192]{0}, /*index=15*/f32[2048,8192]{1,0}, f32[2048]{0}, f32[8192,2048]{1,0}, f32[8192]{0}, f32[2048,8192]{1,0}, /*index=20*/f32[2048]{0}, f32[8192,2048]{1,0}, f32[8192]{0}, f32[2048,8192]{1,0}, f32[2048]{0}, /*index=25*/f32[8192,2048]{1,0}) %tuple.30), index=8
[2m[36m(CompileWorker pid=1531827)[0m   %get-tuple-element.996 = f32[8192]{0} get-tuple-element((f32[8192]{0}, f32[2048,8192]{1,0}, f32[2048]{0}, f32[8192,2048]{1,0}, f32[8192]{0}, /*index=5*/f32[2048,8192]{1,0}, f32[2048]{0}, f32[8192,2048]{1,0}, s32[], f32[8192]{0}, /*index=10*/f32[2048,8192]{1,0}, f32[2048]{0}, f32[8192,2048]{1,0}, s32[], f32[8192]{0}, /*index=15*/f32[2048,8192]{1,0}, f32[2048]{0}, f32[8192,2048]{1,0}, f32[8192]{0}, f32[2048,8192]{1,0}, /*index=20*/f32[2048]{0}, f32[8192,2048]{1,0}, f32[8192]{0}, f32[2048,8192]{1,0}, f32[2048]{0}, /*index=25*/f32[8192,2048]{1,0}) %tuple.30), index=9
[2m[36m(CompileWorker pid=1531827)[0m   %get-tuple-element.997 = f32[2048,8192]{1,0} get-tuple-element((f32[8192]{0}, f32[2048,8192]{1,0}, f32[2048]{0}, f32[8192,2048]{1,0}, f32[8192]{0}, /*index=5*/f32[2048,8192]{1,0}, f32[2048]{0}, f32[8192,2048]{1,0}, s32[], f32[8192]{0}, /*index=10*/f32[2048,8192]{1,0}, f32[2048]{0}, f32[8192,2048]{1,0}, s32[], f32[8192]{0}, /*index=15*/f32[2048,8192]{1,0}, f32[2048]{0}, f32[8192,2048]{1,0}, f32[8192]{0}, f32[2048,8192]{1,0}, /*index=20*/f32[2048]{0}, f32[8192,2048]{1,0}, f32[8192]{0}, f32[2048,8192]{1,0}, f32[2048]{0}, /*index=25*/f32[8192,2048]{1,0}) %tuple.30), index=10
[2m[36m(CompileWorker pid=1531827)[0m   %get-tuple-element.998 = f32[2048]{0} get-tuple-element((f32[8192]{0}, f32[2048,8192]{1,0}, f32[2048]{0}, f32[8192,2048]{1,0}, f32[8192]{0}, /*index=5*/f32[2048,8192]{1,0}, f32[2048]{0}, f32[8192,2048]{1,0}, s32[], f32[8192]{0}, /*index=10*/f32[2048,8192]{1,0}, f32[2048]{0}, f32[8192,2048]{1,0}, s32[], f32[8192]{0}, /*index=15*/f32[2048,8192]{1,0}, f32[2048]{0}, f32[8192,2048]{1,0}, f32[8192]{0}, f32[2048,8192]{1,0}, /*index=20*/f32[2048]{0}, f32[8192,2048]{1,0}, f32[8192]{0}, f32[2048,8192]{1,0}, f32[2048]{0}, /*index=25*/f32[8192,2048]{1,0}) %tuple.30), index=11
[2m[36m(CompileWorker pid=1531827)[0m   %get-tuple-element.999 = f32[8192,2048]{1,0} get-tuple-element((f32[8192]{0}, f32[2048,8192]{1,0}, f32[2048]{0}, f32[8192,2048]{1,0}, f32[8192]{0}, /*index=5*/f32[2048,8192]{1,0}, f32[2048]{0}, f32[8192,2048]{1,0}, s32[], f32[8192]{0}, /*index=10*/f32[2048,8192]{1,0}, f32[2048]{0}, f32[8192,2048]{1,0}, s32[], f32[8192]{0}, /*index=15*/f32[2048,8192]{1,0}, f32[2048]{0}, f32[8192,2048]{1,0}, f32[8192]{0}, f32[2048,8192]{1,0}, /*index=20*/f32[2048]{0}, f32[8192,2048]{1,0}, f32[8192]{0}, f32[2048,8192]{1,0}, f32[2048]{0}, /*index=25*/f32[8192,2048]{1,0}) %tuple.30), index=12
[2m[36m(CompileWorker pid=1531827)[0m   %get-tuple-element.1000 = s32[] get-tuple-element((f32[8192]{0}, f32[2048,8192]{1,0}, f32[2048]{0}, f32[8192,2048]{1,0}, f32[8192]{0}, /*index=5*/f32[2048,8192]{1,0}, f32[2048]{0}, f32[8192,2048]{1,0}, s32[], f32[8192]{0}, /*index=10*/f32[2048,8192]{1,0}, f32[2048]{0}, f32[8192,2048]{1,0}, s32[], f32[8192]{0}, /*index=15*/f32[2048,8192]{1,0}, f32[2048]{0}, f32[8192,2048]{1,0}, f32[8192]{0}, f32[2048,8192]{1,0}, /*index=20*/f32[2048]{0}, f32[8192,2048]{1,0}, f32[8192]{0}, f32[2048,8192]{1,0}, f32[2048]{0}, /*index=25*/f32[8192,2048]{1,0}) %tuple.30), index=13
[2m[36m(CompileWorker pid=1531827)[0m   %get-tuple-element.1001 = f32[8192]{0} get-tuple-element((f32[8192]{0}, f32[2048,8192]{1,0}, f32[2048]{0}, f32[8192,2048]{1,0}, f32[8192]{0}, /*index=5*/f32[2048,8192]{1,0}, f32[2048]{0}, f32[8192,2048]{1,0}, s32[], f32[8192]{0}, /*index=10*/f32[2048,8192]{1,0}, f32[2048]{0}, f32[8192,2048]{1,0}, s32[], f32[8192]{0}, /*index=15*/f32[2048,8192]{1,0}, f32[2048]{0}, f32[8192,2048]{1,0}, f32[8192]{0}, f32[2048,8192]{1,0}, /*index=20*/f32[2048]{0}, f32[8192,2048]{1,0}, f32[8192]{0}, f32[2048,8192]{1,0}, f32[2048]{0}, /*index=25*/f32[8192,2048]{1,0}) %tuple.30), index=14
[2m[36m(CompileWorker pid=1531827)[0m   %get-tuple-element.1002 = f32[2048,8192]{1,0} get-tuple-element((f32[8192]{0}, f32[2048,8192]{1,0}, f32[2048]{0}, f32[8192,2048]{1,0}, f32[8192]{0}, /*index=5*/f32[2048,8192]{1,0}, f32[2048]{0}, f32[8192,2048]{1,0}, s32[], f32[8192]{0}, /*index=10*/f32[2048,8192]{1,0}, f32[2048]{0}, f32[8192,2048]{1,0}, s32[], f32[8192]{0}, /*index=15*/f32[2048,8192]{1,0}, f32[2048]{0}, f32[8192,2048]{1,0}, f32[8192]{0}, f32[2048,8192]{1,0}, /*index=20*/f32[2048]{0}, f32[8192,2048]{1,0}, f32[8192]{0}, f32[2048,8192]{1,0}, f32[2048]{0}, /*index=25*/f32[8192,2048]{1,0}) %tuple.30), index=15
[2m[36m(CompileWorker pid=1531827)[0m   %get-tuple-element.1003 = f32[2048]{0} get-tuple-element((f32[8192]{0}, f32[2048,8192]{1,0}, f32[2048]{0}, f32[8192,2048]{1,0}, f32[8192]{0}, /*index=5*/f32[2048,8192]{1,0}, f32[2048]{0}, f32[8192,2048]{1,0}, s32[], f32[8192]{0}, /*index=10*/f32[2048,8192]{1,0}, f32[2048]{0}, f32[8192,2048]{1,0}, s32[], f32[8192]{0}, /*index=15*/f32[2048,8192]{1,0}, f32[2048]{0}, f32[8192,2048]{1,0}, f32[8192]{0}, f32[2048,8192]{1,0}, /*index=20*/f32[2048]{0}, f32[8192,2048]{1,0}, f32[8192]{0}, f32[2048,8192]{1,0}, f32[2048]{0}, /*index=25*/f32[8192,2048]{1,0}) %tuple.30), index=16
[2m[36m(CompileWorker pid=1531827)[0m   %get-tuple-element.1004 = f32[8192,2048]{1,0} get-tuple-element((f32[8192]{0}, f32[2048,8192]{1,0}, f32[2048]{0}, f32[8192,2048]{1,0}, f32[8192]{0}, /*index=5*/f32[2048,8192]{1,0}, f32[2048]{0}, f32[8192,2048]{1,0}, s32[], f32[8192]{0}, /*index=10*/f32[2048,8192]{1,0}, f32[2048]{0}, f32[8192,2048]{1,0}, s32[], f32[8192]{0}, /*index=15*/f32[2048,8192]{1,0}, f32[2048]{0}, f32[8192,2048]{1,0}, f32[8192]{0}, f32[2048,8192]{1,0}, /*index=20*/f32[2048]{0}, f32[8192,2048]{1,0}, f32[8192]{0}, f32[2048,8192]{1,0}, f32[2048]{0}, /*index=25*/f32[8192,2048]{1,0}) %tuple.30), index=17
[2m[36m(CompileWorker pid=1531827)[0m   %get-tuple-element.1005 = f32[8192]{0} get-tuple-element((f32[8192]{0}, f32[2048,8192]{1,0}, f32[2048]{0}, f32[8192,2048]{1,0}, f32[8192]{0}, /*index=5*/f32[2048,8192]{1,0}, f32[2048]{0}, f32[8192,2048]{1,0}, s32[], f32[8192]{0}, /*index=10*/f32[2048,8192]{1,0}, f32[2048]{0}, f32[8192,2048]{1,0}, s32[], f32[8192]{0}, /*index=15*/f32[2048,8192]{1,0}, f32[2048]{0}, f32[8192,2048]{1,0}, f32[8192]{0}, f32[2048,8192]{1,0}, /*index=20*/f32[2048]{0}, f32[8192,2048]{1,0}, f32[8192]{0}, f32[2048,8192]{1,0}, f32[2048]{0}, /*index=25*/f32[8192,2048]{1,0}) %tuple.30), index=18
[2m[36m(CompileWorker pid=1531827)[0m   %get-tuple-element.1006 = f32[2048,8192]{1,0} get-tuple-element((f32[8192]{0}, f32[2048,8192]{1,0}, f32[2048]{0}, f32[8192,2048]{1,0}, f32[8192]{0}, /*index=5*/f32[2048,8192]{1,0}, f32[2048]{0}, f32[8192,2048]{1,0}, s32[], f32[8192]{0}, /*index=10*/f32[2048,8192]{1,0}, f32[2048]{0}, f32[8192,2048]{1,0}, s32[], f32[8192]{0}, /*index=15*/f32[2048,8192]{1,0}, f32[2048]{0}, f32[8192,2048]{1,0}, f32[8192]{0}, f32[2048,8192]{1,0}, /*index=20*/f32[2048]{0}, f32[8192,2048]{1,0}, f32[8192]{0}, f32[2048,8192]{1,0}, f32[2048]{0}, /*index=25*/f32[8192,2048]{1,0}) %tuple.30), index=19
[2m[36m(CompileWorker pid=1531827)[0m   %get-tuple-element.1007 = f32[2048]{0} get-tuple-element((f32[8192]{0}, f32[2048,8192]{1,0}, f32[2048]{0}, f32[8192,2048]{1,0}, f32[8192]{0}, /*index=5*/f32[2048,8192]{1,0}, f32[2048]{0}, f32[8192,2048]{1,0}, s32[], f32[8192]{0}, /*index=10*/f32[2048,8192]{1,0}, f32[2048]{0}, f32[8192,2048]{1,0}, s32[], f32[8192]{0}, /*index=15*/f32[2048,8192]{1,0}, f32[2048]{0}, f32[8192,2048]{1,0}, f32[8192]{0}, f32[2048,8192]{1,0}, /*index=20*/f32[2048]{0}, f32[8192,2048]{1,0}, f32[8192]{0}, f32[2048,8192]{1,0}, f32[2048]{0}, /*index=25*/f32[8192,2048]{1,0}) %tuple.30), index=20
[2m[36m(CompileWorker pid=1531827)[0m   %get-tuple-element.1008 = f32[8192,2048]{1,0} get-tuple-element((f32[8192]{0}, f32[2048,8192]{1,0}, f32[2048]{0}, f32[8192,2048]{1,0}, f32[8192]{0}, /*index=5*/f32[2048,8192]{1,0}, f32[2048]{0}, f32[8192,2048]{1,0}, s32[], f32[8192]{0}, /*index=10*/f32[2048,8192]{1,0}, f32[2048]{0}, f32[8192,2048]{1,0}, s32[], f32[8192]{0}, /*index=15*/f32[2048,8192]{1,0}, f32[2048]{0}, f32[8192,2048]{1,0}, f32[8192]{0}, f32[2048,8192]{1,0}, /*index=20*/f32[2048]{0}, f32[8192,2048]{1,0}, f32[8192]{0}, f32[2048,8192]{1,0}, f32[2048]{0}, /*index=25*/f32[8192,2048]{1,0}) %tuple.30), index=21
[2m[36m(CompileWorker pid=1531827)[0m   %get-tuple-element.1009 = f32[8192]{0} get-tuple-element((f32[8192]{0}, f32[2048,8192]{1,0}, f32[2048]{0}, f32[8192,2048]{1,0}, f32[8192]{0}, /*index=5*/f32[2048,8192]{1,0}, f32[2048]{0}, f32[8192,2048]{1,0}, s32[], f32[8192]{0}, /*index=10*/f32[2048,8192]{1,0}, f32[2048]{0}, f32[8192,2048]{1,0}, s32[], f32[8192]{0}, /*index=15*/f32[2048,8192]{1,0}, f32[2048]{0}, f32[8192,2048]{1,0}, f32[8192]{0}, f32[2048,8192]{1,0}, /*index=20*/f32[2048]{0}, f32[8192,2048]{1,0}, f32[8192]{0}, f32[2048,8192]{1,0}, f32[2048]{0}, /*index=25*/f32[8192,2048]{1,0}) %tuple.30), index=22
[2m[36m(CompileWorker pid=1531827)[0m   %get-tuple-element.1010 = f32[2048,8192]{1,0} get-tuple-element((f32[8192]{0}, f32[2048,8192]{1,0}, f32[2048]{0}, f32[8192,2048]{1,0}, f32[8192]{0}, /*index=5*/f32[2048,8192]{1,0}, f32[2048]{0}, f32[8192,2048]{1,0}, s32[], f32[8192]{0}, /*index=10*/f32[2048,8192]{1,0}, f32[2048]{0}, f32[8192,2048]{1,0}, s32[], f32[8192]{0}, /*index=15*/f32[2048,8192]{1,0}, f32[2048]{0}, f32[8192,2048]{1,0}, f32[8192]{0}, f32[2048,8192]{1,0}, /*index=20*/f32[2048]{0}, f32[8192,2048]{1,0}, f32[8192]{0}, f32[2048,8192]{1,0}, f32[2048]{0}, /*index=25*/f32[8192,2048]{1,0}) %tuple.30), index=23
[2m[36m(CompileWorker pid=1531827)[0m   %get-tuple-element.1011 = f32[2048]{0} get-tuple-element((f32[8192]{0}, f32[2048,8192]{1,0}, f32[2048]{0}, f32[8192,2048]{1,0}, f32[8192]{0}, /*index=5*/f32[2048,8192]{1,0}, f32[2048]{0}, f32[8192,2048]{1,0}, s32[], f32[8192]{0}, /*index=10*/f32[2048,8192]{1,0}, f32[2048]{0}, f32[8192,2048]{1,0}, s32[], f32[8192]{0}, /*index=15*/f32[2048,8192]{1,0}, f32[2048]{0}, f32[8192,2048]{1,0}, f32[8192]{0}, f32[2048,8192]{1,0}, /*index=20*/f32[2048]{0}, f32[8192,2048]{1,0}, f32[8192]{0}, f32[2048,8192]{1,0}, f32[2048]{0}, /*index=25*/f32[8192,2048]{1,0}) %tuple.30), index=24
[2m[36m(CompileWorker pid=1531827)[0m   %get-tuple-element.1012 = f32[8192,2048]{1,0} get-tuple-element((f32[8192]{0}, f32[2048,8192]{1,0}, f32[2048]{0}, f32[8192,2048]{1,0}, f32[8192]{0}, /*index=5*/f32[2048,8192]{1,0}, f32[2048]{0}, f32[8192,2048]{1,0}, s32[], f32[8192]{0}, /*index=10*/f32[2048,8192]{1,0}, f32[2048]{0}, f32[8192,2048]{1,0}, s32[], f32[8192]{0}, /*index=15*/f32[2048,8192]{1,0}, f32[2048]{0}, f32[8192,2048]{1,0}, f32[8192]{0}, f32[2048,8192]{1,0}, /*index=20*/f32[2048]{0}, f32[8192,2048]{1,0}, f32[8192]{0}, f32[2048,8192]{1,0}, f32[2048]{0}, /*index=25*/f32[8192,2048]{1,0}) %tuple.30), index=25
[2m[36m(CompileWorker pid=1531827)[0m   ROOT %tuple.31 = (f32[8192]{0}, f32[2048,8192]{1,0}, f32[2048]{0}, f32[8192,2048]{1,0}, f32[8192]{0}, /*index=5*/f32[2048,8192]{1,0}, f32[2048]{0}, f32[8192,2048]{1,0}, s32[], f32[8192]{0}, /*index=10*/f32[2048,8192]{1,0}, f32[2048]{0}, f32[8192,2048]{1,0}, s32[], f32[8192]{0}, /*index=15*/f32[2048,8192]{1,0}, f32[2048]{0}, f32[8192,2048]{1,0}, f32[8192]{0}, f32[2048,8192]{1,0}, /*index=20*/f32[2048]{0}, f32[8192,2048]{1,0}, f32[8192]{0}, f32[2048,8192]{1,0}, f32[2048]{0}, /*index=25*/f32[8192,2048]{1,0}) tuple(f32[8192]{0} %get-tuple-element.987, f32[2048,8192]{1,0} %get-tuple-element.988, f32[2048]{0} %get-tuple-element.989, f32[8192,2048]{1,0} %get-tuple-element.990, f32[8192]{0} %get-tuple-element.991, /*index=5*/f32[2048,8192]{1,0} %get-tuple-element.992, f32[2048]{0} %get-tuple-element.993, f32[8192,2048]{1,0} %get-tuple-element.994, s32[] %get-tuple-element.995, f32[8192]{0} %get-tuple-element.996, /*index=10*/f32[2048,8192]{1,0} %get-tuple-element.997, f32[2048]{0} %get-tuple-element.998, f32[8192,2048]{1,0} %get-tuple-element.999, s32[] %get-tuple-element.1000, f32[8192]{0} %get-tuple-element.1001, /*index=15*/f32[2048,8192]{1,0} %get-tuple-element.1002, f32[2048]{0} %get-tuple-element.1003, f32[8192,2048]{1,0} %get-tuple-element.1004, f32[8192]{0} %get-tuple-element.1005, f32[2048,8192]{1,0} %get-tuple-element.1006, /*index=20*/f32[2048]{0} %get-tuple-element.1007, f32[8192,2048]{1,0} %get-tuple-element.1008, f32[8192]{0} %get-tuple-element.1009, f32[2048,8192]{1,0} %get-tuple-element.1010, f32[2048]{0} %get-tuple-element.1011, /*index=25*/f32[8192,2048]{1,0} %get-tuple-element.1012), metadata={op_name="tuple.27"}
[2m[36m(CompileWorker pid=1531827)[0m }
[2m[36m(CompileWorker pid=1531827)[0m 
[2m[36m(CompileWorker pid=1531827)[0m 
result[(0, 0, 0, 0), 1] = ModuleProfileResult(compute_cost=0.001, peak_memory=0.202 GB, invar_size=0.195 GB, outvar_size=0.125 GB, temp_buffer_size=0.008 GB, available_memory=20.882 GB)
result[(0, 0, 0, 1), 0] = ModuleProfileResult(compute_cost=0.001, peak_memory=0.132 GB, invar_size=0.126 GB, outvar_size=0.006 GB, temp_buffer_size=0.000 GB, available_memory=20.882 GB)
result[(0, 0, 0, 1), 1] = ModuleProfileResult(compute_cost=0.001, peak_memory=0.202 GB, invar_size=0.195 GB, outvar_size=0.125 GB, temp_buffer_size=0.008 GB, available_memory=20.882 GB)
result[(0, 1, 0, 0), 0] = ModuleProfileResult(compute_cost=0.001, peak_memory=0.264 GB, invar_size=0.252 GB, outvar_size=0.012 GB, temp_buffer_size=0.000 GB, available_memory=20.882 GB)
result[(0, 1, 0, 0), 1] = ModuleProfileResult(compute_cost=0.002, peak_memory=0.459 GB, invar_size=0.451 GB, outvar_size=0.250 GB, temp_buffer_size=0.008 GB, available_memory=20.882 GB)
result[(0, 1, 0, 1), 0] = ModuleProfileResult(compute_cost=0.001, peak_memory=0.264 GB, invar_size=0.252 GB, outvar_size=0.012 GB, temp_buffer_size=0.000 GB, available_memory=20.882 GB)
result[(0, 1, 0, 1), 1] = ModuleProfileResult(compute_cost=0.002, peak_memory=0.459 GB, invar_size=0.451 GB, outvar_size=0.250 GB, temp_buffer_size=0.008 GB, available_memory=20.882 GB)
result[(1, 1, 0, 0), 0] = ModuleProfileResult(compute_cost=0.001, peak_memory=0.133 GB, invar_size=0.127 GB, outvar_size=0.006 GB, temp_buffer_size=0.000 GB, available_memory=20.882 GB)
result[(1, 1, 0, 0), 1] = ModuleProfileResult(compute_cost=0.001, peak_memory=0.266 GB, invar_size=0.257 GB, outvar_size=0.126 GB, temp_buffer_size=0.008 GB, available_memory=20.882 GB)
result[(1, 1, 0, 1), 0] = ModuleProfileResult(compute_cost=0.001, peak_memory=0.133 GB, invar_size=0.127 GB, outvar_size=0.006 GB, temp_buffer_size=0.000 GB, available_memory=20.882 GB)
result[(1, 1, 0, 1), 1] = ModuleProfileResult(compute_cost=0.001, peak_memory=0.266 GB, invar_size=0.257 GB, outvar_size=0.126 GB, temp_buffer_size=0.008 GB, available_memory=20.882 GB)
result[(0, 0, 0, 0), 0] = ModuleProfileResult(compute_cost=0.001, peak_memory=0.132 GB, invar_size=0.126 GB, outvar_size=0.006 GB, temp_buffer_size=0.000 GB, available_memory=21.105 GB)
Profiling for submesh 0 (1, 1) takes 12.41 seconds
--------------------------------------------------
Profile result saved to: profile-results-2023-11-14-08-15-12.npy
----------------------------------------------------------------------
Result forward_stage_layer_ids: [[0], [1]]
Result mesh_shapes: [(1, 1), (1, 1)]
Result logical_mesh_shapes: [(1, 1), (1, 1)]
Result autosharding_option_dicts: [{'force_batch_dim_to_mesh_dim': 0}, {'force_batch_dim_to_mesh_dim': 0}]
